end-term-submission/ai-methods/interference-graph/models/best_model.pt (torch, 208634 bytes, 75 tensors)

convs.0.nn.0.weight f4 [32, 22]
000000 01 d5 9f bd b9 60 1b 3d 37 60 a5 bd 0e af 36 3e
       -0.07804299 0.03793404 -0.08074992 0.17840216
000010 b0 32 bc 3d 47 36 97 bb 01 07 d7 00 28 fb 35 00
       0.091893554 -0.0046146247 1.9747144e-38 4.957379e-39
000020 6c c5 51 be bc ff ce 80 38 e7 6a 3e 6e 92 4d bd
       -0.20485467 -1.9009852e-38 0.22939765 -0.050188474
000030 b6 89 ea bb 75 03 0b bd 95 05 04 bd f5 fb 87 bc
       -0.0071575297 -0.033938844 -0.032231886 -0.016599635
000040 90 16 fa 3d 1e 6b 61 81 35 c3 33 00 d7 df 0b 3d
       0.12211335 -4.1402826e-38 4.753637e-39 0.034149017
000050 ba 82 77 00 86 d2 34 bd 56 28 a4 3b 81 ea 85 bd
       1.097532e-38 -0.044146083 0.005009691 -0.06538869
000060 25 36 03 3e 26 76 1a be 03 1f b6 bb e2 de 3c 3d
       0.12813623 -0.15084133 -0.005557896 0.046110995
000070 c1 98 a1 81 aa 83 2d 81 11 7d 29 be 97 de 6b 00
       -5.936125e-38 -3.1869546e-38 -0.16551615 9.906248e-39
000080 f3 0d e5 3d a4 a5 62 3d 52 13 fd bd da 8c 44 3d
       0.11184301 0.05533375 -0.12357201 0.04798589
000090 ff 2c 68 be a1 32 e0 3d 1e b2 00 bd bc 86 7b 01
       -0.22673415 0.10947157 -0.031419866 4.6198086e-38
0000a0 97 75 b3 01 b1 5d d0 bd f8 50 b7 80 bf c2 1f be
       6.592295e-38 -0.1017412 -1.6834942e-38 -0.15601633
0000b0 09 ff 72 3d cf cd 34 be 48 3f 14 3e 16 15 5e bc
       0.05932525 -0.17656635 0.14477265 -0.013554832
0000c0 bc 33 ac 3c 64 09 2b be 82 bb a2 00 45 25 47 00
       0.021020763 -0.16702801 1.4944616e-38 6.53369e-39
0000d0 32 d7 16 be 9e 06 00 81 3f f3 b5 3d 58 9a 26 be
       -0.14730528 -2.3514635e-38 0.08884286 -0.16269815
0000e0 8d 39 bd bd 45 d6 3e bd ec 5d 1a 3e d1 93 1f 3e
       -0.092394926 -0.046591062 0.15074891 0.15583731
0000f0 41 48 9a bd 7c 49 2d 01 41 fc 72 81 01 04 2b 3c
       -0.075333126 3.1827804e-38 -4.4629363e-38 0.010437966
000100 7f 54 94 00 fb 7f 10 be 2b 8b 0f 3e b8 07 95 bd
       1.3621965e-38 -0.1411132 0.14017932 -0.07276863
000110 ed 76 fa 3d 26 4a d8 bd c3 01 14 3d 71 65 ab 3d
       0.122297145 -0.10561018 0.036134493 0.08368958
000120 f1 fc 23 81 d4 90 ac 00 36 37 37 3e 30 7e 6b 80
       -3.0119848e-38 1.584766e-38 0.17892155 -9.871666e-39
000130 85 cd 52 bd 46 2a b7 3d 8f 8f d5 bd 59 5a cf bd
       -0.05146553 0.0894361 -0.10427772 -0.10124654
000140 c6 c9 0c be 26 a3 d9 bd 7c 6c 9b bd fa 00 8d 01
       -0.13748845 -0.10626821 -0.07589051 5.179662e-38
000150 7a d3 29 01 99 1c 05 3e a5 65 93 00 12 de 39 be
       3.1192125e-38 0.1299919 1.3536281e-38 -0.1815112
000160 8e d0 f5 3d d9 f0 52 bd 26 01 9f 3d f8 e7 16 be
       0.12002669 -0.05149922 0.07763891 -0.14736927
000170 8d b8 08 3e fb 32 3c bd 21 65 23 00 5a a9 9b 00
       0.1335165 -0.045947056 3.25052e-39 1.4295254e-38
000180 2b aa 97 3e 23 8e b0 80 39 28 db 3d 6a b1 a7 bd
       0.29622015 -1.6214036e-38 0.10701031 -0.08188136
000190 e1 7c c1 3c f5 f2 21 be b0 57 be bd b0 27 50 3d
       0.023619117 -0.15815337 -0.09294069 0.0508191
0001a0 bb dc eb 3d 52 22 1e 01 77 84 84 01 68 c9 7d be
       0.1151671 2.904464e-38 4.867922e-38 -0.24783862
0001b0 41 0e 15 81 37 0d 1b 3e 6e 15 e3 bb 87 92 2f 3b
       -2.7377205e-38 0.1514176 -0.006930045 0.0026790218
0001c0 6c ab 63 bd f1 8b a1 3d 93 47 2c 3d ce a6 57 bc
       -0.055583403 0.0788802 0.042060446 -0.013162328
0001d0 ca 20 73 01 56 ee 19 81 78 66 9b be 12 c0 60 80
       4.4655576e-38 -2.827266e-38 -0.30351615 -8.88511e-39
0001e0 c9 9f 8d 3d 4a 91 48 bd f2 05 3e bd 5e cc 08 be
       0.06915242 -0.048966683 -0.04639239 -0.1335921
0001f0 17 32 ee 3d 11 11 d0 bb 1a 6f 0a 3e 3e df 84 81
       0.11630648 -0.0063496907 0.13518944 -4.880948e-38
000200 75 27 03 81 c6 ff 53 3e ba 98 b5 01 bd 01 42 3e
       -2.408921e-38 0.20703039 6.670805e-38 0.18945976
000210 97 c2 e3 3d 5c 0a 02 be 00 47 02 be ab f5 9f 3d
       0.111210994 -0.12699264 -0.12722397 0.07810529
000220 46 f8 63 be c8 0e d4 bb 48 68 a7 01 48 3a 24 01
       -0.22262678 -0.0064714886 6.149575e-38 3.0163857e-38
000230 66 cb 4d bd ed 8b 99 80 25 c0 a3 3c 88 89 18 be
       -0.050242804 -1.4101027e-38 0.019989083 -0.14896214
000240 f1 e5 0f be 86 2f 40 bc de 77 ab bd 01 1c 59 3e
       -0.1405256 -0.0117300805 -0.08372472 0.21202089
000250 9c 2d ad bd a1 d3 73 80 01 5a 3b 80 2b d6 fc 3b
       -0.08455965 -1.0637e-38 -5.450582e-39 0.0077159605
000260 3e 77 27 00 21 f5 17 be 38 fa 93 bc ae 6f 1e 3e
       3.62436e-39 -0.14839603 -0.01806365 0.1547229
000270 a6 e5 03 be e6 57 b4 bc 56 06 e5 bd 6c f5 ab 3d
       -0.12880573 -0.02201457 -0.11182849 0.0839642
000280 50 25 7b 81 ea 9f 05 01 b3 1e 65 3d 82 08 83 01
       -4.612819e-38 2.4542975e-38 0.05593748 4.813401e-38
000290 2c f9 fb 3d d0 91 4e 3c 39 f9 10 3e 43 a4 01 bd
       0.12303385 0.012608007 0.14157571 -0.031650793
0002a0 8e fb 8f 3d fc df cf bd f6 52 95 bc 7c 84 f8 00
       0.07030402 -0.101501435 -0.018228035 2.282273e-38
0002b0 17 be c8 00 4e 62 74 be d8 6c 0a 01 c3 f0 4f 3e
       1.843529e-38 -0.23865625 2.5424689e-38 0.20306687
0002c0 aa 43 e8 bc fd 1a f1 3b d9 06 2f 3d 04 d9 6f bd
       -0.028352577 0.0073579536 0.04273114 -0.05855657
0002d0 79 f8 30 3e a3 86 e2 3d b9 23 50 81 08 46 79 00
       0.17282285 0.11060836 -3.8229196e-38 1.1137218e-38
0002e0 e2 81 55 3e b2 53 38 81 7e 09 88 3b 68 37 6c 3d
       0.20850328 -3.385551e-38 0.004151522 0.057670027
0002f0 64 1d ee bc 33 f7 11 be cb 8b 2f 3e ed 98 8e 3d
       -0.029066749 -0.14254455 0.1714317 0.06962762
000300 29 40 3d 3c 2e b3 7d 01 7c 37 90 01 5f 3b 58 be
       0.0115509415 4.6597316e-38 5.297686e-38 -0.21116398
000310 d9 99 6d 81 71 01 94 3d 7e db 11 3e f6 c1 0b 3e
       -4.3640405e-38 0.072268374 0.14243886 0.13648209
000320 f3 f0 11 be 4a 06 ae ba 36 3c 16 3e d4 c4 66 bc
       -0.14252071 -0.0013277021 0.14671406 -0.014085013
000330 ce 6b f5 80 84 1e 23 01 42 e2 b1 ba 67 68 9c 00
       -2.253837e-38 2.9960266e-38 -0.0013571458 1.436379e-38
000340 aa ef 0e bd 66 50 4f 3d 89 23 36 3e a9 95 32 3e
       -0.03489653 0.050613783 0.17786993 0.17439903
000350 63 62 a6 bd a3 67 5c 3d c5 e9 37 3d bd 86 9d 00
       -0.081242345 0.053809773 0.044900674 1.4466508e-38
000360 ee 7a ac 01 b3 bd e2 3d 20 bc 8b 80 73 88 34 3d
       6.3359217e-38 0.110713385 -1.283262e-38 0.04407544
000370 5f 4c b2 bd 4a b9 99 3d ab 61 dc 3d 2a 54 2b 3e
       -0.08705973 0.07506044 0.10760816 0.16731325
000380 87 e4 da bb 2d cb 8c bd 89 db 33 81 12 ce 84 00
       -0.0066800746 -0.0687469 -3.3034616e-38 1.219621e-38
000390 ba 18 a9 bd a6 7a cd 00 6b 8e 30 3e 3f a8 cd 3d
       -0.08256669 1.8870275e-38 0.17241828 0.10041856
0003a0 5a a1 ab bc 9f b5 02 3e 16 6b 0c 3e 42 ff 28 be
       -0.020950962 0.12764595 0.13712725 -0.16503623
0003b0 df 35 c8 bd 95 5d 20 00 d2 9b ca 80 99 d7 61 3e
       -0.097759 2.972307e-39 -1.8606668e-38 0.220549
0003c0 e9 f9 68 80 49 6f 5b be 11 d3 36 be 1a 90 83 3d
       -9.640542e-39 -0.2142917 -0.17853953 0.064239696
0003d0 ba c7 af 3d 19 e4 1d 3e d5 65 14 3e a0 fa a3 bd
       0.08583017 0.15419044 0.14491971 -0.08006787
0003e0 8e 46 08 80 8c 47 5d 81 af 28 1f 3e 41 f6 64 80
       -7.59994e-40 -4.0642622e-38 0.15542863 -9.271889e-39
0003f0 61 0e 03 be 34 c2 b3 3d 7f 1b 44 be f7 4e b9 3d
       -0.12798454 0.08777276 -0.19151114 0.090482645

convs.0.nn.0.bias f4 [32]
000000 84 3d f3 b3 17 33 69 34 e2 6e 13 b3 50 8b 00 34
       -1.1326759e-07 2.1718402e-07 -3.4326952e-08 1.197161e-07
000010 c1 13 1d 34 d1 f0 1d b3 b0 7b 56 34 a1 4f d4 33
       1.4628951e-07 -3.6773432e-08 1.99753e-07 9.886504e-08
000020 ce bb e3 b2 85 25 f4 32 84 b6 44 b3 55 9c ee 31
       -2.6511682e-08 2.84224e-08 -4.5800803e-08 6.9444845e-09
000030 df b4 56 33 fb 79 e7 b2 7d 55 e1 33 e8 66 75 b2
       4.999026e-08 -2.694741e-08 1.0492929e-07 -1.4284275e-08
000040 ff 01 ab b3 f3 37 d2 32 42 12 38 b4 37 0e 19 b3
       -7.963171e-08 2.447266e-08 -1.7142978e-07 -3.5636017e-08
000050 5c 90 f5 b2 d1 fe 9a 33 7a e2 2b 33 47 70 84 b1
       -2.8587401e-08 7.217535e-08 4.002002e-08 -3.85447e-09
000060 de a9 a3 33 58 f4 6e 33 84 a2 00 34 91 be 54 34
       7.6211776e-08 5.5635923e-08 1.1980052e-07 1.9813366e-07
000070 9c fc 28 b4 43 9a 3b b4 58 f6 ba b3 b6 09 1c b2
       -1.5738118e-07 -1.7471852e-07 -8.7061096e-08 -9.082603e-09

convs.0.nn.1.weight f4 [32]
000000 9a 2c 55 3f d4 b0 41 3f 6c ef 37 3f ed c8 47 3f
       0.8327118 0.75660443 0.71849704 0.78040963
000010 32 ae 5b 3f dd 7d 6d 3f 2b cb 48 3f 96 3b 3c 3f
       0.85812676 0.9277018 0.7843501 0.7352842
000020 44 bf 56 3f ad 67 4c 3f d5 d5 3c 3f b8 aa 32 3f
       0.838856 0.79845697 0.7376378 0.69791746
000030 fc 38 57 3f 94 42 4f 3f 3a a0 39 3f 2f de 55 3f
       0.84071326 0.80960965 0.7251011 0.8354215
000040 f8 2d 46 3f bc 47 49 3f 5b 3d 44 3f b0 da 42 3f
       0.7741389 0.7862508 0.7665612 0.7611494
000050 54 32 5c 3f df af 2b 3f 84 29 42 3f 96 20 48 3f
       0.86014295 0.67065233 0.758446 0.7817472
000060 62 10 5c 3f 71 85 3b 3f 8e 46 46 3f ce 29 3c 3f
       0.859625 0.7325049 0.7745141 0.7350129
000070 f4 60 40 3f 17 46 3e 3f 89 8c 4b 3f 32 28 3a 3f
       0.7514794 0.743257 0.79511315 0.72717583

convs.0.nn.1.bias f4 [32]
000000 c7 35 92 3d dc 4b 01 3d f1 ec d8 3c 94 ab d9 bc
       0.071391635 0.031566486 0.02648017 -0.026571073
000010 9c ad 08 bd b7 44 22 3e 96 29 aa 3c 2a 77 82 3c
       -0.03336869 0.15846525 0.020771783 0.015925962
000020 84 aa 88 bc 20 d0 9c 3c a1 bd f6 3c 29 6a 0b bd
       -0.01668287 0.01914221 0.030119719 -0.03403679
000030 24 99 03 3c 04 0b 01 bc cb 32 94 ba c4 97 56 3d
       0.008032117 -0.0078761615 -0.0011306641 0.05239083
000040 83 4d 28 ba 8d 27 1a bd aa 33 4e 3c ae b6 37 3c
       -0.00064202416 -0.037635375 0.01258556 0.011212988
000050 d4 bc 04 bd 0c e8 57 bd 34 61 2a bd b0 44 88 bc
       -0.032406643 -0.05271153 -0.041596606 -0.016634315
000060 6e b4 b4 3d f8 d6 55 3b ad b5 21 3d d1 fa 60 bc
       0.08823477 0.0032629352 0.0394799 -0.013731674
000070 87 a4 85 bd e9 a4 06 3b d5 5f 19 3c e7 7e 76 3a
       -0.06525522 0.0020545071 0.009361227 0.0009403065

convs.0.nn.1.running_mean f4 [32]
000000 4f 08 87 3c 27 29 5f b9 c5 f0 bf bc d2 47 89 bc
       0.016483454 -0.00021282268 -0.023430238 -0.01675788
000010 d6 a4 d1 bc e8 ad 91 ba 98 07 27 bd bd 35 26 3c
       -0.025591295 -0.001111445 -0.040778726 0.010144648
000020 82 2c 4c 3c 07 48 ac bc 86 77 1d 3d a6 64 3f 3d
       0.012461783 -0.021030439 0.038444065 0.046726845
000030 11 1e bd 3c 02 0e 23 3c fb d9 52 bb 2c c9 dc 3b
       0.023085626 0.00995207 -0.0032173384 0.0067378487
000040 99 81 97 3b 62 ea bc bc fc 6f 37 3d a1 ee df 3c
       0.0046236035 -0.023060981 0.04478453 0.027335467
000050 8a 11 ce 3c d4 27 44 bc d9 36 b5 bb 83 c0 41 bc
       0.025154848 -0.011972386 -0.00553022 -0.0118256835
000060 d8 f4 c4 3a 7a 5f a0 bc a7 62 a9 bc 83 2a d1 3b
       0.0015026582 -0.019576777 -0.020676924 0.0063832416
000070 c4 87 a3 3b 0c 12 7f 3b 43 55 66 bc 8c 10 62 3c
       0.0049905498 0.003892067 -0.014058414 0.01379789

convs.0.nn.1.running_var f4 [32]
000000 ef 59 6e 3e c2 7a 3b 3e ca 22 f7 3e 64 a0 c5 3e
       0.23276494 0.18308547 0.4826873 0.3859893
000010 68 0c 32 3f 7c 60 d0 3e fd ea ab 3e 64 a1 80 3e
       0.6955018 0.40698612 0.3357772 0.2512313
000020 a6 23 13 3f 21 c9 8a 3e 9b a0 11 3f 1d c5 d4 3e
       0.5747627 0.27106574 0.5688569 0.41556635
000030 ad 3f 2f 3f 1c 02 fb 3e 2a 31 9b 3e 22 7f 0c 3e
       0.68456537 0.49025047 0.30310947 0.13720372
000040 df e6 03 3f d7 35 aa 3e b4 0f 15 3f 81 a9 1f 3e
       0.51524156 0.33244202 0.58227086 0.15592004
000050 c1 b1 b4 3e 92 03 d3 3e 18 e0 ac 3e 53 ef 01 3e
       0.35291865 0.4121366 0.3376472 0.12688951
000060 be 25 51 3e b7 20 be 3e e3 a9 8e 3e 2d d6 ad 3e
       0.20424554 0.37134334 0.27863988 0.33952466
000070 99 11 8a 3e 4c d9 ca 3d 34 d1 fa 3e 74 38 c0 3e
       0.2696655 0.09904727 0.48987734 0.3754307

convs.0.nn.3.weight f4 [32, 32]
000000 77 5f 5d bd 67 3e 10 3e 34 33 7e 3d 41 e1 66 3d
       -0.05404612 0.14086305 0.06206055 0.056367163
000010 d0 e2 06 bc 35 45 0f be 89 77 0e be f6 3d 9f 3d
       -0.008232787 -0.13991244 -0.13912787 0.0777549
000020 9b a4 10 bd 05 02 74 bd 78 0c 00 3c 8e 70 eb 3d
       -0.03531323 -0.05957224 0.007815473 0.114960775
000030 7d 12 d3 3c 84 b1 8d bd 4e b9 05 be 3e 92 02 3e
       0.025765652 -0.06918624 -0.1305897 0.127511
000040 d5 61 b0 bd 32 87 6e 3d 97 01 f9 3d 9d 21 b9 3c
       -0.0861241 0.0582344 0.12158506 0.022599036
000050 eb 21 92 bd 40 dc 08 be 06 2a 3a be e9 3d 35 3e
       -0.071353756 -0.13365269 -0.18180093 0.17699398
000060 69 74 2b 3b a4 13 16 3e a9 89 b4 3d 2c 21 70 3d
       0.0026161915 0.1465593 0.08815319 0.058625385
000070 a7 70 b4 bd c7 39 e3 3c c6 c2 5c 3d 14 bb 00 be
       -0.08810549 0.027737511 0.053896688 -0.12571365
000080 08 0a 7f 3d 74 81 58 bc c0 ad b7 bd 16 50 d4 bd
       0.062265426 -0.013214458 -0.08968687 -0.10366838
000090 a8 73 bd bd b4 b6 62 3e 2e 22 44 3d 2b 9b 8a 3d
       -0.09250575 0.22140008 0.04788416 0.06767877
0000a0 88 a7 c2 bc 2f 83 19 3e 90 68 00 be aa 48 0e bc
       -0.023761526 0.14991449 -0.12539887 -0.008684317
0000b0 dd df 13 be 83 56 f3 bd e4 52 d3 3d 88 ae 30 be
       -0.14440866 -0.11881735 0.103185445 -0.17254078
0000c0 1d a0 aa 3d 05 86 39 be 32 fa c5 3d 78 9a 09 be
       0.083313204 -0.1811753 0.096668616 -0.13437831
0000d0 ad bb c9 3d f6 d0 1e 3d 71 0a fa bd fe 1e 97 3c
       0.098502494 0.0387735 -0.12209023 0.018447395
0000e0 85 ff 5d bc ec 01 81 3c 03 6e b8 bd 5b c9 24 3c
       -0.01354969 0.015747987 -0.09005358 0.0100577725
0000f0 25 24 b9 bd b4 33 36 be 0c bd 0f be 79 e9 71 3b
       -0.09040097 -0.1779316 -0.1403696 0.0036912842
000100 35 5e 21 be 07 60 90 3b 97 54 89 3c a6 40 fe 3d
       -0.15758593 0.0044059786 0.016763968 0.124146745
000110 bf 53 13 be 2b 73 57 be c5 ed fe 3d 22 c0 62 3d
       -0.14387415 -0.21040027 0.12447695 0.055359013
000120 50 e8 e4 3d 6d 56 f6 bd f1 af c5 3d 66 c2 42 bd
       0.111771226 -0.12028203 0.09652699 -0.047548674
000130 d5 35 5a bc b6 77 c5 bd 07 b2 06 be a7 91 63 3d
       -0.013318499 -0.09641974 -0.1315385 0.055558827
000140 a2 11 c2 bd 70 18 08 3c 0e bc 75 bc 59 70 1f bc
       -0.094760194 0.008306608 -0.014998449 -0.009731376
000150 a7 a4 00 be d7 41 56 bc 4e 31 a5 3c ea eb c0 3d
       -0.1256281 -0.013077221 0.020165112 0.09419997
000160 dc 5e 76 3d 86 7c e4 3c b3 7d 46 be 6f 5f 57 3d
       0.06014906 0.027891409 -0.19383888 0.052581247
000170 95 f1 08 3d 27 d4 9e ba ab 10 60 3d d9 c4 23 3d
       0.033433516 -0.001211767 0.054703396 0.03998265
000180 c0 92 1c 3d 08 33 f0 bd 49 b7 b4 bd bc 34 eb 3c
       0.03822589 -0.117284834 -0.08824021 0.02871167
000190 9b d2 af 3d c9 5f 3f bc 61 82 46 3d 8f 95 86 bd
       0.08585092 -0.011680552 0.048464183 -0.06571495
0001a0 ec a2 f9 3d 23 f1 88 3c 70 af 00 3e 50 20 03 be
       0.12189278 0.016716545 0.12566924 -0.12805295
0001b0 f1 64 18 bd 63 cf 21 be d8 d6 f5 bc 69 e6 91 bd
       -0.03720564 -0.15801768 -0.030009672 -0.071240254
0001c0 72 fb db bd fa 70 7a 3d ce 98 e7 bd e7 ee 9c bd
       -0.10741319 0.0611429 -0.11308442 -0.076627545
0001d0 28 2a 8f 3b 02 a2 07 3d 6a e3 70 3d d4 2b 2d 3d
       0.004369039 0.033113487 0.05881063 0.042278126
0001e0 35 25 0b 3e 97 d8 31 3d b5 11 15 3e 81 55 c4 3c
       0.13588412 0.043419447 0.14557536 0.023966553
0001f0 8b 7e d3 3a 92 00 00 3c 87 a2 f5 bd 4a a7 67 bd
       0.0016135735 0.007812636 -0.1199389 -0.056556024
000200 18 70 3a 3e df f8 62 bd ae c9 b7 3d c5 c7 f2 bd
       0.18206823 -0.055413123 0.08974014 -0.11854509
000210 19 e3 d0 3c 7d b2 ee bc ae 96 d3 bd d0 16 d0 bd
       0.025498914 -0.029137844 -0.10331474 -0.10160601
000220 56 4e 04 3e 90 73 40 3e 4d 8b 9b bc 7e 32 92 3d
       0.12920508 0.18794084 -0.018987322 0.07138537
000230 ce 43 f2 bd 20 dc f2 bd c7 12 0a 3e 9c bd 6b bc
       -0.11829339 -0.11858392 0.13483725 -0.014388468
000240 76 a5 00 be ed 14 05 be d5 26 e8 bd 95 ec e1 3d
       -0.12563118 -0.12996264 -0.113355316 0.110314526
000250 9c 53 99 3d 5a af 95 bd 3d 54 75 bd ad 76 c4 3d
       0.0748665 -0.07308836 -0.05989479 0.09592948
000260 e1 2d fb bd 3b 89 17 be 0c 37 cd 3d fa f5 54 bd
       -0.1226461 -0.14798443 0.10020265 -0.051992394
000270 f4 24 f8 bd 91 a4 cd bd a9 e0 6d 3c 64 43 fc 3d
       -0.12116423 -0.10041154 0.014518895 0.12317541
000280 fb a2 7c bc f3 74 3c bd e0 b0 6b 3c 31 a1 86 3d
       -0.015419717 -0.04600997 0.014385432 0.065737136
000290 08 65 33 be c1 e8 18 be 8d f9 35 bc 04 5f 1b 3d
       -0.17519009 -0.14932539 -0.011106861 0.03793241
0002a0 53 66 8b bd c3 01 cc 3d 66 b9 d4 3d e9 1d 92 bc
       -0.06806626 0.099612735 0.103869244 -0.017836528
0002b0 66 5d c0 3d 7c 31 ab 3d b7 40 db bc d9 cc 3b be
       0.09392814 0.08359048 -0.026764257 -0.18339862
0002c0 1c 69 e7 bd 23 3b 98 3c 35 39 7e 3d 82 dc 64 3d
       -0.11299345 0.018582886 0.062066276 0.055874355
0002d0 b5 9c 01 be 01 df be 3b c5 f4 09 3e a9 01 bc bb
       -0.12657435 0.005824924 0.13472278 -0.0057375026
0002e0 27 5a 9b 3d e7 e8 8a 3b 3d 8c 0b be 87 b9 d5 bd
       0.075855546 0.00423919 -0.13627715 -0.10435777
0002f0 b7 af 52 3d 43 e6 d4 3c c3 d0 64 3d 47 a7 ed 3c
       0.051437106 0.025988704 0.055863153 0.029010428
000300 9d fb 1f 3d 03 b7 8f 3d 1a 6f 86 bd c1 f8 da bc
       0.039058316 0.070173286 -0.0656416 -0.026729943
000310 83 74 27 be 9d 2b 53 3e 49 50 6c bd 94 ba b7 3b
       -0.1635304 0.20622106 -0.057693753 0.0056069586
000320 b6 68 50 be dc 8c c8 3d 58 a1 a4 3c 33 40 2d bd
       -0.20352444 0.09792492 0.020096466 -0.042297553
000330 86 d8 79 3d 59 c0 e0 bd 90 a8 c3 bd 82 57 04 be
       0.06099751 -0.109741874 -0.09553635 -0.12924007
000340 75 62 11 be 10 5a c8 bc 4c fa 13 be 70 86 e3 3d
       -0.14197715 -0.024457008 -0.1445095 0.11109626
000350 6a f8 18 be 09 27 df bc 1c 87 e8 bd 49 8e 47 3d
       -0.14938512 -0.027240293 -0.11353895 0.048719678
000360 cd 30 e6 bd d0 75 b8 3d b6 7a e5 bb b2 c0 98 3c
       -0.11239777 0.09006846 -0.0070031537 0.018646572
000370 2a d8 35 3d c1 4b 07 bd 99 c2 a3 bc d4 76 31 bd
       0.044395603 -0.03303123 -0.019990252 -0.043326214
000380 05 05 22 be 74 fe e3 3d d0 1a 28 bb 79 7a f6 bd
       -0.15822227 0.111325175 -0.0025650747 -0.120350786
000390 45 51 d4 bd 68 5c 02 be 88 8b a6 bd e7 a8 e2 3d
       -0.103670634 -0.12730563 -0.08132082 0.11067372
0003a0 10 49 0f 3d b8 02 be bc 32 48 a5 3d 76 33 65 bd
       0.034981787 -0.023194656 0.08070411 -0.05595728
0003b0 b8 20 37 3e fa 57 6c 3d 7b 10 b1 bc 7a 89 f3 3d
       0.17883575 0.05770109 -0.021614304 0.11891456
0003c0 1b ae e8 bd 54 3c 15 be c3 71 02 3d 1d d6 32 3d
       -0.11361333 -0.14573795 0.031846773 0.043661226
0003d0 6c cb f4 bb 1d f3 df 3d 79 44 15 bd f2 82 85 3d
       -0.007470539 0.10935042 -0.036442254 0.065191165
0003e0 61 ea ac 3d 7f 21 c3 bc ae ea cd bd 3f 56 13 be
       0.08443142 -0.023819683 -0.10054527 -0.14388369
0003f0 9b 77 db bb c2 4b 0d be ac a0 40 bd 44 1a 21 3d
       -0.0066976077 -0.1379843 -0.04702823 0.03933169

convs.0.nn.3.bias f4 [32]
000000 65 13 d5 bd 23 9c b5 bd 6b fd a4 3d ef 66 9b bd
       -0.1040409 -0.08867671 0.08056148 -0.075879924
000010 7b 71 f7 bd 68 45 18 bd 5c 9b ce 3d b9 b9 9d 3d
       -0.120821916 -0.037175566 0.10088226 0.077014394
000020 03 11 1c 3d ff 14 3c 3d 68 79 bd bc 3a 04 04 3e
       0.03810216 0.04591846 -0.02312918 0.12892237
000030 b4 11 04 be 51 33 6a 3d cf e3 b6 bd 43 10 b0 bd
       -0.12897378 0.057177845 -0.0893017 -0.08596852
000040 af e8 15 3d 5a 6b 19 bd 4c 0e 1e 3d b9 ef c7 bc
       0.036598857 -0.037455894 0.038587853 -0.0244063
000050 a6 6a 50 3d 32 ce c4 bd f7 b1 4b be 95 c2 bb bc
       0.050882958 -0.09609641 -0.19892107 -0.022919932
000060 a0 13 f5 bc 5f ae e2 bc 80 be 42 bd 44 91 4f 3d
       -0.029916584 -0.027671037 -0.047544956 0.050675645
000070 ad e1 ef 3c 78 27 02 bd b8 69 ad 3d 01 84 25 3d
       0.029282415 -0.03177592 0.0846743 0.04040909

convs.1.nn.0.weight f4 [32, 64]
000000 9d 31 36 3a f9 5a b6 3c 1f 56 ab 3c 6e c5 e3 bc
       0.0006950142 0.022260176 0.02091509 -0.027804103
000010 23 f8 ff bc 0b 33 8e bd 91 7a 4a 3a ba 03 04 3d
       -0.03124625 -0.069433294 0.00077239523 0.032230116
000020 1d c0 a9 3d 17 26 d5 3d 1d de af 3b 27 9c 59 bd
       0.08288596 0.10407656 0.005367054 -0.053127434
000030 95 c2 97 bc 3a fd 62 3a 54 f1 3d 3d 73 d6 43 bd
       -0.018525401 0.00086589495 0.046372727 -0.047811937
000040 aa 1a a1 bc 24 3e 6f 3d 45 b6 dc bc ce ef 06 bd
       -0.019666035 0.05840887 -0.026942382 -0.03294354
000050 e4 3d e0 bc d1 a1 38 3d fe c7 dd 3d b0 88 db bc
       -0.027373262 0.045076195 0.10829161 -0.026798576
000060 f4 cc 40 bc f7 4c 13 3d 17 04 ec bd ee f6 32 3c
       -0.011767615 0.03596207 -0.115242176 0.01092313
000070 dc 8b 78 bc 06 b9 52 bd 2a b5 ec bd ac 81 e9 bd
       -0.015170064 -0.051445983 -0.11557992 -0.11401686
000080 e6 2f d6 bd 4c 87 15 3d b4 6e 1e 3d f0 af 89 bd
       -0.10458355 0.036505982 0.038679793 -0.067230105
000090 47 8e ec 3d 12 56 bd 3d e7 b2 92 bc 68 e2 a9 bd
       0.11550575 0.09244932 -0.017907573 -0.08295137
0000a0 22 43 e1 3c b8 92 82 bd 4f ef 33 3c 60 d8 a7 bc
       0.027497832 -0.06375641 0.010982349 -0.020488918
0000b0 b6 a6 b5 bb 49 6d 07 3c 57 2c 6f bc 0c 8f 74 3d
       -0.005543555 0.008265802 -0.014597974 0.059706733
0000c0 54 3e 07 3d c0 52 bf bd be 2a 72 bd 26 47 2d bd
       0.033018425 -0.09341955 -0.059122793 -0.04230418
0000d0 40 a0 84 3d 37 0b b9 3c 79 b0 33 3d ad b6 6f bc
       0.06475878 0.022588355 0.04386947 -0.014630956
0000e0 ac 49 6c bd 7b 4a 7f bd ee af 6b 3d 26 fc a6 bd
       -0.057687446 -0.06232689 0.057540826 -0.08153562
0000f0 61 45 e1 3d 43 41 56 bc 9d 4b c4 bc 97 7b 9a bc
       0.10999561 -0.013077083 -0.023961836 -0.01885776
000100 c8 c7 e3 bc ea 1f 04 3e 30 46 0c be 87 a2 c6 bd
       -0.027805224 0.12902799 -0.1369865 -0.096989684
000110 05 de a5 3d d8 7a 80 bd b0 9b da 3d 70 3a e5 bc
       0.080989875 -0.062734306 0.10674226 -0.027981967
000120 a7 29 c8 bd 08 fb 27 bd b5 cd 30 bd 82 00 c4 3c
       -0.097735696 -0.041010886 -0.043164928 0.023926023
000130 b1 33 8f 3d f0 c4 11 3d 5c 2f a9 3d c8 3f 24 3d
       0.06992281 0.035588205 0.08260986 0.04009989
000140 38 e0 5a bc a4 b6 41 bd c5 2b 2b bd b5 3c 86 bd
       -0.013359122 -0.04729332 -0.04178979 -0.06554548
000150 de f7 07 bd 9d 23 82 bd 02 f6 a6 bd 74 dc 16 be
       -0.03319537 -0.06354449 -0.08152391 -0.14732534
000160 3a 23 0b be 95 b2 62 bc 4f 9e 8b bc 32 aa 6f 3d
       -0.13587657 -0.013836523 -0.01704326 0.05851192
000170 ec 67 c5 3d 0e ce 53 3a 92 dd f4 3d e7 e1 8d bd
       0.09638962 0.0008079716 0.11956324 -0.06927853
000180 e1 c5 0c bd 00 cf 83 ba c0 24 3d 3b 63 fa 4c 3d
       -0.0343684 -0.0010056198 0.0028861016 0.050043475
000190 5e b5 6c 3d 1a f6 82 3c b8 59 b6 3d e0 89 83 3d
       0.057790153 0.015986491 0.08903831 0.06422782
0001a0 6e f1 53 bd 70 8f a1 3d 61 58 a8 bd 8d 62 25 3d
       -0.051743917 0.07888687 -0.08219982 0.04037719
0001b0 33 22 c7 3c 2f 29 15 bc b7 6b c3 bc 55 ae fd bc
       0.0243083 -0.009104057 -0.023855073 -0.030966917
0001c0 52 35 cb bc 4a 8e ba 3c 5b 8f 3c 3d 4c 53 38 3b
       -0.024805699 0.022772927 0.046035152 0.002812582
0001d0 f4 49 23 3d 87 d5 df 3d 00 80 c4 ba 15 1c 50 3c
       0.03986545 0.10929399 -0.001499176 0.012702008
0001e0 d8 20 87 3c f6 23 0b bd db e2 2d 3c 74 0c 19 bd
       0.016495153 -0.033969842 0.010613169 -0.03736539
0001f0 2a bb 32 bd 3a 7f ca 3d 05 42 bd 3c f4 18 86 bd
       -0.043635525 0.09887548 0.02310277 -0.06547728
000200 ed bd 14 3e 7b f9 c2 3c 81 10 3a bb 88 12 df bd
       0.14525576 0.023800602 -0.0028391185 -0.108922064
000210 06 ea ef bd 02 78 8c 3d e3 8a be bd ec 9d 94 3d
       -0.11714558 0.06858827 -0.09303834 0.07256684
000220 a8 06 c8 3d 00 86 6e 3d d5 58 13 3d 2e bf b4 bc
       0.097668946 0.05823326 0.03597339 -0.022063818
000230 dd d1 61 bd ff ea fb bc 66 70 df 3d 77 76 76 bd
       -0.05513178 -0.030751703 0.1091011 -0.06017157
000240 3c f6 78 3d 78 7e 36 3d 53 cf 5b bd 12 6b d0 bd
       0.060781702 0.044554204 -0.053664517 -0.10176672
000250 46 7a 9e bc d6 0b 89 bd 56 92 14 3d 6c 66 1a 3c
       -0.019345414 -0.06691711 0.03627237 0.009423833
000260 2b 8d 68 bd b8 05 6b 3d a4 62 48 bd 4f 95 82 bd
       -0.056775253 0.0573785 -0.048922196 -0.063761346
000270 57 7b 80 3d 0d 36 a6 bd 10 3b 43 3d 68 a1 26 be
       0.06273525 -0.08115778 0.04766375 -0.16272509
000280 77 33 e1 bd 60 ab d6 38 d2 33 28 bd 44 75 83 3b
       -0.10996144 0.00010236236 -0.041065045 0.004011782
000290 de 8b 94 bc 11 f2 16 bd c8 4e f8 3d 0c 60 5f bc
       -0.0181331 -0.036851946 0.12124401 -0.013633739
0002a0 32 79 14 bd a7 f8 8f bd 17 fb 68 bd 7e 1f 3d 3c
       -0.036248393 -0.070298485 -0.056880083 0.011543153
0002b0 44 80 98 bc 03 fb 61 bd ae c1 b1 bd d6 1b fa 3c
       -0.01861585 -0.055171024 -0.086795196 0.030530851
0002c0 f7 e5 78 3b 53 83 82 3d a4 57 c2 bb ee b2 24 3c
       0.0037978867 0.06372704 -0.0059308577 0.010052426
0002d0 60 b0 fa 39 11 88 30 3d 39 9b 97 3d ee 5c c3 3d
       0.00047815125 0.043098513 0.07402653 0.09539209
0002e0 04 fd 3f 3d 83 a9 80 bb f3 c7 b8 39 49 ea c1 3d
       0.046872154 -0.0039264574 0.0003524419 0.094685145
0002f0 ef fc 6f 3d de c7 11 3d 04 01 61 3c 96 c4 d9 3b
       0.058590826 0.035591 0.013733152 0.0066457493
000300 28 bf ab 3d e6 7e d5 3d 5b fe 90 3d 03 38 86 3c
       0.083860695 0.104245946 0.070797645 0.01638413
000310 45 7c 19 be 7d 1b aa 3d 5c 19 b8 bc 0b ce 9b 3d
       -0.14988811 0.08306024 -0.02247303 0.07607659
000320 96 aa 7c 3a ad 30 0c 3e f5 01 fa 3c f2 97 fc ba
       0.00096384564 0.13690443 0.030518511 -0.0019271357
000330 bf 73 e7 3d ea 59 da 3d 47 7f 9a bd f0 e8 e4 bd
       0.11301374 0.10661681 -0.075438075 -0.11177242
000340 5f 4d cf 3c 6d f4 6d bd c2 20 7f 3d ab 2a e1 3c
       0.025305448 -0.05809443 0.0622871 0.027486166
000350 b8 4d d4 3b ad 84 69 bd 15 9e 07 3d 94 c8 9d bc
       0.0064789914 -0.057011295 0.033109743 -0.019260682
000360 5b 68 99 3c 7e 10 e5 bd b9 ae 85 bd 43 d9 b2 bd
       0.018726518 -0.11184786 -0.06527466 -0.08732846
000370 53 52 11 3c f7 67 cb bc 95 14 c9 bd 52 fb aa bc
       0.008869725 -0.024829848 -0.09818379 -0.020871792
000380 24 6a c0 bc ba d0 aa 3d 7b ca 85 bd 19 56 c5 3a
       -0.023488112 0.08340593 -0.06532761 0.0015055566
000390 d5 f4 a1 3d 77 d4 3c bd 34 98 d5 3d 75 bc 44 bc
       0.07908026 -0.04610106 0.10429421 -0.012007822
0003a0 28 9a 5f bd 10 2a a9 3d 29 3b 99 3d 46 9c ba 3d
       -0.054590374 0.08259976 0.07481987 0.09111838
0003b0 5c 52 41 bc 4e 00 f8 bc 69 4a 9d 3d d2 54 ee bc
       -0.011799421 -0.030273583 0.07680208 -0.02909318
0003c0 d2 c7 0c bd e6 a3 35 3d c6 5d 88 bd b7 15 7f 3d
       -0.03437025 0.04434576 -0.06658511 0.06227657
0003d0 16 85 dd 3d d2 22 14 3c f5 98 89 3d 61 4f 37 3d
       0.108164 0.009041505 0.06718627 0.044753436
0003e0 be a7 18 bc 42 f3 59 3d 4b 5b c7 3c d2 9a b1 3d
       -0.009317337 0.053210504 0.024335524 0.08672108
0003f0 eb d1 38 bd e7 76 be bc ff 3b ca 3c 6a 06 f5 3a
       -0.04512207 -0.023250056 0.024686811 0.0018693928

convs.1.nn.0.bias f4 [32]
000000 b8 05 91 b3 25 39 ba 33 96 f5 25 34 30 65 68 b4
       -6.753129e-08 8.6716945e-08 1.5456166e-07 -2.1643496e-07
000010 81 4f 09 b3 bb 7d da b3 02 65 d2 b3 01 df 8c 34
       -3.1970107e-08 -1.0174286e-07 -9.79726e-08 2.623929e-07
000020 3a 1b 51 b2 1a 9a 18 34 55 6c ff 33 fc 26 f5 b3
       -1.2171592e-08 1.4212165e-07 1.1894068e-07 -1.1415793e-07
000030 7d f7 e0 34 c3 aa 12 b4 ff 29 4e 34 73 da f0 b3
       4.1903323e-07 -1.3659432e-07 1.9200523e-07 -1.12156066e-07
000040 f8 c4 59 b4 39 fe 1b 33 12 6f ad b3 10 f1 06 b4
       -2.0281357e-07 3.6319964e-08 -8.076144e-08 -1.256742e-07
000050 22 1a 56 34 50 65 c0 b4 d0 10 39 b1 5f e2 83 b3
       1.993981e-07 -3.58365e-07 -2.69306e-09 -6.1413395e-08
000060 4f 64 e5 b4 99 5d da 34 e3 12 93 33 7d 83 50 b4
       -4.2727558e-07 4.0673766e-07 6.8486564e-08 -1.9419345e-07
000070 07 a3 35 33 c4 84 8d b4 d3 2d ef b4 a1 0a 2b 34
       4.229062e-08 -2.6359896e-07 -4.455056e-07 1.5929483e-07

convs.1.nn.1.weight f4 [32]
000000 70 ab 25 3f f9 79 43 3f a1 8a 33 3f 4f b5 41 3f
       0.6471472 0.7635799 0.70133406 0.7566728
000010 01 5a 16 3f f4 f3 31 3f 09 01 10 3f 23 4c 19 3f
       0.58731085 0.6951287 0.5625158 0.598818
000020 9c d2 33 3f d9 aa 13 3f 46 c4 01 3f fa 20 56 3f
       0.7024324 0.5768257 0.50690114 0.8364407
000030 32 73 4a 3f f1 6f 1b 3f bc 15 2d 3f 93 63 30 3f
       0.79082024 0.60717684 0.6761129 0.6890194
000040 d1 d3 3d 3f 15 0c 45 3f ae bd 45 3f 51 0b 49 3f
       0.7415133 0.7697156 0.77242553 0.7853289
000050 a8 ff 21 3f 33 82 2d 3f 38 3d 43 3f 88 be 2b 3f
       0.63280725 0.67776793 0.7626529 0.670876
000060 22 d1 29 3f cf 87 44 3f d3 73 24 3f 09 cf 32 3f
       0.66334736 0.7676973 0.64239234 0.6984716
000070 f8 da 3e 3f b8 87 27 3f c6 bc 2d 3f 78 98 46 3f
       0.7455287 0.65441465 0.6786617 0.775764

convs.1.nn.1.bias f4 [32]
000000 83 10 9b bc 58 3b c9 3d 22 7b b6 bc 76 08 51 3d
       -0.018928772 0.09825772 -0.022275511 0.05103346
000010 6d 0e d8 3c 97 a8 02 bd e6 57 2b bd a6 e3 33 3a
       0.026374066 -0.03189906 -0.041831873 0.00068622304
000020 bf f1 f1 bb 05 37 06 bd 54 80 ea bb 90 43 14 3e
       -0.0073835547 -0.032767314 -0.007156411 0.14478898
000030 17 a0 66 3d 90 92 c4 bc cd 74 d8 3c c8 3b 30 3d
       0.056305017 -0.023995668 0.026422882 0.04302576
000040 3d 17 b2 bc b7 c7 c3 3d 29 be 31 3d a8 12 88 3d
       -0.021739597 0.09559577 0.04339424 0.066441834
000050 68 8f bf bc 54 a6 37 bd c9 e8 69 3d c0 3b 3d 3d
       -0.023383811 -0.044836357 0.057106767 0.04619956
000060 37 da 89 3d 8b 14 85 bc 85 fe 16 bd 36 92 a3 3a
       0.06731074 -0.016245147 -0.036863822 0.0012479487
000070 20 a7 a5 3c 1e 1e 08 3d 79 7b c4 3c 2e bb 47 bd
       0.020221293 0.033231847 0.023984658 -0.048762493

convs.1.nn.1.running_mean f4 [32]
000000 f5 3e 1e bc fc b1 d2 bd f5 08 04 bd ee 1b 2b 3d
       -0.009658565 -0.10287854 -0.032235105 0.041774683
000010 25 66 8f bb 6d 81 0a bd 8b ca 30 bc c3 d5 35 3c
       -0.0043761902 -0.033814836 -0.0107904775 0.011098328
000020 c5 29 fd 3c 2a 55 fa ba e0 43 75 3c 85 33 dc bd
       0.030903706 -0.0019098867 0.014969796 -0.10752014
000030 31 b5 a8 bc 70 f3 ed b9 52 9c 0d 3d f3 07 56 3d
       -0.020594211 -0.00045385538 0.034572907 0.052253675
000040 ff ba 3d bd c8 d3 92 bd 2a a1 7f 3d 6a b2 7f bd
       -0.04632091 -0.071693 0.062409557 -0.06242601
000050 f5 6c f9 bc 80 b5 25 bd 42 a1 36 3d 3e ad 64 3b
       -0.030447463 -0.040456295 0.04458738 0.00348933
000060 e0 1f 6d 3a 98 3a cc bc 84 52 2d bd 18 52 5d 3c
       0.0009045582 -0.024930283 -0.04231502 0.013508342
000070 0c ea a0 3d d6 32 c9 3d d6 26 b1 bd 65 92 85 bb
       0.07857141 0.09824149 -0.086499855 -0.0040762895

convs.1.nn.1.running_var f4 [32]
000000 82 0c 13 3e 3a 20 2a 3e 0e 0c 6f 3d b3 85 10 3e
       0.1436024 0.16613856 0.058361106 0.14113502
000010 b5 02 b8 3d eb 44 76 3d 0f cd 30 3d 0c 59 58 3d
       0.08984891 0.06012432 0.04316431 0.052819297
000020 a9 b8 84 3d 43 7f a0 3d 9f 44 a0 3d 6a 9d 44 3e
       0.06480534 0.07836773 0.078255884 0.19200674
000030 17 6f 5e 3d 21 10 18 3e f3 d8 8d 3e 54 1f 64 3e
       0.054305162 0.14849903 0.27704582 0.22277576
000040 1b 5c dc 3d 97 be 0b 3e b3 fd 8a 3e ba a7 97 3d
       0.10759755 0.13646923 0.27146682 0.07405038
000050 62 34 ee 3d e4 a6 28 3d 53 ab af 3e b7 b1 4c 3e
       0.11631085 0.041174784 0.34310398 0.19989668
000060 b4 13 76 3d a3 00 b3 3d 24 8e 87 3d d8 8c d2 3c
       0.060077384 0.08740356 0.06618908 0.025701925
000070 4f 60 4b 3e 37 de 07 3e fc 57 68 3d 4b d6 99 3d
       0.19860958 0.13268362 0.056724533 0.07511576

convs.1.nn.3.weight f4 [32, 32]
000000 21 d8 8a 3d bd 60 e8 3d 69 7f 1e 3c 5e d2 5a 3d
       0.067795046 0.11346576 0.009673932 0.053423278
000010 6f 59 32 be e1 c5 e1 3d 90 b1 3a 3d 5d 8e 21 3e
       -0.17416929 0.110240705 0.045579493 0.15776964
000020 ae 21 5d 3d 66 24 b9 3d 5c 42 0d bd 20 69 2b bd
       0.053987198 0.090401456 -0.034487113 -0.041848302
000030 37 a3 e2 bd f1 dd 12 bd ff 9b db bd 93 cd ea bd
       -0.11066287 -0.03585619 -0.10723113 -0.114649914
000040 46 f1 ae 3c be 4b 2b 3b ac 94 cc bd fe 26 28 be
       0.021355283 0.0026137675 -0.099892944 -0.16421124
000050 e6 cb df 3c b3 61 09 be 96 78 17 be 0d 3a c2 3b
       0.027318906 -0.13416176 -0.14792094 0.0059273303
000060 36 e1 00 3d 2e 3b 88 bc 9b f0 bc 3d f3 24 d8 bc
       0.031464778 -0.016629782 0.09225579 -0.026384806
000070 2a 5b f0 bd 2d d4 09 3d ef 29 a8 3d a2 04 c9 bd
       -0.11736138 0.033649612 0.08211123 -0.09815337
000080 97 68 75 3b e6 23 29 ba 19 c2 b0 3d f1 ca 29 be
       0.0037446374 -0.00064521877 0.08630771 -0.16581322
000090 2e d0 70 3d f8 65 02 bd 7c f9 b7 3d 15 36 c1 3d
       0.058792286 -0.031835526 0.08983132 0.094341435
0000a0 8a 6d e0 3d 56 ff 39 3d 28 4b ed bd 96 df 18 bc
       0.10958393 0.045409523 -0.115866005 -0.009330651
0000b0 37 32 41 be ea 24 9f bc e4 17 f0 bc 71 80 68 3c
       -0.18866812 -0.019426782 -0.029308267 0.014190779
0000c0 31 0e fe 3d 5f 33 13 3e a8 6c 5e 3d 1c 66 2c bd
       0.124050505 0.14375065 0.05430284 -0.042089567
0000d0 04 9e 89 3d 71 2c a0 bd 49 8d df bd 0e f1 c2 bd
       0.06719592 -0.078209765 -0.1091562 -0.09518634
0000e0 0b 21 51 be 3e c3 62 bd 09 92 d5 bd 15 23 a2 3c
       -0.20422761 -0.05536198 -0.104282446 0.019792119
0000f0 7b 77 de bd 53 26 57 3d 61 1b c9 bd 56 93 02 3d
       -0.10862633 0.052526783 -0.09819675 0.03187879
000100 a1 33 ed 3c bf 61 0a 3d b3 cb 7a bc 3b d9 8e bd
       0.028955283 0.033784624 -0.015307355 -0.06975027
000110 31 0e 66 bd b5 5e 17 3e 5b b4 be 3d 36 4a ef bc
       -0.056165878 0.14782222 0.09311744 -0.029210191
000120 0a 50 a2 bd 51 6f 0d 3e 25 34 93 bd 04 c9 2c 3c
       -0.079254225 0.13811995 -0.0718768 0.010545973
000130 56 30 80 bd 7d d3 03 3e 12 bb cb bd b9 18 4a bc
       -0.06259219 0.12873645 -0.0994779 -0.012334996
000140 29 42 7c 3e 2f f8 60 bc f4 8a 59 3c 5e 9c 27 3e
       0.24634613 -0.013731047 0.013277758 0.16368243
000150 93 bf 0e bc 91 38 31 bd 58 a4 97 bc 77 8e e8 3b
       -0.008712667 -0.043266837 -0.018510982 0.0070970613
000160 4d 9d b2 3d 39 0b 8f 3d 66 f1 1f bd 9a 23 ee 3b
       0.08721409 0.069845624 -0.039048575 0.0072674276
000170 69 25 0b be fe 37 0a be 31 a3 8d 3d d7 7c f7 3c
       -0.1358849 -0.13497922 0.06915892 0.030210895
000180 75 f8 13 3e 47 a4 9e bd d8 2a df 3d 39 4c 0d be
       0.14450248 -0.07746177 0.10896844 -0.13798608
000190 4c e2 cb bb ac 9a 28 be ff ea 30 3d 38 12 e0 3c
       -0.006222045 -0.16465253 0.04319286 0.027352437
0001a0 fa b0 4f 3d 05 eb a5 bb 17 a5 75 bc e8 6e cb bd
       0.050705887 -0.005063417 -0.014992974 -0.09933263
0001b0 9d 7c 51 bd bd 51 7b bd ac df 49 bd d3 af 03 be
       -0.05114423 -0.06135725 -0.049285576 -0.1286004
0001c0 57 82 7f bd e7 6e a3 3d d3 52 10 3e 18 d5 d6 bd
       -0.06238016 0.07980137 0.14094095 -0.10489863
0001d0 fa 43 2c 3b 35 4f 96 bd 73 1b a1 3d bc cf ab 3d
       0.0026285634 -0.07339326 0.07866564 0.083892316
0001e0 51 82 86 bd 21 43 b8 3d c1 1b 82 bc e9 ad ba 3d
       -0.06567825 0.08997179 -0.015882375 0.09115202
0001f0 de 16 09 3e 55 af 2f 3d 7d e3 b4 bd d1 17 9b bd
       0.1338763 0.04289182 -0.088324524 -0.07572902
000200 b8 c5 a2 bd e1 60 9f bc fe 19 cb 3d 4e 6b 24 bd
       -0.07947868 -0.019455375 0.09917067 -0.040141396
000210 fa c2 c1 3d a7 7e 8b 3d 3d c3 a6 bd ca 5a 52 bd
       0.09461017 0.068112664 -0.081427075 -0.051356114
000220 ea 8e 1c be 0a d4 13 bd cc fd 16 bd d3 d2 89 bd
       -0.15288892 -0.036090888 -0.036863133 -0.06729665
000230 f9 52 72 3c 6f b5 da 3d ba 97 22 bd c1 c1 0d 3d
       0.01479029 0.10679137 -0.03969548 0.034608606
000240 0f eb 5f bd dd 17 bf bd b1 b7 ca bc c5 73 df bd
       -0.05466753 -0.093307234 -0.024745794 -0.10910753
000250 10 40 fb bd e0 67 aa bc b1 b7 f9 3d a3 ab 81 3c
       -0.12268078 -0.020801485 0.121932395 0.015828913
000260 ca 23 9d 3d b1 dd bf bd 12 82 23 3e 2b 75 f0 bd
       0.07672842 -0.09368456 0.15967587 -0.11741098
000270 c2 94 50 3b 3e e8 63 3d 08 92 42 3d 38 e7 28 bd
       0.0031826948 0.055641405 0.047502548 -0.041236132
000280 ec f3 ae bd 50 8a b4 ba 32 1e f4 bd 48 a7 8d 3d
       -0.08542618 -0.001377413 -0.11919822 0.06916672
000290 81 2e 8e 3d ed 26 06 bd 5b cf 27 bd db ae 7e 3d
       0.06942464 -0.032751966 -0.040969234 0.062178474
0002a0 26 fc 0b 3d 64 e1 03 be 96 da 3c bc 9f d6 98 3d
       0.034176014 -0.12878948 -0.011526724 0.07462811
0002b0 ed ed 7a 3d c5 f6 52 bd 72 d6 81 bd 4d 3d 92 3d
       0.06126206 -0.05150487 -0.0633973 0.071405984
0002c0 65 ce 0e be 97 2a ac 3c 15 94 05 3e 34 ea 38 bd
       -0.13945921 0.021016402 0.1304477 -0.04514523
0002d0 60 6e d1 bd 99 c4 27 be fb df 8b bd 9a 0f f1 3d
       -0.102261305 -0.1638359 -0.0682983 0.11770554
0002e0 22 d5 c1 3c 2a d7 15 bd c6 52 b8 3d 61 08 1d 3e
       0.0236612 -0.03658215 0.09000163 0.15335228
0002f0 16 29 d4 3d 5e 75 35 ba b6 49 67 bd 3e 4f dd 3c
       0.10359399 -0.0006922091 -0.05646678 0.027015325
000300 b0 a4 8b 3a db 98 43 3c 1f 3d b9 3d 67 e5 ba bd
       0.0010653939 0.011938299 0.09044861 -0.09125786
000310 6b 5a 1f bd e7 8f 86 bd 97 01 fe bc 81 8a e9 3d
       -0.03890459 -0.06570416 -0.031006617 0.11403371
000320 e1 be cb 3d 65 0d 41 3d 69 cd 37 bd 03 ad f7 bc
       0.09948517 0.047131915 -0.04487363 -0.030233866
000330 4c 65 14 3e ea d6 0c 3d 9e 4e 11 be 86 a0 7c bd
       0.14491767 0.034384646 -0.14190146 -0.061676525
000340 83 8e 4e 3d cd 97 d0 bd e1 d2 03 be 58 11 e4 3d
       0.05042888 -0.10185204 -0.12873413 0.111361206
000350 3c 67 ad bd 45 b9 a9 3d 70 08 a1 3b 7f 83 18 bd
       -0.08466956 0.082872905 0.004914336 -0.03723478
000360 e7 d8 85 bd 01 92 a7 3d 75 22 55 bd 34 d9 16 be
       -0.065355115 0.08182145 -0.052034814 -0.14731294
000370 52 f3 91 bd 03 3a 0c bd 7e 34 23 3e e3 57 07 3e
       -0.07126488 -0.03423501 0.15937993 0.1321712
000380 3c 6c e0 3c 1f db 89 bc b5 8f c4 bd 37 94 00 3e
       0.02739536 -0.016828118 -0.095977224 0.1255654
000390 a3 37 3b 3d 25 92 04 be 07 e5 34 bd f6 99 79 3c
       0.045707356 -0.12946375 -0.04416373 0.015234461
0003a0 2d fc c7 3d c9 1b e5 3c da 38 12 bc eb d6 bc bd
       0.097648956 0.02796735 -0.008924687 -0.0922068
0003b0 e1 d8 21 bd 57 fd ea 3d 52 0c 0f 3e 7d 78 ed 3d
       -0.039513472 0.11474102 0.13969544 0.11595247
0003c0 9b a2 1f bc d5 db 85 bc b3 48 af bd 8a 14 df 3d
       -0.009743358 -0.016340176 -0.08558788 0.108925894
0003d0 36 88 97 bd 34 83 a9 3d 97 a8 ee 3d a3 71 5f 3d
       -0.07399027 0.08276978 0.1165325 0.05455173
0003e0 8b 6a f6 bd be dc fc 3d 38 9d 89 bc b5 06 07 bd
       -0.1203204 0.12346791 -0.0167986 -0.03296538
0003f0 cb 86 94 bd d4 58 1c be 53 6c 11 be 96 fe 85 3d
       -0.07252272 -0.1526826 -0.14201479 0.06542699

convs.1.nn.3.bias f4 [32]
000000 7a 9f f4 bc 99 16 2d 3d 1a 7a db bd f5 96 05 bd
       -0.0298612 0.04225788 -0.107166484 -0.032614667
000010 ab 2f 2c bd 5e 11 0e be 46 6a e9 bd 66 6e d9 bd
       -0.042037647 -0.13873813 -0.11397223 -0.1061676
000020 bd cc dd 3d a3 13 87 3d d6 bf a3 bc 6f 87 cc 3d
       0.10830066 0.06595542 -0.019988935 0.099867694
000030 0f 7a bf 3b eb b6 95 bd 9f f1 17 bd 3b ce 9f bd
       0.005843408 -0.073102795 -0.037095662 -0.07803007
000040 a7 fc cd bc b0 6b 26 be c6 cf ae bd 36 74 45 3d
       -0.025144888 -0.16252017 -0.085357234 0.04820653
000050 7f 83 b4 bd f5 95 8f bd 9a 07 1a 3d a8 c3 17 be
       -0.088141434 -0.07011024 0.037604906 -0.1482073
000060 02 63 83 bd 8e 55 a1 3a f9 96 80 bc cf ea 50 3b
       -0.064153686 0.0012308822 -0.01569699 0.0031878238
000070 da 28 af bc 74 d7 10 bc ea a1 d8 bc ef 11 c3 bd
       -0.021381784 -0.0088404305 -0.026444394 -0.09524905

convs.2.nn.0.weight f4 [32, 64]
000000 16 0b 28 3d f3 ca 1a bd d5 77 16 3d d5 92 89 3c
       0.041026197 -0.037791204 0.036735374 0.016793648
000010 55 54 b5 3b c1 c4 ca 3c 52 a1 93 3d 83 09 f3 3d
       0.005533735 0.024752023 0.07208504 0.118670486
000020 fd 0a d8 bc d7 78 26 bd e6 e8 ad 3c a1 7d fd 3c
       -0.026372427 -0.040642586 0.021229219 0.030943694
000030 2b 4d 77 bd 0a 33 e8 bc 02 8d f0 bc da 22 d0 3c
       -0.060376327 -0.02834465 -0.029364113 0.025407244
000040 7b dd a7 3c 2b f2 d4 3c f9 5a 63 3c 9e ec 44 3d
       0.020491352 0.025994381 0.01387667 0.04807722
000050 2b 7d 25 bb 27 14 9c 3d ef a2 b1 bd 4e 8b 73 bc
       -0.0025251608 0.07621031 -0.08673655 -0.014864756
000060 0e 95 14 bd e2 bd d0 3d a8 69 1e 3d 37 d1 64 bd
       -0.036274962 0.10192467 0.03867498 -0.055863585
000070 70 97 5e 3b 7f 5f 52 bd 6b eb cb 3d ff 5f d7 bd
       0.0033964776 -0.051360603 0.09957012 -0.10516357
000080 09 85 65 3d bd 7a 8e bd 10 26 61 bd 3e 62 8f 3c
       0.056035075 -0.06957004 -0.05496794 0.0175029
000090 20 2b ed 3d 23 60 e2 3d 25 f3 c9 3d 76 75 77 3d
       0.11580491 0.11053493 0.09860829 0.060414754
0000a0 94 eb 27 3d 23 98 31 bc c0 f9 0a 3e 74 bc c0 3d
       0.04099615 -0.010839495 0.13571835 0.094109446
0000b0 b6 44 57 3d 3b 4e dc bd b8 02 11 3d 3b db 0c 3d
       0.052555762 -0.10757109 0.035402983 0.034388762
0000c0 57 f3 b9 bd 17 93 2b bd 1b 96 da bc 1a bf fa bd
       -0.090796165 -0.041888323 -0.026682904 -0.12243481
0000d0 63 46 a0 bd 1f 5d d3 bc e6 22 ad 3c 7d 9f 73 3d
       -0.07825925 -0.02580124 0.021134805 0.05947827
0000e0 44 25 a2 bd 51 cf b9 bd 3d 05 26 3c 4e 6c d8 bd
       -0.07917264 -0.090727456 0.010133085 -0.105675325
0000f0 90 c2 ec 3c 71 b0 ae 3d dc 5c 5f bd a3 61 71 b9
       0.028901368 0.08529747 -0.054531917 -0.00023019924
000100 37 33 fc 3c 36 d5 27 3d 9e 39 84 3d bd 29 7a bd
       0.03078614 0.04097482 0.06456302 -0.06107496
000110 a8 1f b7 3c 00 f8 8e bd a5 4e cf 3c bf 0b 72 3d
       0.022353962 -0.06980896 0.025306055 0.059093233
000120 98 c8 d4 bd c6 45 41 bd e6 fe cd bd c4 ec c2 bd
       -0.10389823 -0.04718568 -0.10058384 -0.09517816
000130 22 77 3a bd 4b a5 9e 3d 6c 09 2c bd 34 d0 96 bc
       -0.04552377 0.07746371 -0.042001173 -0.018409826
000140 02 78 81 3c 4c ed da 3c 48 d7 76 bd 0a 1f 27 3c
       0.015804294 0.02672448 -0.060263902 0.010200271
000150 46 80 af 3d 64 40 66 3d 4a fc 9c bd a4 04 fb 3b
       0.08569388 0.05621375 -0.07665308 0.0076604653
000160 be ab 72 bb 28 22 ea 3d 29 0d 9e bd 31 80 cd 3d
       -0.0037028636 0.11432296 -0.07717354 0.10034216
000170 e5 6b 86 bd c0 6a 83 bd 5f e4 0c 3e ff bf 89 bd
       -0.06563548 -0.06416845 0.13758992 -0.067260735
000180 7d 58 55 bd 8f 77 65 bc ba fe 78 3c 9c fc 59 3c
       -0.052086342 -0.014005556 0.01519745 0.013304856
000190 a3 79 3a 3d 7a 35 09 3e 0e ad ec 3c 47 83 d5 3d
       0.045526158 0.13399306 0.028891113 0.1042543
0001a0 9f e0 08 bd 8f 7b a2 3d e3 3e f8 3b 21 cb a9 bb
       -0.03341734 0.07933723 0.007575856 -0.0051816856
0001b0 9c 2c d0 bc 6d 9a 8d bd 52 8b 78 3d 58 74 eb 3d
       -0.025411896 -0.0691422 0.06067974 0.114968
0001c0 d7 9a fc 3c 74 91 68 bd 5c 63 08 3d 9d 47 dc 3c
       0.030835552 -0.05677934 0.03329788 0.026889617
0001d0 97 21 96 3d ed cd 41 3d 74 4a 9c 3d 82 7a a8 3c
       0.073306255 0.047315527 0.07631388 0.020566229
0001e0 32 6f ee 3b 4d fd 25 be b9 2d 9a 3d fe 84 95 bd
       0.007276439 -0.16209908 0.07528252 -0.07300757
0001f0 6b b4 90 3b f8 1f 87 3d 29 1f 4d 3c f9 67 76 bd
       0.0044160387 0.065978944 0.012519636 -0.06015775
000200 ba ec f4 bd bb b6 d3 bb bf 6d 11 3d 36 4e 19 3c
       -0.119592145 -0.006460992 0.035505053 0.009357026
000210 9a 04 85 bc 1e 75 a8 3c ee 78 dc 3d ba 7d ad 3d
       -0.016237546 0.020563658 0.10765253 0.08471246
000220 05 0c 02 be 2d 6b fb 3d d0 13 14 3c f4 93 83 3c
       -0.12699898 0.122763015 0.009037927 0.01606176
000230 cd 05 7a bc c3 a6 8e bc 17 60 36 bd ef 29 78 3d
       -0.015260172 -0.017413503 -0.044525232 0.060586866
000240 9f be 70 3c 37 e5 02 bc 6c 99 ae bd 4a d4 13 bd
       0.014693885 -0.007989219 -0.08525357 -0.036091127
000250 02 5f 14 3a c4 a6 d7 3d 6b e2 3b bc 38 b3 33 bd
       0.0005659909 0.10529855 -0.0114675565 -0.04387209
000260 f0 5c 83 3d 60 bb 67 3d ba e7 15 bc 12 5d f4 bd
       0.06414211 0.05657518 -0.009149486 -0.11931814
000270 4d 20 1e 3d a9 e0 e1 bd 94 8e 75 bd ca 51 10 be
       0.038605023 -0.11029179 -0.059950426 -0.140937
000280 82 60 1a 3e 3f 4a 3c bd 6d 67 14 3c 0d 11 61 3d
       0.15075877 -0.045969244 0.009057862 0.0549479
000290 8c 1f bf 3c 6b 3f 93 3d 7e f0 cf bc d8 1a 8d bd
       0.023330472 0.071898304 -0.02538323 -0.06889886
0002a0 c2 0b f1 3c d7 53 a6 bd 4d bd f5 bd 7e 43 a6 bb
       0.029424552 -0.0812146 -0.11998997 -0.0050739637
0002b0 b4 47 c5 bc d2 5c d5 3c fb 48 0b 3d 40 8a 08 bc
       -0.024082042 0.026045237 0.034005146 -0.008333743
0002c0 90 45 21 3d b5 d8 c6 bc c2 91 ef 3d ab b0 cb bb
       0.03937298 -0.024273256 0.11697723 -0.006216129
0002d0 d8 49 b7 bc 0f 64 e8 bc f5 fe 0e bb dd f0 3c bc
       -0.022374079 -0.028368024 -0.0021819447 -0.011532036
0002e0 ec 12 28 bc 0e b7 aa 3d bf 25 69 3b 4f ee 2c 3d
       -0.010258418 0.08335696 0.0035575477 0.042219456
0002f0 64 6f f4 3c a8 45 25 bd ab 19 14 bd 18 de ad 3b
       0.029838271 -0.040349633 -0.03615729 0.0053060167
000300 ef 8f 28 3d 24 f0 7b 3c 31 8b 72 bc dd 5d c8 3d
       0.04115289 0.015377078 -0.014803694 0.09783528
000310 ab 64 d3 bc c9 0b ab 3d 19 b3 a7 3c b4 46 d7 3c
       -0.025804838 0.08351857 0.020471143 0.026278831
000320 3a 51 16 3d da f1 6f bd 46 12 3e 3d bc c0 e2 bc
       0.036698557 -0.058580257 0.046404146 -0.027679794
000330 5a 92 50 bc 19 17 37 bd cc ef c1 bd 24 e9 b9 bc
       -0.012730205 -0.044699762 -0.09469566 -0.022694178
000340 93 43 94 3d 8b 82 40 3c f6 42 96 3d e3 a1 bd 3c
       0.07239451 0.011749874 0.073369905 0.023148483
000350 c6 01 ad bc ad 4c 28 3c 49 80 cd 3c 7a 59 e9 3a
       -0.02111901 0.010272187 0.025085585 0.0017803155
000360 e9 b3 16 bd dd 5e 07 3d 58 49 b3 bb 1f 0c 30 3b
       -0.03679267 0.033049453 -0.0054713897 0.0026862693
000370 a0 4a 68 3d a0 08 51 3c 14 53 11 3c 02 20 49 3c
       0.056711793 0.012758404 0.008869905 0.012275698
000380 13 48 7c bd f9 3d 88 3d 8f 35 dc 3b fa 81 dc bd
       -0.061592173 0.06652445 0.006720252 -0.107669786
000390 1b cc 31 bd d4 c5 b9 bd b9 b6 c9 3d 37 11 ba 3d
       -0.04340754 -0.09070936 0.09849305 0.09085315
0003a0 11 d9 03 be f5 38 6f 3d 31 9e e4 bc 20 c7 9c 3d
       -0.12875773 0.058403928 -0.027907463 0.076551676
0003b0 d0 ce b4 bd 14 dc 6d bc dd 51 9f bd d8 79 5b 3a
       -0.08828509 -0.014517803 -0.07779286 0.0008372343
0003c0 de 9e 8f bc 7e ea 09 3e e0 7f 0b be 48 02 5c bd
       -0.017531808 0.13468358 -0.13622999 -0.053713113
0003d0 80 5e b0 3d f5 4d 9e 3d 94 4a a9 bd ce 43 7e 3b
       0.086117744 0.07729713 -0.08266178 0.003879774
0003e0 1a 7c 05 bd 50 df 5e 3d 68 ff 5e bd 93 94 cb 3c
       -0.032589056 0.054412186 -0.054442793 0.02485112
0003f0 cd 4f 24 3c 64 98 57 bd 8a 4a 13 3d 6a 08 94 bd
       0.010028792 -0.052635565 0.035959758 -0.07228167

convs.2.nn.0.bias f4 [32]
000000 f0 73 6a 31 96 33 96 34 a4 c4 19 b4 50 3b 36 b0
       3.4117384e-09 2.797721e-07 -1.4320773e-07 -6.62955e-10
000010 2e cb f2 b3 9c da cd 33 50 d3 ca 34 18 df 87 33
       -1.1305961e-07 9.585821e-08 3.7779182e-07 6.327008e-08
000020 20 38 50 b3 9a 02 f9 34 9a c8 35 33 6e 47 e8 b3
       -4.847982e-08 4.6381757e-07 4.2324793e-08 -1.0816335e-07
000030 10 70 83 af ef 3f 85 b3 12 70 41 b2 b5 df 07 33
       -2.3908386e-10 -6.2049246e-08 -1.125956e-08 3.1635597e-08
000040 61 7c 0e 35 27 7c c3 b2 6f 3a ad b3 c6 50 84 b3
       5.308012e-07 -2.2757446e-08 -8.066569e-08 -6.1614216e-08
000050 68 b5 68 33 bc 15 01 31 f5 69 cb b3 e7 52 da b3
       5.4181697e-08 1.8784325e-09 -9.4721976e-08 -1.0166496e-07
000060 00 95 05 b1 d4 7c 2c b4 a6 3b 89 34 3d 0e 4d 33
       -1.9438744e-09 -1.606416e-07 2.5561638e-07 4.774323e-08
000070 c7 ad 5f 34 27 77 be b3 19 2b d7 32 2f bc 0d 32
       2.0831713e-07 -8.869238e-08 2.5048893e-08 8.250068e-09

convs.2.nn.1.weight f4 [32]
000000 55 26 41 3f 70 27 3d 3f 74 19 3d 3f e0 3e 3f 3f
       0.75449115 0.738883 0.73866963 0.74705315
000010 cf 50 68 3f 30 8d 48 3f 88 9f 52 3f 6b 12 30 3f
       0.90748304 0.78340435 0.82274675 0.68778104
000020 f2 8f 4d 3f 38 79 37 3f d7 48 21 3f 69 98 4c 3f
       0.8029777 0.7166934 0.6300177 0.7992006
000030 23 38 44 3f 88 40 31 3f bc 99 0e 3f f0 f3 38 3f
       0.7664816 0.6923909 0.5570333 0.7224722
000040 01 de 2c 3f ea a3 21 3f bc c9 57 3f 04 22 48 3f
       0.6752625 0.6314074 0.842922 0.78176904
000050 8d a8 61 3f 46 ff d6 3e df af 12 3f 9a 29 61 3f
       0.88147813 0.41991633 0.5729961 0.87954104
000060 21 34 08 3f 94 3b 43 3f 13 6a 6b 3f 37 7b be 3e
       0.5320454 0.76262784 0.9195873 0.3720338
000070 9e da 64 3f 96 f8 34 3f fe cc 2c 3f d5 5a 54 3f
       0.89396083 0.7069181 0.67500293 0.829511

convs.2.nn.1.bias f4 [32]
000000 02 a5 c0 3c 86 db 17 bc 99 48 12 3d cc 46 17 bc
       0.023516182 -0.009268647 0.035713766 -0.009233188
000010 7f da 1d 3d 4c 67 9d 3d 85 1a 0c 3d 72 bb 1b 3d
       0.038538452 0.07685718 0.03420498 0.03802056
000020 a0 b2 3a 3d 31 08 10 bc 72 26 c9 b7 8b c1 32 bd
       0.045580506 -0.0087910155 -2.397897e-05 -0.04364161
000030 18 c1 44 3d f9 2b 71 3d 74 78 32 bd 62 70 31 3d
       0.04803571 0.058879826 -0.043571904 0.043320067
000040 e2 e4 aa 3c 3f bb 6b bc 9a a6 bb 3c 36 18 dc bc
       0.020861093 -0.014387905 0.02290659 -0.026867013
000050 b9 be 93 3d fc 15 a1 bc 47 5c 77 bc 1e e6 72 3d
       0.07214112 -0.019663803 -0.015097684 0.059301488
000060 51 33 76 3d 2b 09 4c 3d 54 cf f8 3d 12 13 37 bd
       0.060107533 0.04981343 0.1214892 -0.04469592
000070 a1 21 43 3d 91 ff 65 3d 45 49 30 3d 38 4d 92 3d
       0.047639493 0.05615193 0.043038625 0.071436346

convs.2.nn.1.running_mean f4 [32]
000000 26 cd 62 3c 6f 41 17 3c fb e5 a0 ba 0d 45 13 bc
       0.0138428565 0.009231909 -0.0012275571 -0.008988631
000010 4b 1b f0 bc 1f 74 53 bd 2b 83 23 3b c4 ea 4c bd
       -0.02930989 -0.051624414 0.0024950008 -0.050028577
000020 3c 14 9f bc fa e7 82 3c 69 9a a5 bc e8 15 e0 bc
       -0.019418828 0.015979756 -0.02021523 -0.027354196
000030 42 cf 39 bd f1 c8 81 bd 60 de 9f 3c e2 33 63 bd
       -0.045363672 -0.06337155 0.019515216 -0.0554694
000040 f9 f8 c8 bc 19 03 11 bd 5b f6 3e bd cf 16 32 bd
       -0.024532782 -0.035403345 -0.04662166 -0.043478783
000050 d8 00 76 bd 7a e4 70 bc 09 49 8e bc 5d 87 9a bd
       -0.0600594 -0.014702911 -0.01736881 -0.0754535
000060 7a dd 14 bd e0 ef 70 3d 72 e5 8f bd 9b 38 c4 bc
       -0.03634403 0.058822513 -0.07026185 -0.023952773
000070 d5 da 2d bd 90 66 fa bc 4a a3 2e bd 55 31 5e bd
       -0.042445023 -0.030566484 -0.042636193 -0.054246265
