Codes/interference-graph/models/best_model.pt (torch, 208570 bytes, 75 tensors)

convs.0.nn.0.weight f4 [32, 22]
0	0x3e0be5c4	0.13661867
1	0xbe444f75	-0.19170935
2	0xbd36ba88	-0.044611484
3	0x3e15b219	0.1461872
4	0xbdc22fe5	-0.094817914
5	0xbd03c4dd	-0.032170165
6	0x012cb6dd	3.172261e-38
7	0x018dbafc	5.206353e-38
8	0xbe86f208	-0.2635653
9	0x01ab43bb	6.291267e-38
10	0x3e48066f	0.19533704
11	0xbc9dc8ad	-0.019260729
12	0xbdfd7637	-0.12376063
13	0x3b1b8cb8	0.0023734998
14	0x3d99eec0	0.07516241
15	0xbd326eb5	-0.04356261
16	0xbc3fddfb	-0.011710639
17	0x8080de94	-1.183479e-38
18	0x811a7662	-2.8370268e-38
19	0x3e86a2e0	0.2629614
20	0x012bd6e8	3.1561927e-38
21	0xbdf55f28	-0.1198104
22	0x3d431dce	0.047635846
23	0x3e5324fe	0.2061958
24	0x3e1dcae9	0.15409435
25	0xbe31d34c	-0.1736576
26	0x3d541560	0.051778197
27	0xbdb8fd2f	-0.09032666
28	0x81b10b57	-6.5035803e-38
29	0x818dc8a3	-5.208312e-38
30	0x3ed8cbcd	0.42342988
31	0x01509a7c	3.8314404e-38
32	0xbc9c8e10	-0.01911071
33	0x3c103938	0.0088027045
34	0x3e09d098	0.13458478
35	0x3dd6ef9f	0.10494923
36	0xbd70c4f9	-0.058781598
37	0xbe141d9c	-0.1446442
38	0x3d9e549a	0.0773098
39	0x01ab67a0	6.2964174e-38
40	0x8042d090	-6.135961e-39
41	0xbe89629d	-0.26833048
42	0x012760bb	3.0742456e-38
43	0x3dda5a73	0.10661783
44	0xbe01f2ce	-0.12690279
45	0x3e2a4f84	0.16631895
46	0xbd9c9d4f	-0.07647192
47	0xbe1667e6	-0.14688072
48	0xbdda401d	-0.1065676
49	0xbd6afa4c	-0.057367608
50	0x80808e90	-1.1806085e-38
51	0x013c448e	3.4579332e-38
52	0xbdb455ed	-0.088054515
53	0x012bc9ab	3.155243e-38
54	0xbd1409f1	-0.036142293
55	0x3df08ebc	0.117459744
56	0x3d91e95c	0.07124588
57	0xbe269b56	-0.16270193
58	0xbdd7160b	-0.10502251
59	0x3d2b293c	0.04178737
60	0xbd0f1722	-0.03493417
61	0x00352bdd	4.883016e-39
62	0x0145740e	3.626645e-38
63	0xbdae3e1e	-0.08507942
64	0x01685dc0	4.2678933e-38
65	0xbb5ebfe4	-0.0033988887
66	0x3dc95763	0.09831121
67	0xbe04106d	-0.12896891
68	0xba687ed5	-0.0008868997
69	0x3d8b63c7	0.068061404
70	0x3e016231	0.12635113
71	0x3d847067	0.064667515
72	0x013501c8	3.3245728e-38
73	0x014abee0	3.7238487e-38
74	0xbe51c3a7	-0.20484792
75	0x8171fb79	-4.4445132e-38
76	0x3dcf6eb9	0.101285405
77	0x3d49719e	0.04918062
78	0xbd73d0e1	-0.059525374
79	0xbc88a7b5	-0.016681531
80	0xbdf4ad94	-0.1194717
81	0x3cfc3c3e	0.030790444
82	0x3e1c4724	0.15261513
83	0x014fff34	3.8202995e-38
84	0x809d0260	-1.4419025e-38
85	0x3e98ada8	0.2981999
86	0x01b66455	6.700021e-38
87	0xbc8f7d11	-0.017515691
88	0xbdce30e9	-0.100679226
89	0xbd94636c	-0.07245526
90	0x3c2a6ec3	0.010402384
91	0xbdbffed6	-0.09374778
92	0x3dd8bafb	0.10582539
93	0x3d3e5a30	0.04647273
94	0x80c214b8	-1.7823519e-38
95	0x80aac346	-1.5682085e-38
96	0xbcaf116e	-0.021370616
97	0x0148d3e2	3.6886217e-38
98	0x3dc0753b	0.0939736
99	0xbd79204e	-0.060821824
100	0xbd785ef1	-0.06063742
101	0x3e011d10	0.12608743
102	0xbd7eca0b	-0.062204402
103	0xbd69f967	-0.057122614
104	0xbd8a3ea4	-0.06750229
105	0x80780e76	-1.1025447e-38
106	0x80e6e8e4	-2.120571e-38
107	0x3c08cdb0	0.008349821
108	0x0085fd4c	1.2304987e-38
109	0xbe3c08a4	-0.18362671
110	0xbddcd30d	-0.10782442
111	0x3e03d8f3	0.12875728
112	0xbd9b4aa0	-0.07582593
113	0x3de8f432	0.113747016
114	0xbde98033	-0.11401405
115	0xbdb7b47e	-0.08969973
116	0x81985aca	-5.596626e-38
117	0x81a1de48	-5.946102e-38
118	0xbe47e58a	-0.19521156
119	0x8133b7e2	-3.3009037e-38
120	0xbc2e4117	-0.010635636
121	0x3db654ff	0.089029305
122	0xbe07be86	-0.13256273
123	0xbba82ca1	-0.0051322733
124	0xbe4e8958	-0.2016958
125	0x3d6dbbf0	0.05804056
126	0x3dc0a837	0.094070844
127	0x01214f5c	2.9627967e-38
128	0x80dfa7ef	-2.0539559e-38
129	0x3dd737e0	0.10508704
130	0x01a92ad4	6.214225e-38
131	0xbdce8fa5	-0.10085992
132	0x3d7ef05e	0.06224095
133	0x3cfaff22	0.030639235
134	0xbdfd561c	-0.1236994
135	0x3d6deaba	0.05808518
136	0xbd4718d6	-0.04860767
137	0x3e21b660	0.15792227
138	0x80f7b674	-2.274882e-38
139	0x00f3daf0	2.2394566e-38
140	0x3e8bcb91	0.27303746
141	0x0116ee70	2.772172e-38
142	0xbcdce38f	-0.026963977
143	0xbbf8f766	-0.0075978516
144	0xbd7e48a1	-0.062080983
145	0xbe0bba47	-0.13645278
146	0xbe0d91dd	-0.13825174
147	0x3cc3a767	0.023883535
148	0x3e35e7b2	0.17764166
149	0x01b6466e	6.6957303e-38
150	0x81aaccce	-6.274202e-38
151	0x3d392c86	0.045208476
152	0x810950c5	-2.5220875e-38
153	0x3e84b51b	0.25919423
154	0x3db6fc65	0.08934859
155	0xbced7ea4	-0.028991051
156	0x3b07c1bf	0.0020714847
157	0x3daedd8f	0.08538353
158	0xbcead5af	-0.028666345
159	0x3e3839d3	0.17990808
160	0x814b3826	-3.7325496e-38
161	0x80a87544	-1.547043e-38
162	0x3d6d11c9	0.05787829
163	0x014d5005	3.7709965e-38
164	0x3e4a17f2	0.19735697
165	0xbb16e795	-0.0023026217
166	0x3e02f87f	0.12790106
167	0xbd3e1fbc	-0.046416983
168	0x3d548875	0.051887948
169	0xbd1b1bd5	-0.03786834
170	0x3dbf0fc6	0.093291804
171	0x017271c9	4.4530017e-38
172	0x809e6a56	-1.4548155e-38
173	0xbdb946db	-0.09046718
174	0x01a5848f	6.080164e-38
175	0xbdf06e74	-0.11739817
176	0xbde68af2	-0.112569705
177	0xbd0da197	-0.034577932
178	0x3c594bd6	0.01326271
179	0x3da84d17	0.08217829
180	0xbdb225a4	-0.08698586
181	0x3d04b405	0.032398243
182	0x0002a9c8	2.44577e-40
183	0x00d3480b	1.9403134e-38
184	0xbe1f45b5	-0.15553935
185	0x819e3a95	-5.8124095e-38
186	0xbd94ee9f	-0.07272076
187	0x3e395bf8	0.1810149
188	0xbe3ad2eb	-0.18244521
189	0x3dcc9edd	0.09991238
190	0x3be72367	0.007053781
191	0xbe06c8c1	-0.13162519
192	0x3def1229	0.11673386
193	0x01406e42	3.5343937e-38
194	0x0101a12b	2.380919e-38
195	0x3d85745b	0.06516334
196	0x81aa97a0	-6.266571e-38
197	0x3e177329	0.14790024
198	0x3d040546	0.03223159
199	0xbdc535db	-0.09629413
200	0xbbc7c53c	-0.00609651
201	0x3d815800	0.06315613
202	0x3db1cd97	0.08681791
203	0xbdeed980	-0.116625786
204	0x014f50da	3.8077904e-38
205	0x018267c3	4.790335e-38
206	0xbdf0000a	-0.117187575
207	0x80ac5cef	-1.5829044e-38
208	0xbdb9acb3	-0.09066143
209	0x3dec3dc2	0.11535217
210	0xbdad6dfe	-0.08468245
211	0xbdb08536	-0.08619158
212	0xbc598450	-0.013276175
213	0xbe1bd854	-0.15219241
214	0x3c6488c8	0.013948627
215	0x001ecd00	2.828605e-39
216	0x0137461c	3.3662093e-38
217	0x3e55cd8a	0.20879188
218	0x81b0e949	-6.4986937e-38
219	0xbe37c165	-0.17944868
220	0xbd28164f	-0.0410369
221	0x3da6cdcf	0.081447236
222	0xbd4d52f9	-0.050127957
223	0xbd80bc2c	-0.06285891
224	0xbd4076ec	-0.046988413
225	0xbe24f9fe	-0.1611099
226	0x80b41406	-1.6537572e-38
227	0x008a281c	1.2687687e-38
228	0x3e816a2a	0.2527631
229	0x80a4d726	-1.5138202e-38
230	0x3d070a1d	0.03296863
231	0xbd153f71	-0.036437456
232	0xbbb759b7	-0.0055954116
233	0xbd9d0690	-0.07667267
234	0x3d050edc	0.032484874
235	0x3e36efcc	0.17864913
236	0xbdc9042d	-0.098152496
237	0x0168c286	4.2751234e-38
238	0x81a080ec	-5.895971e-38
239	0xbe677f9a	-0.2260727
240	0x000812f0	7.41477e-40
241	0xbd8b47ac	-0.0680078
242	0x3d568950	0.052377045
243	0x3e282fbd	0.1642446
244	0x3cb5553f	0.022135375
245	0xbd93f9b2	-0.0722536
246	0xbda57dd8	-0.080806434
247	0x3e074c97	0.1321281
248	0x00c09f9a	1.768967e-38
249	0x80f71bb5	-2.2693307e-38
250	0xbe46c1c5	-0.19409855
251	0x00737be7	1.060553e-38
252	0xbe18089e	-0.14847037
253	0x3e0bfeae	0.13671371
254	0xbc22baa0	-0.00993219
255	0x3d98d832	0.07463111

convs.0.nn.0.bias f4 [32]
0	0xb4ac35e0	-3.2076696e-07
1	0xb457d2f4	-2.010018e-07
2	0x3279456e	1.4509494e-08
3	0x349775d4	2.8211673e-07
4	0x33a140b3	7.5089154e-08
5	0x3435250b	1.6870415e-07
6	0xb400206f	-1.1932728e-07
7	0x33cb9211	9.4794935e-08
8	0xb29e69e9	-1.8441783e-08
9	0xb44bea40	-1.8991068e-07
10	0xb4cbd00c	-3.796307e-07
11	0x3454e851	1.9828555e-07
12	0x340e75b0	1.3267595e-07
13	0xb18c0854	-4.075483e-09
14	0x330262db	3.0357892e-08
15	0x33cfccc7	9.6764374e-08
16	0x34c1a8d0	3.607188e-07
17	0x345e0230	2.0676157e-07
18	0xb336ea3d	-4.2588216e-08
19	0xb38bf43c	-6.517118e-08
20	0x343561d2	1.6892525e-07
21	0x3418220c	1.416849e-07
22	0xb50b8a54	-5.198283e-07
23	0x33de6b5a	1.0357208e-07
24	0xb4137b3b	-1.3735273e-07
25	0x34623b78	2.1069525e-07
26	0xb31fbd7e	-3.7192414e-08
27	0xb43f40ee	-1.7811882e-07
28	0xb434442a	-1.6788604e-07
29	0x3517f42c	5.66072e-07
30	0xaeaa1500	-7.734435e-11
31	0xb3200a90	-3.726251e-08

convs.0.nn.1.weight f4 [32]
0	0x3f3fe303	0.7495577
1	0x3f54d6bd	0.83140165
2	0x3effae29	0.4993756
3	0x3f571d87	0.8402943
4	0x3f217422	0.6306783
5	0x3f0615a4	0.5237677
6	0x3f379bfd	0.71722394
7	0x3f21d8d2	0.63221467
8	0x3f1f36ee	0.6219319
9	0x3f238023	0.63867396
10	0x3f57e99b	0.8434083
11	0x3f41b8a3	0.7567236
12	0x3f27e49e	0.6558322
13	0x3f0872e7	0.5330033
14	0x3f0e5a4d	0.5560654
15	0x3f13acfb	0.5768582
16	0x3f6364f3	0.8882591
17	0x3f32c7d0	0.6983614
18	0x3f1fcc36	0.62420976
19	0x3f4686fc	0.7754972
20	0x3f1bd775	0.60875636
21	0x3f633d13	0.88765067
22	0x3f69fe02	0.9140321
23	0x3f481add	0.7816599
24	0x3f21e83c	0.63244987
25	0x3f3633da	0.7117287
26	0x3f228ac3	0.63492984
27	0x3f4bf0ff	0.79664606
28	0x3f28e89e	0.65979946
29	0x3f2671ab	0.65017194
30	0x3f09a68d	0.5376976
31	0x3f25812e	0.6465024

convs.0.nn.1.bias f4 [32]
0	0x3e161653	0.14656954
1	0xbcc74886	-0.024326574
2	0xbd6e98f6	-0.058251344
3	0x3e4c7900	0.19968033
4	0x3ca8db7a	0.020612467
5	0x3ce2a7c6	0.027667891
6	0x3ba2833f	0.0049594934
7	0x3bbb0707	0.005707625
8	0xbd56ae3f	-0.052412268
9	0x3c8158dd	0.015789444
10	0xbcaf450b	-0.021395227
11	0x3dc9c456	0.09851901
12	0xbcc7cec4	-0.024390586
13	0xbc1f30bc	-0.009716209
14	0xbd5278e2	-0.051384814
15	0xbcf7fff6	-0.030273419
16	0xbd9e7cf8	-0.0773868
17	0xbca7ecb8	-0.020498618
18	0x3d375e36	0.04476758
19	0x3d903507	0.07041364
20	0xbd15422e	-0.036440067
21	0x3b21769e	0.0024637352
22	0x3e200a74	0.15628988
23	0xbd129481	-0.035786156
24	0xbd951837	-0.07280009
25	0xbdd11613	-0.102092884
26	0xbd7cd59f	-0.061727162
27	0x3db4f712	0.088361874
28	0xbcf15abb	-0.029462209
29	0xbc89d866	-0.01682682
30	0xbda54d23	-0.08071353
31	0xbbfa8978	-0.007645782

convs.0.nn.1.running_mean f4 [32]
0	0x3c8e880f	0.017398862
1	0x3b6db82c	0.0036273105
2	0xbce016cb	-0.027354619
3	0x3c858b58	0.016301796
4	0xbc356280	-0.0110708475
5	0xbc87f355	-0.016595522
6	0x3bd016e8	0.006350387
7	0x3c9fde8e	0.019515302
8	0xbbda3823	-0.006659524
9	0x3af72363	0.001885515
10	0xbc854b9c	-0.016271405
11	0x3bfc5fa9	0.0077018333
12	0x3c845be3	0.016157096
13	0xbc8ff2b6	-0.017571788
14	0xbaea2c7a	-0.0017866038
15	0x3c969975	0.01838372
16	0x3bb8f49c	0.005644394
17	0x3c53457e	0.012894986
18	0xbb810c2c	-0.0039382186
19	0xbbb228a6	-0.0054369746
20	0xbc0287e1	-0.007966966
21	0x3af5205b	0.0018701659
22	0xbb867ee4	-0.004104482
23	0x3bc37c24	0.0059657265
24	0xbcbc9551	-0.023020418
25	0x3c89fd66	0.016844463
26	0xbc8975f5	-0.01677988
27	0x3ba20242	0.004944117
28	0xbc5ddeaf	-0.013541861
29	0x3c2b5596	0.010457417
30	0x3b25a9c8	0.00252782
31	0x3c1bdb84	0.009512786

convs.0.nn.1.running_var f4 [32]
0	0x3ecefe0a	0.4042819
1	0x3f3dd57c	0.74153876
2	0x3e36d9fc	0.17856592
3	0x3ed4c823	0.41558942
4	0x3f007470	0.5017767
5	0x3ea863c4	0.32888615
6	0x3e779307	0.2417718
7	0x3e95b89b	0.29242405
8	0x3ec51071	0.38489106
9	0x3eade67f	0.33964917
10	0x3ec2ab4d	0.38021317
11	0x3f124afb	0.5714566
12	0x3f17594a	0.5912062
13	0x3eee57aa	0.46551257
14	0x3f3fa95c	0.74867797
15	0x3ee858da	0.45380288
16	0x3f272a68	0.6529908
17	0x3efcb0a2	0.4935351
18	0x3f3f149b	0.74640816
19	0x3ea14bc2	0.3150311
20	0x3ea399d4	0.319533
21	0x3f1e1d02	0.6176301
22	0x3e8978df	0.2685003
23	0x3ef44e16	0.47715825
24	0x3f0378ca	0.51356184
25	0x3ec74ab9	0.38924196
26	0x3ead8092	0.33887154
27	0x3f3d6be1	0.73992735
28	0x3f070dfb	0.5275571
29	0x3f08f18f	0.5349359
30	0x3f0608de	0.5235728
31	0x3eab74b5	0.33487478

convs.0.nn.3.weight f4 [32, 32]
0	0x3dadf59e	0.084941134
1	0xbe1baf04	-0.15203482
2	0x3da31754	0.07963434
3	0x3ce45887	0.027874244
4	0xbe28bee6	-0.16479072
5	0x3c9f3125	0.019432614
6	0xbdf58c16	-0.1198961
7	0xbdf9ea3f	-0.12202882
8	0xbd10b800	-0.035331726
9	0xbcd02d9d	-0.025412375
10	0xbcc0741c	-0.023492865
11	0x3d15852a	0.03650395
12	0xbc0d5ea7	-0.008628524
13	0xbd6b1f26	-0.057402752
14	0xbcb58e51	-0.022162588
15	0xbd1986ae	-0.037481956
16	0x3b2119e7	0.002458209
17	0xbe25b179	-0.16180982
18	0xbdb0591b	-0.086107455
19	0x3d02412b	0.03180043
20	0xbe138724	-0.14407021
21	0x3d158653	0.036505055
22	0x3ded2116	0.11578576
23	0xbe22b00f	-0.15887474
24	0x3d738649	0.059454236
25	0xbda5cee7	-0.08096104
26	0x3d473b75	0.048640687
27	0xbdcba9ed	-0.0994452
28	0x3dcaab07	0.09895902
29	0x3e254dd4	0.1614297
30	0xbd4684e0	-0.048466563
31	0x3bff322d	0.007787964
32	0x3d0d1fbb	0.03445409
33	0xbd89dd20	-0.06731629
34	0x3cda25f4	0.026629426
35	0x3e120eaf	0.14263414
36	0x3d4e23fd	0.05032729
37	0x3d1aa452	0.037754364
38	0xbd21677f	-0.039405342
39	0x3d77eb24	0.060526982
40	0x3db75cb8	0.089532316
41	0x3d8dffe2	0.069335714
42	0xbb85fed9	-0.004089218
43	0x3d9bb46b	0.07602771
44	0x3c9ca12e	0.019119825
45	0xbd349c07	-0.04409411
46	0xbda740d3	-0.08166661
47	0xbdc4547e	-0.09586428
48	0xbd871403	-0.06595614
49	0xbcbe9087	-0.023262275
50	0xbc3a16b8	-0.011357956
51	0x3b0d919b	0.002160168
52	0x3d414dc3	0.0471933
53	0xbe40e31d	-0.18836637
54	0x3de12365	0.10993079
55	0xbe018cc6	-0.12651357
56	0xbd4fcfe8	-0.050735384
57	0xbe09be83	-0.1345158
58	0x3d199f47	0.037505414
59	0xbd8ea94b	-0.06965884
60	0x3d877356	0.066137955
61	0x3deac44d	0.11463223
62	0xbdd2e98f	-0.10298454
63	0xbd1bd27f	-0.03804254
64	0xbd9cea4c	-0.07661876
65	0xbc1d61b5	-0.009605815
66	0xbcd327a7	-0.025775744
67	0xbe283f87	-0.16430484
68	0x3dc3b2dd	0.095556
69	0xbe1859a2	-0.14877942
70	0x3d73b209	0.05949596
71	0xbcf3d5d7	-0.029765053
72	0x3ccdb051	0.025108488
73	0xbdafff4e	-0.085936174
74	0x3df75d70	0.12078369
75	0xbd9d5d60	-0.076838255
76	0xbdb624cd	-0.08893738
77	0x3d93c5e2	0.072154775
78	0x3d900d70	0.07033813
79	0x3ca4b4af	0.020105688
80	0x3e2bd5bc	0.16780752
81	0x3dc4faf2	0.096181765
82	0xbb8769c8	-0.004132483
83	0x3cd2d570	0.02573654
84	0xbd84db1a	-0.06487103
85	0x3ca98c56	0.0206968
86	0xbe45cf35	-0.19317324
87	0x3dec79c3	0.11546662
88	0x3d63e2e9	0.05563632
89	0x3d3857d0	0.04500562
90	0xbdc84a79	-0.097798295
91	0xbbfecd97	-0.007775973
92	0xbdaedb59	-0.08537931
93	0x3dd261c7	0.10272556
94	0x3d9a47e6	0.07533245
95	0xbdf27b7c	-0.11839959
96	0xbc9af8ad	-0.018917406
97	0xbd8292a0	-0.06375623
98	0xbc5bd461	-0.013417334
99	0xbda0f4a7	-0.07859164
100	0x3d986b14	0.074422985
101	0x39620eca	0.00021558549
102	0xbc88a905	-0.016682157
103	0xbbba21be	-0.005680292
104	0xbd755f13	-0.059905123
105	0xbbbfb82e	-0.0058508134
106	0x3e4a6fbb	0.19769184
107	0xbc8ad615	-0.016947785
108	0xbd67c33c	-0.056582674
109	0xbd1a363e	-0.037649386
110	0x3cd0eaac	0.025502525
111	0x3d85427f	0.06506824
112	0x3dccd885	0.10002235
113	0xbde989ec	-0.1140326
114	0x3d2911c9	0.041276727
115	0x3e09a0c1	0.13440229
116	0xbc7489ba	-0.014925415
117	0xbcc2efd0	-0.023795992
118	0xbe5630ed	-0.20917101
119	0x3d91ce06	0.07119374
120	0x3bd77245	0.0065749013
121	0x3d35e7f8	0.044410676
122	0xbd05b6b0	-0.032644928
123	0x3c8ccbda	0.017187048
124	0xbdc509f6	-0.096210405
125	0xbca3bbb2	-0.019986961
126	0xbd2a5d15	-0.041592676
127	0x3d6f3de4	0.058408633
128	0xbd39a7d8	-0.045326084
129	0x3dc46c5c	0.095909804
130	0xbdbe3db9	-0.092891164
131	0xbde9007a	-0.11377044
132	0xbd976c8e	-0.07393752
133	0xbd9f1084	-0.07766822
134	0x3d311712	0.043234892
135	0x3e1353d4	0.14387447
136	0x3d832872	0.06404199
137	0xbdb54358	-0.088507354
138	0x3e41b2fe	0.18915936
139	0xbc590459	-0.0132456655
140	0xbde17565	-0.11008719
141	0xbc35c62b	-0.01109461
142	0x3d5a6d7d	0.053327072
143	0x3dcd5bb2	0.10027255
144	0x3d146575	0.03622957
145	0xbd8267c1	-0.06367446
146	0xbe171294	-0.1475318
147	0xbdd4706a	-0.10373004
148	0xbcc6214d	-0.0241858
149	0xbccb9ffb	-0.024856558
150	0xbcd35baa	-0.025800545
151	0xbcb2ea8d	-0.021840358
152	0x3d7e816a	0.062135138
153	0x3d49dd94	0.04928358
154	0xbdb50eef	-0.08840739
155	0x3e0139c2	0.12619689
156	0xbd8d42cb	-0.068975054
157	0x3dc4216a	0.09576686
158	0xbd6b5af5	-0.05745979
159	0xbd4b13c4	-0.049579397
160	0xbd0adebb	-0.03390382
161	0x3e20520e	0.15656301
162	0x3d9e05b1	0.07715929
163	0xbe0ee686	-0.13955125
164	0xbe023d52	-0.12718704
165	0x3d5ae1b2	0.053437896
166	0xbde08d84	-0.10964492
167	0xbdae4c41	-0.08510638
168	0xbd6d7e7f	-0.057981964
169	0x3d0a1fbb	0.033721667
170	0x3dd7f1db	0.10544177
171	0xbc6f3046	-0.014598912
172	0xbe0a9af4	-0.13535672
173	0x3d2f0533	0.042729568
174	0x3db5bca1	0.08873869
175	0x3bf58f69	0.0074939025
176	0x3e26af2a	0.16277757
177	0x3d081e1c	0.03323184
178	0xbe1d189e	-0.15341422
179	0x3d4ade62	0.049528487
180	0xbd846c3c	-0.064659566
181	0x3d92fa32	0.07176627
182	0xbe149a66	-0.14512023
183	0xbd7cef1a	-0.061751463
184	0x3d2f2065	0.042755503
185	0x3c6fc9e2	0.014635535
186	0xbda5ff9c	-0.08105394
187	0xbccb38cd	-0.024807358
188	0x3c26398c	0.010145556
189	0xbdcc14db	-0.09964915
190	0x3dad0aef	0.08449351
191	0xbcc735dc	-0.024317674
192	0x3c1dd513	0.00963332
193	0x3e3af67d	0.1825809
194	0xbd78618f	-0.060639914
195	0xbdc9b241	-0.09848452
196	0xbdb36376	-0.08759205
197	0xbd3aa5d4	-0.045568302
198	0xbc821c21	-0.015882554
199	0xbc6f5afc	-0.014609095
200	0xbde05189	-0.109530516
201	0x3d103da5	0.03521504
202	0x3c3d26d7	0.011544905
203	0xbdc269f9	-0.09492869
204	0x3b4538ba	0.0030093626
205	0xbdc3b32c	-0.09555659
206	0x3d555119	0.052079294
207	0xbe137ea7	-0.14403783
208	0x3cc6e7d5	0.024280468
209	0xbd01c7ae	-0.03168457
210	0xbd5b0de5	-0.053480048
211	0x3c9bdc0d	0.019025827
212	0xbd7e1ff1	-0.06204218
213	0x3de59fb8	0.112121046
214	0xbd9a834d	-0.07544575
215	0x3e2f5d5b	0.17125456
216	0xbc6632bc	-0.014050182
217	0xbd22b447	-0.039722707
218	0x3b827ef2	0.003982418
219	0x3e0f9f7e	0.14025685
220	0xbd424e52	-0.047437973
221	0xbc80eb86	-0.015737306
222	0x3cd70acb	0.026250264
223	0xbd8dcfba	-0.06924386
224	0xbd46d708	-0.048544914
225	0xbde032c9	-0.109471865
226	0xbd820d83	-0.063502334
227	0xbc82dd99	-0.015974807
228	0xbd9a7b7d	-0.07543085
229	0xba478e7f	-0.0007612481
230	0x3dd82bcb	0.10555228
231	0xbdd07d22	-0.10180117
232	0xbca97313	-0.020684754
233	0xbd83e955	-0.06440989
234	0x3e16cdcd	0.14726944
235	0xbc93ce05	-0.018042574
236	0xbdb916fa	-0.090375856
237	0x3c6cae3b	0.014445837
238	0x3d3200c0	0.043457747
239	0xbd4e2556	-0.050328575
240	0xbd55bd6b	-0.052182596
241	0x3d86390c	0.065538496
242	0x3bfb66a1	0.0076721464
243	0xbd84f4c5	-0.064919986
244	0x3d86a3a1	0.065741785
245	0xbe1e04bc	-0.15431494
246	0x3e75c370	0.24000335
247	0xbe02aa88	-0.12760365
248	0xbd7d33d1	-0.061816994
249	0x3c8a6f6f	0.016898839
250	0x3b027073	0.001990345
251	0xbc870e32	-0.016486261
252	0x3d732489	0.059361015
253	0xbd66e681	-0.05637217
254	0xbbba4f98	-0.005685758
255	0x3d617e7a	0.055052258

convs.0.nn.3.bias f4 [32]
0	0x3ca298ce	0.019848254
1	0xbdf30333	-0.118658446
2	0xbca2cf3d	-0.01987421
3	0xbe0869d3	-0.13321619
4	0xbe169c9d	-0.1470818
5	0x3bd87904	0.006606223
6	0xbe132ecb	-0.14373319
7	0xbda54fea	-0.08071883
8	0x3d03d28f	0.032183226
9	0xbdb5a01a	-0.088684276
10	0xbe27fd2b	-0.1640517
11	0xbdb8a63c	-0.09016082
12	0xbdc0ee5f	-0.09420466
13	0x3ca868d6	0.020557802
14	0xbda4bd04	-0.08043864
15	0xbce8fb0e	-0.028440025
16	0x3d4da1c3	0.050203096
17	0x3cf32183	0.029679066
18	0x3c4e05bb	0.012574608
19	0x3d21e761	0.0395273
20	0x3da4e113	0.08050742
21	0xbd8d2390	-0.06891549
22	0x3d929170	0.07156646
23	0xbd8f4874	-0.06996241
24	0xbe02bc06	-0.12767038
25	0xbe05f8c6	-0.13083181
26	0xbd6ccffb	-0.057815533
27	0xbc694491	-0.014237539
28	0x3d77c3a6	0.06048932
29	0x3d4ecc32	0.050487705
30	0xbe37f73e	-0.17965409
31	0xbdd945cb	-0.10609015

convs.1.nn.0.weight f4 [32, 64]
0	0xbbc2b2bb	-0.0059417165
1	0xbb9fa8f9	-0.004872438
2	0xbc9e9ea7	-0.01936276
3	0x3d304844	0.043037668
4	0x3d86c694	0.065808445
5	0x3d363b95	0.044490416
6	0x3d7981da	0.06091485
7	0x3d9452ff	0.07242393
8	0xbd81ba5c	-0.06334373
9	0x3ccbfd79	0.024901139
10	0x3a850bf2	0.0010150655
11	0xbca0a0a1	-0.019607844
12	0x3d17f3fb	0.037097912
13	0x3bf17e9c	0.0073698293
14	0x3b5cc3fd	0.0033686154
15	0x3be20a72	0.006898218
16	0x3c29e333	0.01036911
17	0x3bd65e5a	0.0065420093
18	0x3db66755	0.08906428
19	0x3d87b70a	0.06626709
20	0xbd4014b4	-0.046894744
21	0x3d6ecbaa	0.058299698
22	0xbd047c63	-0.032345187
23	0x3daebae6	0.08531742
24	0x3d2dc712	0.042426176
25	0x3cb0b8b3	0.021572446
26	0x3c748682	0.014924647
27	0xbcde655b	-0.02714794
28	0x3d54ba2a	0.051935352
29	0x3d1489ee	0.036264353
30	0x3d0f9c18	0.035060972
31	0x3c69b761	0.014264912
32	0x3c3ba7b4	0.011453558
33	0x3c16a639	0.009194904
34	0xbd00916c	-0.031388685
35	0xbd66f1c5	-0.056382913
36	0xbd4c0917	-0.049813356
37	0xbda57852	-0.0807959
38	0xbcdf8892	-0.027286801
39	0xbdcb6352	-0.09931053
40	0x3d3011e0	0.042985797
41	0xbd5bf67c	-0.053701863
42	0xbcafbce2	-0.021452371
43	0x3c66d9b4	0.01408999
44	0xbd998968	-0.07496911
45	0xbcc8700d	-0.024467492
46	0xbbb96a39	-0.0056584147
47	0xbd4f4c7e	-0.050610058
48	0x3c0bd205	0.008533959
49	0x3d7cf986	0.0617614
50	0x3c307a20	0.010771304
51	0x3d8f2af4	0.069906145
52	0x3da60574	0.08106509
53	0xba2ca7cf	-0.0006586285
54	0xbd457950	-0.048211396
55	0x3bde1b86	0.0067781834
56	0xbd53b363	-0.05168475
57	0xbd5537ae	-0.052055053
58	0x3d43ed05	0.04783346
59	0xbd21ff90	-0.039550364
60	0xbd100415	-0.035160143
61	0xbd97d181	-0.074130066
62	0x3cbcb20e	0.023034122
63	0xbce2d0e1	-0.027687492
64	0x3d2b04da	0.041752674
65	0x3e02dacc	0.12778777
66	0xbe03100f	-0.12799095
67	0xbdddc1f5	-0.1082801
68	0xbd85f6b1	-0.06541193
69	0xbcf83fc7	-0.030303849
70	0xbde3c753	-0.111220025
71	0x3d4939cc	0.049127385
72	0x3d6bdfce	0.057586484
73	0xbcf62dba	-0.030051101
74	0xbd87df24	-0.066343576
75	0x3db46bfc	0.08809659
76	0x3bb56099	0.005535197
77	0x3e2cd6d4	0.16878825
78	0xbdeef7af	-0.11668336
79	0x3d103ed5	0.03521617
80	0xbd2d3960	-0.042291045
81	0x3d5ab10b	0.053391498
82	0x3c38fa3f	0.011290132
83	0xbdaf1532	-0.085489646
84	0xb9e7e2db	-0.00044228774
85	0xbcc6535d	-0.024209673
86	0x3caf213a	0.021378148
87	0xbdb2c104	-0.08728221
88	0x3d6b6c9d	0.05747663
89	0xbd24a10b	-0.040192645
90	0xbe23e827	-0.16006528
91	0xbd4c3ceb	-0.049862783
92	0xbce6a5a7	-0.028155161
93	0xbcf4fc2e	-0.029905405
94	0xbc7e1ee4	-0.015510295
95	0x3da54a78	0.080708444
96	0x3cd35f08	0.02580215
97	0xbce71f7e	-0.028213259
98	0x3d9b49c3	0.07582428
99	0x3d67ae70	0.05656284
100	0x3d80b5ec	0.06284699
101	0x3d91719f	0.0710175
102	0xbd885db8	-0.066585004
103	0x3d1b6b92	0.037944384
104	0x3dc39dfe	0.09551619
105	0xb707b079	-8.087715e-06
106	0xbdb98a95	-0.090596355
107	0x3d608b23	0.05482019
108	0xbd991338	-0.07474369
109	0x3d6f52b2	0.058428474
110	0xbc543b07	-0.012953526
111	0x3da33f6c	0.07971081
112	0x3dd6b337	0.10483401
113	0x3d95c29f	0.07312512
114	0x3cfe8ffa	0.031074513
115	0x3d08ff4e	0.033446603
116	0x3ddfb5f2	0.10923375
117	0xbd13218b	-0.03592066
118	0x3c82200a	0.015884418
119	0x3c5964e0	0.013268679
120	0x3d63380c	0.055473372
121	0x3d859221	0.065220125
122	0x3c9401ed	0.018067325
123	0xbd9cccc9	-0.07656247
124	0x3d6f7c6c	0.058468267
125	0x3d64c64b	0.05585317
126	0xbd81dee0	-0.06341338
127	0x3cd15ff1	0.025558444
128	0xbd9c6a10	-0.07637417
129	0xbd8b7a56	-0.06810443
130	0x3d104e1e	0.03523075
131	0x3d5985a7	0.053105976
132	0xbcc644cc	-0.024202727
133	0x3d992bf8	0.074790895
134	0xbba82deb	-0.005132427
135	0x3d043e11	0.032285754
136	0xbd87bbf2	-0.066276446
137	0x3da942ad	0.082646705
138	0xbcc1054f	-0.023562102
139	0xbd6a09c6	-0.057138227
140	0x3a80127f	0.0009771137
141	0xbd0e16a9	-0.03468958
142	0x3d15d98a	0.036584415
143	0x3d44cb34	0.048045352
144	0x3ccad23d	0.024758453
145	0xbd27c1e6	-0.0409564
146	0x3de6ed49	0.11275727
147	0xbbfc56c9	-0.0077007753
148	0xbaad06dc	-0.0013200897
149	0x3da73a87	0.0816546
150	0xbc9afb65	-0.018918702
151	0xbbaaf312	-0.0052169645
152	0x3bf9e96e	0.007626704
153	0x3d3c2285	0.045931358
154	0xbd4006e3	-0.046881568
155	0x3c39b1ea	0.011333922
156	0xbd5a6413	-0.053318094
157	0x3cd5890b	0.026066324
158	0x3ba97a08	0.005172018
159	0xbd9e48c1	-0.077287205
160	0x3d5adfdb	0.05343614
161	0x3a05f36e	0.0005109821
162	0xbca236ae	-0.019801464
163	0xbcb13977	-0.021633847
164	0xbd23c017	-0.039978113
165	0xba049d94	-0.00050588814
166	0xbc3f4f30	-0.011676595
167	0xbde7e92f	-0.11323773
168	0x3d917617	0.07102602
169	0xbd45ea58	-0.04831919
170	0x3d382c57	0.04496416
171	0x3c86e503	0.016466623
172	0x3ca1bdc5	0.01974381
173	0x3caeb064	0.021324344
174	0xbc8cb799	-0.01717739
175	0xbd844652	-0.06458725
176	0xbd516101	-0.0511179
177	0x3df1b22c	0.11801562
178	0xbd411670	-0.04714054
179	0xbce7a3ab	-0.028276285
180	0x3d836820	0.06416345
181	0xbd6a8098	-0.057251543
182	0x3d092375	0.03348108
183	0x3c0f4b6b	0.008746008
184	0x3cf3315f	0.029686628
185	0xbc72f06a	-0.014827827
186	0x3c58bfd8	0.013229333
187	0xbc1dc087	-0.009628422
188	0xbd361dca	-0.044462003
189	0xbe0dc90d	-0.13846226
190	0xbdba914b	-0.09109744
191	0xbb96e08f	-0.004604406
192	0xbd582e87	-0.052778747
193	0xbe0c9419	-0.1372837
194	0x3d348613	0.044073176
195	0x3d491d31	0.049100105
196	0x3ddc655d	0.10761521
197	0x3da801a9	0.08203442
198	0x3d8be3b7	0.068305425
199	0x3b9d7138	0.0048047565
200	0xbcabf47d	-0.020990605
201	0x3d9d096a	0.07667811
202	0xbd3cf8f5	-0.04613586
203	0xbd776ad9	-0.060404632
204	0xbcac40dc	-0.021027021
205	0xbd81f396	-0.063452885
206	0x3dab147f	0.08353519
207	0x3bda6fa3	0.00666614
208	0x3d86550b	0.065591894
209	0xbdc84275	-0.09778301
210	0x3cef1801	0.02918625
211	0x3dd91d80	0.1060133
212	0xbd952f97	-0.07284468
213	0x3d3246fd	0.04352473
214	0x3da97d27	0.08275824
215	0x3da92240	0.08258486
216	0x3d510ea0	0.051039338
217	0xbc0f0154	-0.008728344
218	0x3bed77f5	0.007246966
219	0xbd56a966	-0.052407645
220	0xbc71100b	-0.014713298
221	0x3d10f128	0.035386235
222	0xbd3bbd8b	-0.04583506
223	0x3ca7d9e9	0.02048965
224	0xbc66065c	-0.014039602
225	0x3d32d00e	0.043655448
226	0x3d804a88	0.06264216
227	0xbd3830c2	-0.044968374
228	0x3d93e3d6	0.07221191
229	0x3e0d3bbc	0.13792318
230	0x3bd437ea	0.006476392
231	0xbc9af903	-0.018917566
232	0x3dd2fa95	0.10301701
233	0xbd8d7e8a	-0.06908901
234	0x3da09af5	0.07842056
235	0xbe130c83	-0.14360242
236	0x3bd074a0	0.006361559
237	0xbc204846	-0.009782856
238	0x3e068ed3	0.1314042
239	0xbd0066cd	-0.03134804
240	0xbd88f083	-0.06686499
241	0x3cb5ce21	0.022193016
242	0x3d454c40	0.04816842
243	0x3e26bf6c	0.16283959
244	0x3d2f40d9	0.042786453
245	0x3dfe1a20	0.12407327
246	0x3d19b2a7	0.03752389
247	0x3da5d2be	0.080968365
248	0x3d8b826d	0.06811986
249	0x3d76306d	0.060104776
250	0xbc54fca5	-0.012999688
251	0x3d0c9c4e	0.03432875
252	0x3d4c1629	0.04982582
253	0xbc76b65b	-0.015058125
254	0x3c8f5d26	0.017500471
255	0xbd9ba181	-0.07599164

convs.1.nn.0.bias f4 [32]
0	0xb38cbc07	-6.55346e-08
1	0xb43a4698	-1.7348282e-07
2	0x34c51b3f	3.6713934e-07
3	0xb4d1e584	-3.9096278e-07
4	0xb53a1f5a	-6.933602e-07
5	0x357da358	9.448754e-07
6	0x34ef2d8e	4.4550364e-07
7	0x3397f433	7.075905e-08
8	0x343f209e	1.7800127e-07
9	0xb3a09101	-7.476957e-08
10	0xb29c01d0	-1.8161614e-08
11	0xb49f877c	-2.9714636e-07
12	0xb4625221	-2.1077769e-07
13	0x34291e70	1.5750425e-07
14	0xb260dccc	-1.3088719e-08
15	0x33fef021	1.1871476e-07
16	0xb3ee3f53	-1.1094257e-07
17	0xb2d353ba	-2.4601707e-08
18	0x34fa070a	4.657125e-07
19	0xb4745324	-2.2754517e-07
20	0x341a1ffe	1.4354006e-07
21	0x3478e578	2.318028e-07
22	0xb42f5d58	-1.6332103e-07
23	0x34987b40	2.8401882e-07
24	0xb3bf27ca	-8.901368e-08
25	0x3520dd77	5.992692e-07
26	0xb4c0ab6e	-3.5887518e-07
27	0x333b1150	4.3555076e-08
28	0x339a9bba	7.19951e-08
29	0xb310d410	-3.3720482e-08
30	0x33c4b6d9	9.160221e-08
31	0x3507621a	5.0434176e-07

convs.1.nn.1.weight f4 [32]
0	0x3f05b5c7	0.52230495
1	0x3f2f7ef1	0.6855307
2	0x3f16ac32	0.588565
3	0x3f281da3	0.6567022
4	0x3f30409d	0.6884859
5	0x3f5e7d08	0.8690953
6	0x3f0916d3	0.5355045
7	0x3f22faf2	0.6366416
8	0x3f1c3a8c	0.61026835
9	0x3f11ff21	0.5702992
10	0x3f0fc844	0.56164956
11	0x3f2d6f81	0.67748266
12	0x3ef0d367	0.47036287
13	0x3f4b5ee6	0.7944168
14	0x3f16b381	0.5886765
15	0x3f206777	0.62657875
16	0x3f540e1c	0.8283403
17	0x3eed119a	0.4630249
18	0x3f281bc9	0.65667397
19	0x3f316062	0.69287694
20	0x3f3475c1	0.7049218
21	0x3ef90acc	0.4864105
22	0x3f3b7a4f	0.73233503
23	0x3f03c43a	0.5147129
24	0x3f058c84	0.52167535
25	0x3f58b0e3	0.8464491
26	0x3f45676f	0.7711095
27	0x3f4f45cf	0.80965894
28	0x3f05eae8	0.52311563
29	0x3f0d2f6b	0.5515048
30	0x3f450398	0.7695861
31	0x3f7a4244	0.97757363

convs.1.nn.1.bias f4 [32]
0	0xbd3b7b54	-0.04577191
1	0x3c07c80a	0.008287439
2	0xbd0488bb	-0.03235696
3	0xbbbf5597	-0.0058390605
4	0xbd974336	-0.07385866
5	0xbd60b940	-0.05486417
6	0x3b120bc3	0.0022284843
7	0x3e0c2cc1	0.13688947
8	0x3da99533	0.082804106
9	0x3b9839fe	0.004645585
10	0x3d4967dc	0.049171314
11	0x3c96ad5f	0.018393217
12	0xbd5938da	-0.053032734
13	0xbc909240	-0.017647862
14	0x3d9fdf36	0.07806246
15	0x3df322b7	0.11871856
16	0x3baded64	0.00530784
17	0xbc3520d3	-0.011055189
18	0x3dca3349	0.09873063
19	0xbc95dab5	-0.018292764
20	0x3e3255b0	0.174155
21	0xbd08f96d	-0.033440996
22	0xbdb379d0	-0.08763468
23	0xbcce9dcb	-0.025221726
24	0x3d3b5a7d	0.045740593
25	0x3e593b87	0.21214114
26	0x3ddb9cd9	0.10723276
27	0x3d445df1	0.047941152
28	0xbc63e961	-0.013910622
29	0xbce76097	-0.0282443
30	0x3dfc9153	0.12332406
31	0x3db98898	0.09059256

convs.1.nn.1.running_mean f4 [32]
0	0x3c7d0703	0.015443566
1	0x3d99329a	0.074803546
2	0xbcf7dd04	-0.030256756
3	0xbd16b6f8	-0.036795586
4	0x3c8d4c8f	0.01724842
5	0x3c5811c8	0.013187833
6	0xbc83b160	-0.01607579
7	0xbd3685e6	-0.04456129
8	0x3c88c7ff	0.016696928
9	0xbbce4420	-0.006294742
10	0xbd26571a	-0.04061041
11	0xbc0202fc	-0.007935282
12	0xbd2511df	-0.040300246
13	0xbd6c35c3	-0.05766846
14	0x3ad77aef	0.0016439835
15	0xbd3bc855	-0.04584535
16	0xbd176797	-0.036964025
17	0xbc44dda6	-0.012015736
18	0xbc317a80	-0.010832429
19	0xbc942408	-0.018083587
20	0xbc782bd6	-0.01514717
21	0xbc18966f	-0.00931321
22	0xbdb4a7c6	-0.08821063
23	0x3cfdd966	0.030987453
24	0xbd514d8a	-0.051099338
25	0xbdb859ac	-0.090014786
26	0x3ce44192	0.027863298
27	0xbc9c6048	-0.01908888
28	0xbaf69ac2	-0.0018814432
29	0xbcbf7c7a	-0.023374785
30	0xbc959774	-0.018260695
31	0xbd3676c3	-0.044546854

convs.1.nn.1.running_var f4 [32]
0	0x3e3c9312	0.18415478
1	0x3e8c5bd1	0.274138
2	0x3e8411a7	0.25794718
3	0x3e28bd13	0.16478376
4	0x3e65ec3f	0.22453402
5	0x3e8db435	0.2767655
6	0x3ece49a8	0.4029057
7	0x3f4bd9d7	0.7962927
8	0x3eb90f40	0.36144447
9	0x3ebc6406	0.36795062
10	0x3e81786f	0.25287196
11	0x3e22bcde	0.1589236
12	0x3e59a8dc	0.21255821
13	0x3e47bbc2	0.19505218
14	0x3e9799f1	0.29609635
15	0x3f112c02	0.56707776
16	0x3e61bef4	0.22045499
17	0x3e85a884	0.2610513
18	0x3ef1b145	0.47205558
19	0x3e1bcdbc	0.152152
20	0x3f88865d	1.0666004
21	0x3e263f87	0.16235171
22	0x3ea1d2c3	0.3160611
23	0x3dec74dc	0.11545727
24	0x3e9d31cf	0.30702063
25	0x3f8c549e	1.0963323
26	0x3f157447	0.5838055
27	0x3e8ea0dd	0.27857104
28	0x3e887ce7	0.26657793
29	0x3e5e8434	0.21730119
30	0x3f799640	0.9749489
31	0x3f0a017b	0.5390851

convs.1.nn.3.weight f4 [32, 32]
0	0xbd9e42d1	-0.07727588
1	0xbdc0b8f3	-0.09410276
2	0x3e001a3c	0.12510008
3	0x3e2bb46d	0.16768046
4	0x3d6b495f	0.05744302
5	0xbdfc4110	-0.12317097
6	0xbd08f2bc	-0.033434615
7	0xbdba05b2	-0.090831175
8	0xbe1541d1	-0.14575888
9	0xbcbb27fd	-0.022846216
10	0xbe03203f	-0.1280527
11	0x3d05d4ab	0.03267352
12	0x3cdc111d	0.026863629
13	0x3d899208	0.067173064
14	0xbc7a61c8	-0.015282102
15	0xbdc3a5d8	-0.095531166
16	0x3cf4f67d	0.029902691
17	0xbda547fb	-0.0807037
18	0xbba24211	-0.0049517234
19	0xbda74840	-0.081680775
20	0xbc2037ee	-0.00977896
21	0x3dd34e32	0.10317649
22	0xbd62022a	-0.055177845
23	0xbd995cda	-0.07488413
24	0x3d937728	0.072004616
25	0x3c6beabd	0.014399228
26	0xbc0cd26b	-0.008595089
27	0x3dfb6eaf	0.122769706
28	0xbdb0d023	-0.08633449
29	0x3d9b31a7	0.0757783
30	0x3d4c9aff	0.049952503
31	0xbdae47bc	-0.08509776
32	0x3ca2e34d	0.019883776
33	0x3d5668b7	0.052345958
34	0xbdf01bd7	-0.1172406
35	0xbe0c9091	-0.13727023
36	0xbe2aea12	-0.16690853
37	0xbd1b5577	-0.037923303
38	0x3e10155d	0.1407065
39	0xbd04fb66	-0.032466315
40	0x3d9ce395	0.07660595
41	0xbdb9556f	-0.09049498
42	0xbc0565e7	-0.008141971
43	0xbc9f28b3	-0.019428587
44	0xbda384e2	-0.0798433
45	0xbddd9fe2	-0.10821511
46	0xbd29edba	-0.04148648
47	0xbe014dc4	-0.12627321
48	0x3e0ccf36	0.1375092
49	0xbd1baf85	-0.038009185
50	0xbdb987a4	-0.090590745
51	0x3dd9b908	0.10630995
52	0xbe037420	-0.12837267
53	0xbdd70737	-0.10499423
54	0xbaa4f1ae	-0.0012584233
55	0xbcfbd361	-0.030740442
56	0xbda00b48	-0.07814652
57	0xbdbd3b7f	-0.092398636
58	0x3df02541	0.117258556
59	0x3cf1661c	0.029467635
60	0x3dc4a4bf	0.09601735
61	0x3be9b421	0.0071320687
62	0x3b901d76	0.0043980433
63	0x3e58f86d	0.21188517
64	0x3bb55bfa	0.005534646
65	0x3d96b9a5	0.07359628
66	0xbd3f6ba7	-0.046733525
67	0xbdbe21fb	-0.09283825
68	0xbd780301	-0.06054974
69	0x3d7c4140	0.061585665
70	0xbd235284	-0.039873615
71	0xbddf1c53	-0.10894074
72	0x3dddb704	0.10825923
73	0x3e01fe3a	0.12694636
74	0x3e119db2	0.14220312
75	0x3dc4025c	0.095707625
76	0xbde40bde	-0.11135076
77	0xbe169636	-0.14705738
78	0x3d067f85	0.032836456
79	0xbdaf82bd	-0.08569858
80	0x3dd0c156	0.10193126
81	0x3c9750a1	0.018471064
82	0xbd9ba29a	-0.07599373
83	0xbc2e3c4a	-0.010634491
84	0xbe1551fa	-0.14582053
85	0xbd17fdde	-0.03710734
86	0xbd89e249	-0.067326136
87	0x3dabd97e	0.08391093
88	0xbcb00f54	-0.021491684
89	0xbdf15efe	-0.117856964
90	0xbd95ed24	-0.073206216
91	0xbd833808	-0.064071715
92	0x3dd62e62	0.104580656
93	0xbdbcbb94	-0.09215465
94	0xbdb15111	-0.0865804
95	0x3e72018c	0.23633403
96	0xbda78091	-0.08178819
97	0x3dcfb26f	0.101414554
98	0xbd660b02	-0.05616284
99	0xbdb6e7fd	-0.08930967
100	0xbde0a408	-0.109687865
101	0xbd5f5d0e	-0.054532103
102	0xbc0322fa	-0.0080039445
103	0xbda21f0c	-0.07916078
104	0x3c4500f2	0.012024151
105	0xbd7c8731	-0.061652366
106	0x3d81eeaa	0.0634435
107	0x3e35ffe1	0.17773391
108	0xbd31d4d1	-0.04341585
109	0x3c21a124	0.009865079
110	0x3dba9bcd	0.09111748
111	0xbd99735c	-0.07492706
112	0xbcd9c664	-0.026583858
113	0xbc5b0344	-0.013367478
114	0xba9546ac	-0.001138886
115	0x3e3b2cd1	0.18278815
116	0xbdd25d6b	-0.10271724
117	0xbd94e937	-0.07271045
118	0xbe0be989	-0.13663305
119	0xbdb3ba72	-0.08775796
120	0xbdf31000	-0.11868286
121	0x3dbcba97	0.09215277
122	0x3cb32bf8	0.021871552
123	0xbe60fb6b	-0.21970908
124	0x3c858c5a	0.016302276
125	0xbdbab517	-0.091165714
126	0xbdff8a7f	-0.12477588
127	0x3dd3a595	0.10334317
128	0xbdf1a13f	-0.117983334
129	0x3d70a71c	0.058753118
130	0x3d11a3c2	0.035556562
131	0x3d106af5	0.035258252
132	0x3cd00721	0.025394024
133	0x3e39f7b8	0.18160903
134	0xbe077949	-0.1322986
135	0xbdaf3886	-0.08555703
136	0x3d647136	0.05577203
137	0xbdc7bd8c	-0.0975295
138	0x3d04c7d3	0.03241713
139	0xbe28478f	-0.16433547
140	0x3c83991a	0.016064215
141	0xbe378e52	-0.17925385
142	0x3c78ecb9	0.015193158
143	0xbdc7cbd1	-0.09755672
144	0x3c50f444	0.01275355
145	0xbe0ff4ff	-0.14058302
146	0xbdd45a68	-0.10368806
147	0x3da14f01	0.07876397
148	0xbd56fec2	-0.05248905
149	0x3c6a8235	0.01431327
150	0xbd7092d2	-0.05873377
151	0x3cd4f334	0.025994875
152	0xbc8c0037	-0.017089946
153	0xbe2e119b	-0.16998903
154	0xbd45adfd	-0.04826163
155	0xbd2fc027	-0.04290786
156	0x3dbbf197	0.09176939
157	0xbde880be	-0.113526806
158	0xbd765e36	-0.06014844
159	0x3d1bef42	0.03806997
160	0xbd91835d	-0.07105134
161	0x3d187318	0.037219137
162	0xbdc0b52d	-0.094095565
163	0x3e017806	0.12643442
164	0x3ceb8a71	0.028752537
165	0x3bcba971	0.0062152673
166	0x3d841bdc	0.06450626
167	0xbdc60ffb	-0.09671017
168	0x3d70bbd2	0.05877287
169	0xbda9b48b	-0.08286389
170	0x3cf995c8	0.03046693
171	0xbdac4678	-0.08411878
172	0xbd6a4eec	-0.057204172
173	0x3bf17a25	0.007369297
174	0x3e0be8d8	0.13663042
175	0xbb446be0	-0.0029971525
176	0x3d4f86db	0.050665718
177	0xbdb8131d	-0.089880206
178	0xbd9cbb68	-0.076529324
179	0x3d16b5c0	0.036794424
180	0xbdc046d2	-0.09388508
181	0x3cf328cb	0.029682538
182	0xbe311483	-0.17292981
183	0xbd965874	-0.0734109
184	0xbd461ce3	-0.048367392
185	0xbdea9d9c	-0.11455843
186	0x3d5c3d8e	0.05376964
187	0x3db18eaf	0.08669793
188	0x3c50fc47	0.01275546
189	0xbd9c092d	-0.07618938
190	0xbdc8200a	-0.09771736
191	0x3e33e5d3	0.1756814
192	0x3d1d2099	0.038361166
193	0x3db12233	0.08649101
194	0x3b9deb8d	0.0048193396
195	0xbd2408f7	-0.040047612
196	0xbde234d3	-0.11045232
197	0x3e011d7b	0.12608902
198	0x3d7c9df2	0.061674066
199	0xbdadd5d6	-0.084880516
200	0xbc86840a	-0.016420383
201	0xbd927de2	-0.071529165
202	0x3be1a6f7	0.006886359
203	0xbdfe4cf2	-0.1241702
204	0x3af26691	0.0018493702
205	0xbde803e0	-0.11328864
206	0x3dbc3fe3	0.09191873
207	0x3cc2338d	0.023706222
208	0x3d8766b9	0.0661139
209	0xbdd81b5d	-0.10552094
210	0xbc52702d	-0.012844128
211	0x3d18bd4e	0.03728991
212	0xbdfedf67	-0.12444954
213	0x3c1efc11	0.009703652
214	0xbe112710	-0.14175057
215	0xbce0b8e3	-0.02743191
216	0xbc038739	-0.008027845
217	0xbdcbf163	-0.0995815
218	0x3d1550c3	0.036453974
219	0xbd4babe7	-0.049724486
220	0x3d3b3145	0.045701284
221	0x3c0f51ff	0.008747577
222	0xbd31d49c	-0.04341565
223	0x3d5ad3f6	0.053424798
224	0x3dca3e97	0.09875219
225	0xbdadbdb8	-0.084834516
226	0x3ddef470	0.108864665
227	0xbd4e1228	-0.050310284
228	0x3e497dc6	0.19676885
229	0xbe167a2a	-0.1469504
230	0xbd66d2f2	-0.056353517
231	0xbd7adc1b	-0.061245065
232	0xbada9aa6	-0.0016678169
233	0x3dbf57fe	0.09342955
234	0x3cd5026d	0.026002133
235	0xbb94ee39	-0.004545
236	0xbd2901b2	-0.041261382
237	0xbd798330	-0.060916126
238	0x3dbb3ef3	0.09142866
239	0xbd067229	-0.032823715
240	0x3da8e697	0.082471065
241	0xbd6259d9	-0.055261467
242	0xbc4a3021	-0.012340576
243	0xbd8d92c6	-0.069127604
244	0x3da66fa0	0.081267595
245	0x3e29258d	0.1651823
246	0xbdc21243	-0.094761394
247	0x3ca71431	0.02039537
248	0xbcdf4552	-0.027254734
249	0xbd8b385e	-0.067978606
250	0xbcc678ce	-0.024227526
251	0x3dd97021	0.1061709
252	0x3c67526c	0.014118772
253	0x3d883ee2	0.06652619
254	0x3d24003e	0.040039293
255	0xbdc6eb76	-0.09712879

convs.1.nn.3.bias f4 [32]
0	0x3c78b57d	0.015179989
1	0x3da7cfa4	0.08193901
2	0x3da91272	0.08255471
3	0xbd7c8cc4	-0.061657682
4	0xbcb5f4b2	-0.022211406
5	0xbddb67d4	-0.10713163
6	0x3cdec4dc	0.02719348
7	0xbdd2dc19	-0.102958865
8	0xbcbf2ce7	-0.02333684
9	0x3c7a5863	0.015279862
10	0x3ca4607d	0.02006554
11	0xbe1470d8	-0.14496171
12	0xbe0a4adf	-0.13505124
13	0xbdee4fa4	-0.11636284
14	0xbdc28c96	-0.09499471
15	0xbd91eae9	-0.07124884
16	0xbd276436	-0.040867053
17	0xbdbb66c2	-0.09150459
18	0xbe266ce2	-0.16252473
19	0xbdc06411	-0.09394086
20	0xbe0a9608	-0.13533795
21	0xbd962e9a	-0.07333107
22	0xbe36dc69	-0.17857517
23	0xbdbab084	-0.09115699
24	0xbbeee9d3	-0.0072910576
25	0xbdb9e497	-0.09076803
26	0x3be21be0	0.0069002956
27	0x3cb2a830	0.021808714
28	0xbd858edd	-0.0652139
29	0x3dd48463	0.10376813
30	0x3d9740eb	0.07385429
31	0x3ce5e6b7	0.028064115

convs.2.nn.0.weight f4 [32, 64]
0	0xbc289bc4	-0.010291044
1	0xbc5591c3	-0.013035241
2	0xbd1894c6	-0.037251256
3	0xbd53858b	-0.05164103
4	0xbccf0933	-0.025272941
5	0xbd4c867d	-0.049932946
6	0xbc98b1c3	-0.01863945
7	0xbcb25b0e	-0.021771934
8	0xbcbe8cb8	-0.02326046
9	0xbc5dcccd	-0.013537598
10	0xbd3f0dd6	-0.046644054
11	0xbd64aac9	-0.055826936
12	0xb917748d	-0.000144439
13	0x3d2d3858	0.04229006
14	0x3d8fb407	0.07016759
15	0xbdb11556	-0.08646648
16	0x3c1ae141	0.009453119
17	0x3d3296ca	0.043600835
18	0x3d343d40	0.044003725
19	0x3b83816f	0.0040132324
20	0xbc64bb83	-0.013960722
21	0x3d8c9e5f	0.068661444
22	0x3dd2c95f	0.10292315
23	0x3d6d8aa9	0.057993565
24	0xbd84c809	-0.06483466
25	0x3cb895c3	0.02253235
26	0xbd5b2348	-0.053500444
27	0x3d854dbe	0.06508969
28	0x3d14d79f	0.036338445
29	0xbb976d7d	-0.0046212063
30	0xbd248f04	-0.040175453
31	0xbd59d230	-0.053178966
32	0xbd8724da	-0.06598826
33	0x3d5388de	0.0516442
34	0x3cc90c33	0.02454195
35	0x3d06b27c	0.03288506
36	0xbb780ccc	-0.0037849424
37	0x3ba5b118	0.0050565116
38	0x3c6560f3	0.014000165
39	0xbd533707	-0.05156615
40	0x3d7e5f33	0.062102508
41	0x3dafc539	0.08582539
42	0x3c0ea716	0.008706829
43	0x3c3d8438	0.011567168
44	0x3c2164a0	0.009850651
45	0xbcd90524	-0.026491709
46	0xbc014c79	-0.007891768
47	0x3c429e79	0.011878603
48	0x3cf4c9b3	0.029881334
49	0xbda8d45c	-0.08243629
50	0xbc05c2f1	-0.008164153
51	0xbd92c87b	-0.07167145
52	0xbc154a9f	-0.009112029
53	0xbc87f3b2	-0.016595695
54	0x3b9598b7	0.004565324
55	0xbbba0be3	-0.0056776865
56	0x3d17fde3	0.03710736
57	0xbd2f9aa6	-0.042872094
58	0xbb410d21	-0.0029457288
59	0xbce5850d	-0.028017545
60	0xbd30c7f0	-0.043159425
61	0x3d6e548b	0.058186095
62	0x3b0cae47	0.0021466182
63	0x3d0c0eea	0.03419391
64	0x3b9e0f06	0.0048235683
65	0xbd270487	-0.040775802
66	0xbd79ec04	-0.061016098
67	0xbcd7aeaa	-0.026328404
68	0xbd860c0d	-0.06545267
69	0xbd6707a5	-0.056403775
70	0xbc9aff55	-0.01892058
71	0xbc87594c	-0.016522072
72	0x3d4da838	0.050209254
73	0xbd4be027	-0.049774315
74	0xbdbb1731	-0.09135283
75	0xbd47dddc	-0.048795566
76	0x3b369a93	0.002786313
77	0x3d5304f7	0.051518407
78	0xbca2a793	-0.019855296
79	0xbd99a060	-0.07501292
80	0xbae8a512	-0.001774939
81	0x3d80d3d4	0.06290403
82	0x38ede832	0.000113442904
83	0x3c9541c8	0.018219844
84	0x3c2599b0	0.010107443
85	0x3da28046	0.079346225
86	0x3d9eaa83	0.07747366
87	0x3ba00705	0.0048836493
88	0xbd811036	-0.0630192
89	0xbbbe3de6	-0.0058057187
90	0xbbc0db47	-0.005885515
91	0x3c7babeb	0.015360813
92	0x3d80e7fd	0.06294248
93	0xbca16a80	-0.019704103
94	0xbb8e8d3c	-0.0043503325
95	0xbce500ed	-0.027954543
96	0x3c59996f	0.01328121
97	0x3d5641e1	0.05230892
98	0x3cc8fbbe	0.024534103
99	0x3d41b8de	0.047295444
100	0xbc320d0d	-0.010867369
101	0x3cda9d09	0.026686208
102	0x3c8cec9b	0.017202666
103	0x3bb874c9	0.0056291563
104	0xbc89ca30	-0.016820043
105	0x3b55b26a	0.0032607564
106	0xbc303d8b	-0.0107568605
107	0xbd25c66e	-0.04047244
108	0x3c13678a	0.008996854
109	0xbc1afa67	-0.009459115
110	0xbd0ff66e	-0.035147123
111	0xbc94066f	-0.018069474
112	0xbd49bc6d	-0.049251962
113	0xbd7ec530	-0.06219977
114	0xbc18e8c2	-0.009332838
115	0xbd4147e2	-0.047187693
116	0xbcf7bdb9	-0.030241834
117	0xbd199767	-0.037497904
118	0xb956fda1	-0.00020503115
119	0xbd384a46	-0.044992708
120	0xbc41315e	-0.011791555
121	0xbcfb44d5	-0.03067247
122	0x3d0d63c6	0.03451898
123	0xbcf5d30d	-0.030007863
124	0xbcffa153	-0.031204855
125	0x3cbc4088	0.02297999
126	0x3c9921f0	0.01869294
127	0x3cabb696	0.020961087
128	0xbcda6dda	-0.02666371
129	0xbdbf1d4f	-0.09331762
130	0xbde36652	-0.111035004
131	0x3cbbbc20	0.022916853
132	0xbcfbc973	-0.030735707
133	0xbd8ebc9a	-0.06969567
134	0xbdc187dc	-0.09449741
135	0xbd38783c	-0.04503654
136	0xbc8af6b6	-0.016963344
137	0xbc47612b	-0.012169163
138	0xbd83fb65	-0.06444434
139	0xbd535eb7	-0.051604
140	0x3d41e712	0.047339506
141	0x3d1b2a96	0.03788241
142	0x3de55c97	0.11199301
143	0xbaa80494	-0.0012818747
144	0x3d5e8e78	0.054335088
145	0x3dccc402	0.09998323
146	0x3d9f2f84	0.07772735
147	0x3aa1e8a7	0.0012352661
148	0x3b451401	0.0030071738
149	0x3debf786	0.11521821
150	0xbbc2a7cd	-0.0059404136
151	0x3bc04f93	0.005868861
152	0xbcb9fdaa	-0.022703964
153	0x3d5bd57a	0.053670384
154	0xbc883c80	-0.016630411
155	0x3dd0186b	0.10160907
156	0x3db315a1	0.0874436
157	0xbb1cfa71	-0.0023952986
158	0xbd18b031	-0.037277404
159	0xbda41f39	-0.08013768
160	0x3ccbc193	0.024872577
161	0x3c1e95d3	0.009679276
162	0x3ccd1c6a	0.025037963
163	0x3c8e8611	0.017397912
164	0x3d2b169e	0.041769616
165	0xbbae180c	-0.005312925
166	0xbd8ff9ce	-0.07030068
167	0x3d1ec4bf	0.03876185
168	0x3c46271e	0.012094287
169	0x3d54fc7f	0.05199861
170	0xbc5f1f24	-0.013618264
171	0x3ce7bd8c	0.028288625
172	0x3ad19be1	0.001599189
173	0xbd1ac038	-0.03778097
174	0xbdf47ed0	-0.1193825
175	0xbd0e3583	-0.034719
176	0xbd8c24b6	-0.068429396
177	0xbdcedd7a	-0.10100837
178	0xbbf0292b	-0.0073291264
179	0xbd4bcbf3	-0.049755048
180	0xbc3688dc	-0.011141028
181	0xbdc29aa9	-0.09502155
182	0xbc7cd63a	-0.015431935
183	0xbd47968f	-0.04872757
184	0x3d9bf476	0.076149866
185	0xbd170aef	-0.03687566
186	0x3cb085b9	0.021548139
187	0xbdbb0126	-0.091310784
188	0x3d8167d8	0.06318635
189	0x3d9a5a96	0.07536809
190	0xbb8bcf14	-0.004266629
191	0x3cf4f20c	0.029900573
192	0xbb96a516	-0.0045973165
193	0xbd845ed2	-0.06463398
194	0xbdc39285	-0.09549431
195	0x3b755ce4	0.00374394
196	0xbd6f4c41	-0.05842233
197	0xbd4ee1c5	-0.05050828
198	0xbd1eaa99	-0.038736913
199	0xbd491d93	-0.04910047
200	0xbd082244	-0.033235803
201	0xbddab509	-0.10679061
202	0xbcf09c14	-0.029371299
203	0xbd51ad13	-0.051190447
204	0x3cb6d266	0.022317123
205	0x3ce51079	0.027961956
206	0x3d26b4cc	0.040699765
207	0xbd3ebad7	-0.046564903
208	0xbd19d69a	-0.037558176
209	0x3d8f0a41	0.06984378
210	0x3d1fab8f	0.03898197
211	0x3cda58d0	0.026653677
212	0x3d151929	0.036400948
213	0x3d3f4bb4	0.046703056
214	0x3d6f92e7	0.058489706
215	0x3d4daac7	0.050211694
216	0xbdc96895	-0.098344006
217	0x3d4891c0	0.048967123
218	0xbca723b9	-0.020402776
219	0x3dca8c60	0.09890056
220	0x3d3d9342	0.046283014
221	0xbdae8b3d	-0.08522651
222	0xbc92d53e	-0.017923947
223	0xbd357b02	-0.044306763
224	0xbd522ed5	-0.051314194
225	0x3d2380d8	0.039917797
226	0xbc2e39b3	-0.010633874
227	0xbd23c45a	-0.039982177
228	0x3d626d5e	0.055280082
229	0xbc81f4fa	-0.015863884
230	0x3ca5245e	0.020158943
231	0x3d05af75	0.032638032
232	0x3d68c137	0.05682489
233	0xbbb2149d	-0.005434586
234	0x3d488c8c	0.04896216
235	0x3c7ad5a1	0.015309722
236	0x3bcf6807	0.0063295397
237	0xbd738646	-0.059454225
238	0xbd47875c	-0.048713073
239	0x3d14c963	0.03632487
240	0x3d75772b	0.0599281
241	0xbcf98c9a	-0.030462552
242	0xbd921855	-0.07133547
243	0xbd933143	-0.0718713
244	0xbca709b3	-0.020390367
245	0xbd8ce680	-0.06879902
246	0xbd36b4a1	-0.044605855
247	0xbd7621f8	-0.06009099
248	0xbc085dde	-0.008323161
249	0xbd334350	-0.043765366
250	0x3d536cb2	0.05161733
251	0xbd5822de	-0.052767627
252	0xbd94e51f	-0.07270264
253	0x3ccde86b	0.02513524
254	0x3cfa2100	0.030533314
255	0xbc1c64e9	-0.009545543

convs.2.nn.0.bias f4 [32]
0	0xb481d8a5	-2.4185752e-07
1	0xb3245d27	-3.8268947e-08
2	0xb492dd45	-2.7355614e-07
3	0x341cfca4	1.4620542e-07
4	0x344a5c30	1.8846254e-07
5	0xb30e511c	-3.313572e-08
6	0x34a8efa3	3.1466797e-07
7	0x34a12486	3.001516e-07
8	0x34590f42	2.021525e-07
9	0x354d4400	7.6467404e-07
10	0xb318f6ed	-3.5614836e-08
11	0x334829bf	4.6604097e-08
12	0xb44ef62a	-1.9274799e-07
13	0xb3b59002	-8.454664e-08
14	0x33f91ed7	1.1600576e-07
15	0xb4761aae	-2.2920241e-07
16	0xb538f321	-6.889914e-07
17	0x3442234e	1.8080502e-07
18	0x331d22a1	3.6585906e-08
19	0xb51cc185	-5.8396137e-07
20	0xb4932efc	-2.741507e-07
21	0xb43c8eae	-1.7560771e-07
22	0x34e25d00	4.2163447e-07
23	0x353a261f	6.9345873e-07
24	0x34d51e64	3.9696454e-07
25	0xb49f1f03	-2.9638622e-07
26	0x33ea16d9	1.090063e-07
27	0xb443ac22	-1.8223412e-07
28	0xb4f694a0	-4.592921e-07
29	0xb3afe983	-8.191548e-08
30	0x340bc062	1.3015372e-07
31	0x33c9ea79	9.402442e-08

convs.2.nn.1.weight f4 [32]
0	0x3ef0ac21	0.47006324
1	0x3ebeb7a3	0.3724948
2	0x3f331bb9	0.69964176
3	0x3f166a7b	0.58756226
4	0x3f134ff3	0.5754387
5	0x3f0b652d	0.54451257
6	0x3f33e383	0.7026903
7	0x3f18c6b4	0.59678197
8	0x3f0eae91	0.5573512
9	0x3f397026	0.7243675
10	0x3f581894	0.84412503
11	0x3f4b187d	0.7933424
12	0x3f0d3b38	0.55168486
13	0x3ed0e664	0.40800774
14	0x3f23e7f7	0.64025825
15	0x3f2c200b	0.67236394
16	0x3f4ccbb3	0.7999832
17	0x3f14b226	0.5808433
18	0x3ee69116	0.45032567
19	0x3f28eb51	0.65984064
20	0x3f1bb480	0.60822296
21	0x3f26d0b0	0.6516218
22	0x3f19387e	0.59851825
23	0x3f428915	0.7599042
24	0x3f0db3f8	0.55352736
25	0x3f41d56e	0.7571629
26	0x3f29ee89	0.663796
27	0x3f1b6f80	0.6071701
28	0x3f6debae	0.92937744
29	0x3ef507a4	0.47857392
30	0x3f2a6129	0.66554505
31	0x3eb0bf6c	0.34521043

convs.2.nn.1.bias f4 [32]
0	0x3d4c4979	0.049874756
1	0x3da5aee8	0.08090001
2	0x3e0d0dde	0.13774821
3	0x3da47210	0.08029568
4	0x3d7118e6	0.058861636
5	0x3da07019	0.07833881
6	0x3de75be4	0.112968236
7	0x3dae78fe	0.08519171
8	0x3de934d2	0.11387028
9	0x3dac86b4	0.0842413
10	0x3dfa5a0a	0.12224205
11	0x3de4e8ac	0.11177191
12	0xbcf862a4	-0.030320473
13	0xbd099acd	-0.033594895
14	0x3db0ec42	0.086388126
15	0x3ca45b73	0.020063138
16	0x3b9fbd97	0.004874896
17	0x3dec687a	0.11543365
18	0x3d9e3b81	0.07726193
19	0x3dea9481	0.11454106
20	0x3de48d7c	0.111597985
21	0x3de35964	0.11101034
22	0x3e24b16e	0.16083309
23	0x3ad1869e	0.0015985554
24	0xbdac234b	-0.08405169
25	0x3d0b7f20	0.034056783
26	0x3d22e7fe	0.039772026
27	0x3dccda74	0.10002604
28	0x3c1cee0e	0.009578241
29	0x3d8fe862	0.070267454
30	0x3dc1dfbf	0.09466504
31	0x3d48fb12	0.049067564

convs.2.nn.1.running_mean f4 [32]
0	0xbd40f306	-0.047106765
1	0xbd2e8064	-0.04260291
2	0xbdb9ba7b	-0.090687715
3	0xbd754757	-0.059882488
4	0xbd2664dc	-0.04062353
5	0xbd81bdcc	-0.06335029
6	0xbd803e61	-0.06261898
7	0xbd95be13	-0.073116444
8	0xbd9a7c1b	-0.075432025
9	0xbd7e4783	-0.062079918
10	0xbbec90b0	-0.0072193965
11	0xbdbcd8b9	-0.09221024
12	0x3a9648d0	0.0011465792
13	0xbd118ff2	-0.035537668
14	0xbdc33c4e	-0.095329866
15	0x3bec6422	0.007214085
16	0xb9b3f98c	-0.00034327467
17	0xbd93e82c	-0.07222018
18	0xbd36dd06	-0.044644378
19	0xbdbdb51b	-0.09263059
20	0xbd96f9cf	-0.07371866
21	0xbda4431b	-0.08020612
22	0xbda29167	-0.079378895
23	0x3ca26b79	0.019826638
24	0x3d1daf31	0.038497154
25	0x3cbd73fa	0.023126591
26	0xbd14f8f1	-0.03637022
27	0xbda718d4	-0.081590325
28	0x3bfa85da	0.007645351
29	0xbd46217c	-0.048371777
30	0xbdc7467b	-0.0973024
31	0xbcfebc2a	-0.031095583

convs.2.nn.1.running_var f4 [32]
0	0x3f116a5d	0.5680292
1	0x3ebd8fd0	0.37023783
2	0x3f347a86	0.70499456
3	0x3f555fdc	0.83349395
4	0x3f44d393	0.76885337
5	0x3f53bdd9	0.8271156
6	0x3f7a766e	0.9783696
7	0x3f70b403	0.94024676
8	0x3f2b1365	0.6682647
9	0x3f8e4b40	1.1116714
10	0x3e604fda	0.21905461
11	0x3f87c2e7	1.0606354
12	0x3dbdaaf7	0.092611246
13	0x3d1b3892	0.037895747
14	0x3f0e45c0	0.5557518
15	0x3e97e7f4	0.29669154
16	0x3e6f28dc	0.2335543
17	0x3f5ddc09	0.8666387
18	0x3f04cb8e	0.518731
19	0x3f6e8a8c	0.93180156
20	0x3f5047e4	0.81359696
21	0x3f7170b3	0.9431259
22	0x3f249d24	0.6430228
23	0x3e4d651a	0.20058098
24	0x3e2225dc	0.15834755
25	0x3e8b3af2	0.2719341
26	0x3f0c5f5f	0.54833025
27	0x3f45e26d	0.77298623
28	0x3edbb651	0.42912534
29	0x3f0535e2	0.52035344
30	0x3f7d1808	0.98864794
31	0x3e6c3296	0.23066172
