Codes/interference-graph/models/best_model.pt (torch, 207034 bytes, 75 tensors)

convs.0.nn.0.weight f4 [32, 18]
0.15796709 0.1836035 -0.22754987 0.10496922 -0.0011479305 1.162308e-10 -0.17017218 -3.646257e-12
-1.5966528e-11 -0.11346976 -0.22795416 0.11871736 -0.050485395 -2.9652192e-13 4.6271954e-05 0.016399177
0.00010351497 0.00040810212 0.20156151 -0.1555792 0.16154131 0.17045033 -6.685915e-14 1.2824233e-15
0.19150598 -0.0012550191 9.897927e-12 -0.11781391 -0.24497487 -0.17888744 0.11033289 -1.4213351e-05
0.00014623208 -0.070305884 -1.8788158e-05 4.787263e-05 -0.071020156 0.17905854 0.017936716 -0.20978232
-3.4634297e-08 4.930868e-05 0.09147215 -9.639889e-05 1.7879414e-07 -0.032531522 0.06464656 -0.20113744
0.124028035 6.392614e-11 -8.821441e-13 -0.09616569 0.00042253544 1.4160351e-09 -0.07165605 0.009175616
-0.032817267 -0.16037166 -9.8920885e-14 -5.848956e-15 -0.16334252 9.373051e-07 4.9880446e-06 -0.111623295
0.16448146 -0.15788718 0.13955192 2.0937244e-13 -6.487039e-11 0.078889705 -0.0021333555 1.3357827e-12
-0.14408702 0.042823106 0.049467478 0.09023166 4.9994002e-15 0.0017413566 0.13128664 -0.0018073485
-3.0862826e-13 -0.1613159 0.04127551 -0.13218404 -0.14366885 1.5180518e-14 -0.0014646404 -0.13375762
2.8446002e-14 -1.7847289e-14 0.02495092 -0.18513687 -0.1456834 0.087828964 2.0775497e-12 -2.030966e-14
-0.10449749 7.8764507e-13 -8.1866973e-16 -0.23258413 0.07001126 -0.11891289 -0.10736377 3.6557273e-07
-1.890273e-09 0.03952067 1.0032562e-05 -4.428879e-13 0.05729149 0.14686152 -0.01383077 -0.14315753
0.001788842 4.7262294e-16 -0.026480861 2.9689159e-06 -2.7868838e-12 -0.19349198 0.21859631 -0.033175852
0.15032974 -9.802338e-13 -1.9108382e-14 0.25731912 -2.067822e-15 -2.7753056e-15 0.19498184 -0.065868825
0.020869043 -0.10283746 2.0969942e-12 -1.266237e-06 -0.11367793 -1.9525073e-15 -1.9254813e-09 0.028217187
-0.09755641 -0.037228487 0.018319834 4.524067e-06 0.00030603432 0.1632764 7.471833e-07 -7.717078e-15
-0.017424934 -0.08162821 0.16453408 0.14685348 1.618296e-15 7.712912e-05 -0.007509755 -5.9905833e-15
-4.0119496e-05 -0.17216317 0.08930186 0.011434044 0.054701403 9.631774e-05 -1.25178374e-14 -0.2508268
4.7953823e-13 4.566336e-16 -0.13357225 0.122780524 0.17407571 0.1529662 0.0020230373 -8.3786374e-13
0.08859715 0.0001499567 2.372581e-05 0.15802483 -0.13809903 -0.05565281 -0.07742825 8.700473e-16
6.71572e-06 -0.19401029 0.00034054666 -1.2000179e-15 -0.019687364 -0.24666782 -0.008430954 -0.03240264
9.052044e-07 2.0099653e-09 -0.19046302 2.515888e-05 -1.129571e-09 0.21031223 -0.16177978 0.05548093
0.026323725 -0.002298705 -4.285561e-12 -0.13235204 -7.022732e-06 -7.428467e-15 -0.21311519 -0.18930016
-0.23160449 0.21930052 3.943251e-13 7.7787876e-10 -0.12050583 -7.6394105e-07 -4.3843662e-14 -0.11173644
0.11636975 0.010083975 0.08450862 -0.00031748673 -2.1160439e-13 0.13388763 -0.0016008427 -7.343252e-12
-0.22926813 0.20676008 0.105034836 -0.12276682 -9.425045e-06 1.7363978e-15 -0.052516583 -5.9573716e-15
-1.2441092e-15 0.0831563 -0.07828186 -0.1362893 -0.007806992 4.2810306e-13 -0.0013295884 -0.091899864
0.0015076408 -1.4363033e-05 0.102839425 -0.12739104 -0.13200848 -0.010806368 2.0105811e-13 6.926712e-15
0.13633943 -3.9739677e-13 -7.869811e-12 0.21719927 -0.01990261 -0.108694814 0.18726023 5.9749323e-15
1.9554075e-13 0.15560895 -3.006876e-09 -3.4928494e-06 -0.05632677 0.21199258 0.15575781 0.017941583
00000000: 20c2 213e 8e02 3c3e d502 69be 1afa d63d
00000010: 2876 96ba 2098 ff2e 9e41 2ebe 904a 80ac
00000020: 6d71 8cad d562 e8bd d16c 69be 1622 f33d
00000030: c6c9 4ebd 50ed a6aa 2214 4238 9157 863c
00000040: 2d16 d938 8af6 d539 2466 4e3e 2750 1fbe
00000050: 166b 253e 888a 2e3e ad8d 96a9 12d1 b826
00000060: 251a 443e 747f a4ba 4d20 2e2d 6b48 f1bd
00000070: b1da 7abe 452e 37be 36f6 e13d e175 6eb7
00000080: e055 1939 88fc 8fbd 439b 9db7 d8ca 4838
00000090: 0473 91bd 1f5b 373e 05f0 923c 2dd1 56be
000000a0: d0c0 14b3 cbd0 4e38 c055 bb3d c329 cab8
000000b0: 8ffa 3f34 c63f 05bd 6a65 843d f9f6 4dbe
000000c0: 6902 fe3d 3893 8c2e 2e4d 78ab 84f2 c4bd
000000d0: bf87 dd39 4e9e c230 68c0 92bd 5355 163c
000000e0: 666b 06bd 7838 24be 02c0 dea9 19bb d2a7
000000f0: 4343 27be 1e9b 7b35 fa5e a736 c19a e4bd
00000100: d46d 283e 2dad 21be b3e6 0e3e 7fbb 6b2a
00000110: c8a6 8eae ed90 a13d c4cf 0bbb a5fe bb2b
00000120: 8c8b 13be 4867 2f3d 699e 4a3d 60cb b83d
00000130: 541f b427 3b3e e43a 0170 063e 8de4 ecba
00000140: 05be adaa ff2f 25be 8210 293d 415b 07be
00000150: ed1d 13be e4bb 8828 2df9 bfba c2f7 08be
00000160: 021c 0029 0cc1 a0a8 df65 cc3c 8594 3dbe
00000170: 072e 15be acdf b33d cf31 122c e3ee b6a8
00000180: c802 d6bd cfb3 5d2b 2af7 6ba6 892a 6ebe
00000190: 1062 8f3d 9a88 f3bd 89e1 dbbd ef43 c434
000001a0: 09e6 01b1 6de0 213d 8751 2837 df52 f9aa
000001b0: 7baa 6a3d de62 163e 749a 62bc e397 12be
000001c0: 9477 ea3a 6b39 0826 64ee d8bc 963d 4736
000001d0: 091c 44ac c322 46be b6d7 5f3e 67e3 07bd
000001e0: 0af0 193e a5f4 89ab ee1c aca8 55bf 833e
000001f0: 9500 15a7 5afb 47a7 52a9 473e 3ce6 86bd
00000200: 8ef5 aa3c 729c d2bd 1790 132c 92f3 a9b5
00000210: f9cf e8bd 67b1 0ca7 6d51 04b1 bb27 e73c
00000220: a8cb c7bd e67c 18bd 7a13 963c 71cd 9736
00000230: 3b73 a039 ee31 273e 0c92 4835 be04 0ba8
00000240: bcbe 8ebc b12c a7bd 9f7b 283e c260 163e
00000250: 9638 e926 62c0 a138 6414 f6bb 61d5 d7a7
00000260: fb45 28b8 8b4b 30be e5e3 b63d db55 3b3c
00000270: 940e 603d 31fe c938 5680 61a8 5f6c 80be
00000280: 5ffa 062b 9d9d 0326 2ac7 08be 5b74 fb3d
00000290: e740 323e 2ca3 1c3e ef94 043b 72d6 6bab
000002a0: 6c72 b53d b23d 1d39 ca06 c737 43d1 213e
000002b0: d569 0dbe 33f4 63bd b492 9ebd 29c6 7a26
000002c0: 9857 e136 a2aa 46be 668b b239 d9f0 aca6
000002d0: 6547 a1bc 7d96 7cbe fc21 0abc a1b8 04bd
000002e0: 2cfd 7235 af1f 0a31 bd08 43be 490c d337
000002f0: 3f3f 9bb0 175c 573e 99a9 25be f93f 633d
00000300: daa4 d73c dfa5 16bb e7c8 96ac 4b87 07be
00000310: cfa4 ebb6 c2d1 05a8 de3a 5abe e7d7 41be
00000320: ba29 6dbe 5190 603e 3cfc dd2a 5ad2 5530
00000330: c3cb f6bd a111 4db5 4d74 45a9 13d6 e4bd
00000340: 4353 ee3d 4237 253c db12 ad3d 5974 a6b9
00000350: d03e 6eaa d719 093e 5ed3 d1ba 112f 01ad
00000360: 44c5 6abe eab8 533e 811c d73d 2c6d fbbd
00000370: 4320 1eb7 c63d fa26 a11b 57bd 0ea3 d6a7
00000380: 874b b3a6 da4d aa3d 3d52 a0bd 6c8f 0bbe
00000390: ccd1 ffbb 2700 f12a 9545 aeba ff35 bcbd
000003a0: 089c c53a c2f8 70b7 7a9d d23d cc72 02be
000003b0: 3b2d 07be 310d 31bc 0e5f 622a a48f f927
000003c0: 909c 0b3e e9b6 dfaa 7a72 0aad 7c69 5e3e
000003d0: cc0a a3bc 639b debd 25c1 3f3e 0645 d727
000003e0: c928 5c2a f457 1f3e 86a1 4eb1 b266 6ab6
000003f0: e6b6 66bd 9514 593e fa7e 1f3e 3afa 923c

convs.0.nn.0.bias f4 [32]
-8.121304e-06 0.00056226866 -0.0009118678 -6.280158e-07 -9.2101864e-08 1.4573831e-07 7.265188e-05 -0.0011432288
0.0001466328 -7.394277e-05 2.070138e-06 9.671573e-07 0.00043292058 -1.2669432e-07 -0.0016456706 -1.8734133e-07
1.4242321e-08 1.7150278e-06 -0.00022045178 2.5220587e-07 -2.9704407e-07 -5.46693e-06 0.0008081836 -5.976298e-07
-1.0236722e-06 -1.7726525e-06 -0.00026377555 -0.00010492359 3.9523226e-08 -7.997646e-06 -0.0004664687 0.002092346
00000000: bc40 08b7 3665 133a 6a0a 6fba eb94 28b5
00000010: 89c9 c5b3 3e7c 1c34 ae5c 9838 65d8 95ba
00000020: 71c1 1939 b911 9bb8 b3ec 0a36 46cf 8135
00000030: 9ef9 e239 7809 08b4 8bb3 d7ba fe27 49b4
00000040: 64ae 7432 e82f e635 1329 67b9 e966 8734
00000050: 6d79 9fb4 9270 b7b6 49dc 533a cf6c 20b5
00000060: 1c65 89b5 e0eb edb5 5b4b 8ab9 6c0a dcb8
00000070: 3fc0 2933 a12d 06b7 5e90 f4b9 be1f 093b

convs.0.nn.1.weight f4 [32]
0.9412389 1.0005779 1.0519606 0.979217 0.9763315 0.9782656 1.0033778 0.99330336
0.9988447 0.9841721 0.98687303 1.0012976 0.9746148 0.9762395 0.99914104 0.9802476
0.9845898 0.9879233 0.9854527 0.98465645 0.9769828 1.0013692 1.0104916 1.0142596
0.9883491 0.96962434 1.004566 0.9662772 1.0281743 0.97361386 0.98669255 0.9911084
00000000: 08f5 703f f012 803f a5a6 863f f7ad 7a3f
00000010: dcf0 793f 9d6f 7a3f af6e 803f 2149 7e3f
00000020: 49b4 7f3f b4f2 7b3f b6a3 7c3f 852a 803f
00000030: 5b80 793f d5ea 793f b5c7 7f3f 82f1 7a3f
00000040: 140e 7c3f 8be8 7c3f a146 7c3f 7212 7c3f
00000050: 8b1b 7a3f de2c 803f ca57 813f 42d3 813f
00000060: 7204 7d3f 4d39 783f 9e95 803f f15d 773f
00000070: 379b 833f c23e 793f e297 7c3f 48b9 7d3f

convs.0.nn.1.bias f4 [32]
-0.030540274 0.032380644 0.0179395 -0.0027860368 0.006183474 -0.0051773437 0.0144239785 -0.0055554816
-0.011029353 0.017803283 -0.029870436 -0.0051963837 0.003462752 -0.005015403 0.0203941 0.0032914546
-0.0011778768 -0.005735692 -0.013817081 -0.023982614 -0.032388844 0.020846212 -0.014466163 -0.02642986
-0.0006087297 -0.020621078 0.0070323176 -0.006271262 0.032638345 -0.025925554 -0.0062692864 0.002420431
00000000: 992f fabc 91a1 043d dcf5 923c f195 36bb
00000010: bd9e ca3b b5a6 a9bb 8d52 6c3c c20a b6bb
00000020: 76b4 34bc 31d8 913c d8b2 f4bc 6d46 aabb
00000030: 57ef 623b 4058 a4bb 8711 a73c 72b5 573b
00000040: fd62 9aba 79f2 bbbb 0a61 62bc 3077 c4bc
00000050: 2aaa 04bd adc5 aa3c 7c03 6dbc 6f83 d8bc
00000060: 2993 1fba 89ed a8bc 5b6f e63b 297f cdbb
00000070: c9af 053d d461 d4bc 966e cdbb 18a0 1e3b

convs.0.nn.1.running_mean f4 [32]
-0.010160619 -0.0055740452 0.0016699111 0.0050277817 0.0017055986 0.0012393054 -0.0017030796 -0.0038173406
-0.0005608675 -0.0015156714 0.0060458547 0.005750362 0.0056668567 -0.00039809046 -0.0047109784 0.0025051895
0.0075798607 0.0072693345 -0.012405324 0.0022869066 -0.0015509133 -0.008321714 0.0027310585 -0.00029984274
0.007844583 0.0014615289 0.0017368235 -0.004620574 0.0074846223 -0.001155726 -0.0044381474 -0.0026700133
00000000: ba78 26bc 7ba6 b6bb ebe0 da3a 17c0 a43b
00000010: 648e df3a 3070 a23a de39 dfba 592c 7abb
00000020: 2e07 13ba 7ea9 c6ba 4e1c c63b 886d bc3b
00000030: 0ab1 b93b ccb6 d0b9 8d5e 9abb 1b2e 243b
00000040: 7b60 f83b 9933 ee3b b33f 4bbc eddf 153b
00000050: 0448 cbba cc57 08bc 8ffb 323b 3634 9db9
00000060: 9186 003c c690 bf3a 20a6 e33a 2f68 97bb
00000070: 9041 f53b bb7b 97ba e16d 91bb 64fb 2ebb

convs.0.nn.1.running_var f4 [32]
0.28828645 1.4665754 0.06036308 0.3694542 0.8728667 0.1525541 0.54802257 0.09582846
0.3002936 1.0039454 0.2329762 0.70643556 0.23389609 0.44740504 1.173191 0.092836745
0.67779124 0.72405547 0.37255943 0.15363465 0.11508529 0.27197516 0.29693574 0.22810635
0.22409315 0.046691112 0.03743772 0.20892236 0.38836133 0.1225519 0.13966909 0.28718406
00000000: 489a 933e beb8 bb3f 473f 773d 1a29 bd3e
00000010: 3174 5f3f 2437 1c3e 354b 0c3f b641 c43d
00000020: 15c0 993e 4881 803f 5091 6e3e f6d8 343f
00000030: 7582 6f3e 4612 e53e 1f2b 963f 3121 be3d
00000040: ba83 2d3f b35b 393f 1cc0 be3e 6752 1d3e
00000050: d6b1 eb3d 5440 8b3e f607 983e b694 693e
00000060: ad78 653e 2e3f 3f3d 4b58 193d beef 553e
00000070: 4cd7 c63e 7efc fa3d 6a05 0f3e ca09 933e

convs.0.nn.3.weight f4 [32, 32]
-0.15463193 -0.0874646 0.17048074 0.03885193 -0.16025071 0.09571856 -0.11795122 0.11181465
0.12822187 -0.13296998 -0.08002387 -0.15788867 -0.05638988 0.0035433196 0.017801944 0.13694477
-0.07650225 0.10554656 -0.10500086 -0.042685755 0.15940171 -0.15355161 0.101323016 0.16970228
-0.010807501 0.0938299 0.10654267 0.09477513 0.01597827 0.0031558024 0.021235842 -0.11060247
0.07600481 -0.0024090759 0.19819783 0.08900741 0.1107043 0.05553217 -0.071857385 -0.13547409
-0.12577416 0.09371976 0.061617356 -0.0693214 -0.12729853 0.093030155 -0.033947453 -0.16286087
-0.045323737 0.08573083 0.12536472 0.13822591 -0.042706277 -0.19298655 -0.024141949 -0.008376407
-0.0924436 0.16207063 0.13156025 0.0708143 0.05521507 -0.0054076063 0.10189716 -0.13431242
-0.116260186 0.14490971 0.1239675 -0.15084262 -0.027611457 -0.033118825 -0.038159654 -0.19516009
-0.0048542847 0.1483144 0.07424734 0.06573841 0.16773932 -0.018093614 0.0109232785 0.09432486
-0.070449 0.09125895 0.13766913 0.1465559 -0.051173598 0.09273575 -0.1179795 -0.031302836
-0.07976284 0.16793516 -0.1439408 0.07052066 0.074645415 0.043311536 0.13829216 0.06981215
0.033596277 -0.14931867 0.19309466 -0.05463427 0.15674038 -0.06548032 0.005128939 0.050229944
0.18930912 -0.14331175 -0.06547178 0.0617091 0.0729655 -0.056557495 0.029418522 0.12796822
-0.16742241 -0.09103939 0.10363688 0.1809723 0.18498877 0.05151547 -0.10069921 0.18101302
0.06781747 -0.15650679 -0.005459889 0.083857104 -0.025042007 -0.058421154 -0.028467048 0.08699523
-0.08839573 -0.08083765 0.15449989 -0.13071819 -0.005297569 0.061920267 0.18299413 -0.12453977
-0.061179064 0.031067291 0.012329371 -0.09876422 0.09317129 -0.08239693 -0.14621711 -0.01804065
-0.08623378 -0.079219185 -0.0432544 -0.17413184 0.04446001 -0.011500717 -0.10512823 0.10215475
-0.025193486 0.046051424 0.1360935 0.17820829 -0.05864812 0.14827769 -0.068481624 -0.08589309
0.07699836 -0.016331555 0.16152857 0.054777376 -0.008946358 -0.04932697 -0.018287174 -0.13977502
-0.039407633 0.14791249 0.11936501 -0.055193737 0.03194277 -0.06702234 -0.05753741 -0.08719494
0.13745637 -0.1057639 -0.11320988 -0.16884463 0.122732446 -0.17579673 -0.07580661 -0.15547588
-0.14098087 0.1582395 -0.043015357 -0.007851707 -0.09306634 -0.14501786 -0.09658905 0.03668472
-0.06500564 0.13302605 -0.044346824 0.08972192 -0.15872917 -0.091051616 -0.023421701 -0.21602438
-0.12746589 0.038317528 -0.123023994 -0.099924564 -0.021725336 -0.109225765 0.016200505 -0.090314895
-0.13260387 0.09240098 0.061037246 0.012472701 0.08896387 -0.023279 0.062701344 -0.063621365
0.0035941175 0.00041412114 0.07966512 0.027746078 0.00085088704 0.03898255 0.015087014 0.11865474
0.13940418 0.14010225 -0.043638878 -0.148952 -0.16992162 0.14425363 0.10198805 -0.037132896
-0.1048495 0.08098712 -0.1329577 0.10042082 0.15025859 -0.17435296 -0.10530401 0.17220493
0.013492933 0.06663783 -0.1848236 0.035484783 0.055863712 -0.0059244186 -0.18347123 -0.18893391
0.17297795 0.03366366 -0.09951855 0.03962348 -0.03641075 -0.11721286 -0.07525498 0.012926315
00000000: d557 1ebe a420 b3bd 8192 2e3e 3423 1f3d
00000010: c318 24be 1808 c43d 6990 f1bd 14ff e43d
00000020: 984c 033e 4829 08be 8ee3 a3bd 91ad 21be
00000030: 13f9 66bd 0a37 683b 62d5 913c 403b 0c3e
00000040: 36ad 9cbd cb28 d83d b10a d7bd 42d7 2ebd
00000050: 343a 233e a23c 1dbe 7182 cf3d 6fc6 2d3e
00000060: f211 31bc e429 c03d 0b33 da3d 7719 c23d
00000070: dce4 823c 94d1 4e3b caf6 ad3c 8c83 e2bd
00000080: 69a8 9b3d 96e1 1dbb 5ff4 4a3e 8449 b63d
00000090: f0b8 e23d b375 633d f729 93bd b8b9 0abe
000000a0: f1ca 00be 25f0 bf3d 7b62 7c3d 61f8 8dbd
000000b0: 8c5a 02be 9886 be3d 7c0c 0bbd 00c5 26be
000000c0: 62a5 39bd a593 af3d 9c5f 003e 188b 0d3e
000000d0: c7ec 2ebd 449e 45be 56c5 c5bc 333d 09bc
000000e0: 1253 bdbd d8f5 253e bbb7 063e 1607 913d
000000f0: 3229 623d 4a32 b1bb 75af d03d 3289 09be
00000100: d219 eebd 3663 143e ace2 fd3d 7d76 1abe
00000110: 6c31 e2bc 9ba7 07bd 4c4d 1cbd 0cd8 47be
00000120: b110 9fbb bbdf 173e fd0e 983d dca1 863d
00000130: dbc3 2b3e 0f39 94bc 8df7 323c 642d c13d
00000140: 9147 90bd f9e5 ba3d 23f9 0c3e c012 163e
00000150: 689b 51bd 3eec bd3d 3c9f f1bd 6737 00bd
00000160: b35a a3bd 32f7 2b3e 3865 13be 236d 903d
00000170: b2df 983d 7067 313d 769c 0d3e acf9 8e3d
00000180: 409c 093d fee6 18be 9bba 453e 2fc8 5fbd
00000190: 8d80 203e 8c1a 86bd a910 a83b eabd 4d3d
000001a0: 40da 413e 51c0 12be 1216 86bd aec2 7c3d
000001b0: f06e 953d d5a8 67bd 1dff f03c 1a0a 033e
000001c0: c870 2bbe dc72 babd 933f d43d cd50 393e
000001d0: b26d 3d3e e301 533d 633b cebd 7a5b 393e
000001e0: e3e3 8a3d 5143 20be dee8 b2bb 46bd ab3d
000001f0: e524 cdbc 054b 6fbd ba33 e9bc 8e2a b23d
00000200: d208 b5bd 368e a5bd 3835 1e3e fdda 05be
00000210: 3b97 adbb 1ba0 7d3d d062 3b3e b50e ffbd
00000220: e696 7abd d580 fe3c 2101 4a3c e544 cabd
00000230: 97d0 be3d b9bf a8bd f0b9 15be fcc9 93bc
00000240: 569b b0bd ab3d a2bd 872b 31bd 9e4f 32be
00000250: b31b 363d 816d 3cbc 784d d7bd 8236 d13d
00000260: 9262 cebc 6ba0 3c3d 185c 0b3e 3c7c 363e
00000270: 0339 70bd 1bd6 173e 1840 8cbd b7e8 afbd
00000280: 51b1 9d3d c1c9 85bc bf67 253e 3e5e 603d
00000290: bf93 12bc 140b 4abd fcce 95bc 2f21 0fbe
000002a0: e669 21bd 5f76 173e a475 f43d d412 62bd
000002b0: 6cd6 023d 0243 89bd 59ac 6bbd 4393 b2bd
000002c0: 5dc1 0c3e be9a d8bd 95da e7bd 9be5 2cbe
000002d0: 265b fb3d 0f04 34be 7f40 9bbd 1235 1fbe
000002e0: 4a5d 10be 8909 223e df30 30bd 72a4 00bc
000002f0: 9199 bebd 907f 14be 7bd0 c5bd b842 163d
00000300: ad21 85bd fb37 083e 04a5 35bd 20c0 b73d
00000310: e689 22be 4579 babd dede bfbc 7f35 5dbe
00000320: 6b86 02be d7f2 1c3d 01f4 fbbd 40a5 ccbd
00000330: 55f9 b1bc c2b1 dfbd ecb6 843c 04f7 b8bd
00000340: 4fc9 07be ba3c bd3d 3102 7a3d 4d5a 4c3c
00000350: b132 b63d 9ab3 bebc 9069 803d eb4b 82bd
00000360: 498b 6b3b 661e d939 7727 a33d be4b e33c
00000370: 100e 5f3a 2bac 1f3d 862f 773c 4201 f33d
00000380: f8bf 0e3e f776 0f3e aebe 32bd e086 18be
00000390: efff 2dbe 39b7 133e 1cdf d03d aa18 18bd
000003a0: 56bb d6bd 93dc a53d 1026 08be 6ea9 cd3d
000003b0: 63dd 193e 9589 32be a1a9 d7bd 7d56 303e
000003c0: 7611 5d3c 6a79 883d 6642 3dbe 7e58 113d
000003d0: 59d1 643d a021 c2bb e2df 3bbe e477 41be
000003e0: 2221 313e e8e2 093d 62d0 cbbd 3b4c 223d
000003f0: 7023 15bd 4c0d f0bd 481f 9abd e5c8 533c

convs.0.nn.3.bias f4 [32]
-0.15677884 0.050041266 -0.09339902 -0.0966965 -0.0072998055 0.13859847 -0.076626025 -0.07951212
0.14746994 -0.13365099 0.11663828 0.09763402 0.0434668 -0.10786401 0.0057880483 0.017875277
0.024043974 -0.053485088 -0.053019777 0.13275187 -0.15826364 0.035234094 -0.02535688 -0.1417708
0.10577425 -0.079172224 -0.07720684 -0.06707235 -0.077286415 -0.12692462 0.1375888 -0.047400266
00000000: a28a 20be 12f8 4c3d fc47 bfbd d108 c6bd
00000010: 3533 efbb c2ec 0d3e 1bee 9cbd 40d7 a2bd
00000020: 5c02 173e cedb 08be 0de0 ee3d 58f4 c73d
00000030: 3e0a 323d cee7 dcbd aba9 bd3b 2c6f 923c
00000040: def7 c43c 2e13 5bbd 442b 59bd 1bf0 073e
00000050: dd0f 22be a051 103d 3bb9 cfbc 5d2c 11be
00000060: 2ca0 d83d 0c25 a2bd 9f1e 9ebd 3a5d 89bd
00000070: 5748 9ebd 87f8 01be 14e4 0c3e c826 42bd

convs.1.nn.0.weight f4 [32, 64]
-0.042844407 0.00600117 -0.016920116 0.103379846 -0.028693175 0.1498666 -0.14069854 0.07304239
0.05231063 0.087728254 0.074273124 -0.06742642 -0.090787634 0.022099253 -0.009782062 -0.05312682
-0.086777195 0.06212683 0.075289 -0.005987243 -0.14004114 0.14175047 0.067898795 0.019134607
0.095473506 -0.04921577 0.03751512 -0.055512343 0.019455342 -0.014644308 0.114398815 0.08281918
0.10507297 -0.076625735 -0.028445011 -0.08091671 -0.073427975 -0.08087624 0.12643595 -0.118096456
-0.019166423 0.041855134 0.12148483 -0.06567943 0.055327225 -0.10932907 -0.021382924 -0.033342116
0.07606319 -0.09294192 -0.08494257 -0.0133669535 0.017222589 -0.07548851 -0.06669529 0.06269447
-0.10375087 -0.019276164 -0.015964083 0.03154096 -0.009127016 0.102644034 -0.02879273 0.08031418
0.020907272 0.103165545 0.0764114 0.08547966 0.10495409 0.044153556 0.059179906 -0.040230654
0.019548101 0.14848964 0.043357257 0.12815022 0.11482736 -0.1415251 -0.11223866 0.022279961
-0.08982884 -0.07569454 0.043176692 0.031380262 0.10910309 -0.07899097 -0.024243632 -0.0862113
-0.15170664 -0.003868471 -0.054522913 -0.121500395 -0.06295374 0.085339 -0.06606035 -0.021550957
0.04775526 -0.13751104 -0.04420104 -0.032994688 -0.08301579 0.06037691 -0.0576527 0.0606059
-0.053760905 -0.042188063 -0.08905181 0.07542871 -0.12510945 -0.03714038 0.1250369 0.05414161
-0.12257859 0.036465134 0.06879685 -0.089559056 -0.09080076 -0.05622062 -0.07908496 0.058427718
0.08915177 -0.096272774 -0.12274661 0.07731955 0.067298144 -0.07584884 0.04951121 0.004268873
0.034275178 0.13121915 0.08243763 -0.09658791 -0.064779796 0.091863215 -0.13658409 -0.053477377
0.08141267 -0.0017081854 -0.11193267 -0.051770683 0.051797885 0.09803957 -0.027927328 0.0464266
0.06295409 0.12249458 -0.08015308 0.091279484 -0.0761199 -0.024772637 0.1075402 -0.11127917
-0.056388117 -0.037754275 -0.085669614 -0.09613383 0.018311063 -0.06458229 -0.11347455 -0.06754724
-0.063125126 0.11239827 -0.038273197 0.11823793 0.07500549 0.05928521 0.011865861 -0.0687889
-0.09428243 0.11228367 0.12211639 0.08808614 0.037170924 -0.1348448 0.09336131 -0.012607804
0.026067033 -0.075028695 0.045916405 -0.024216384 -0.06833809 -0.027385997 -0.067346245 0.075123675
0.038608864 -0.093552254 -0.09143535 -0.09544577 0.0012825027 0.077475324 -0.07514631 0.04577006
-0.11512095 -0.07370299 0.105603695 -0.11171787 -0.03752029 -0.13042942 -0.027015414 -0.01405419
-0.044395424 0.07552342 -0.0393332 -0.11669643 -0.059670027 -0.054339442 -0.012187714 0.026953544
0.072010346 -0.0079931365 -0.006248246 0.023037072 -0.05479509 0.028252447 0.04985569 0.055913284
-0.063334785 0.018608073 -0.054314192 0.14430903 -0.08826371 0.0685336 0.0068891062 0.04066315
0.13173454 0.04738109 0.010525634 0.004612615 -0.036331687 -0.08896294 -0.13763446 0.033303473
0.013432216 -0.038464684 0.014319393 0.11435204 0.08284397 0.016416935 8.119076e-05 0.108800046
0.061021477 0.08207202 0.12198679 0.050298553 0.07809195 -0.02731571 0.1144106 -0.09860049
-0.06278152 0.09450863 0.12708908 -0.13837144 -0.035144813 -0.062171634 0.097752325 0.05777659
00000000: 9e7d 2fbd 76a5 c43b 0e9c 8abc d0b8 d33d
00000010: f30d ebbc a176 193e 4713 10be 4097 953d
00000020: ac43 563d dfaa b33d 821c 983d dd16 8abd
00000030: deee b9bd 7e09 b53c f144 20bc 829b 59bd
00000040: 3eb8 b1bd b478 7e3d 1f31 9a3d a230 c4bb
00000050: f266 0fbe 0927 113e 860e 8b3d 2ec0 9c3c
00000060: 9d87 c33d 7a96 49bd 74a9 193d e960 63bd
00000070: cf60 9f3c aeee 6fbc ed49 ea3d 1a9d a93d
00000080: 7f30 d73d f4ed 9cbd 8305 e9bc a9b7 a5bd
00000090: 6861 96bd 71a2 a5bd 6d78 013e 8edc f1bd
000000a0: e702 9dbc 4a70 2b3d 0acd f83d f082 86bd
000000b0: cd9e 623d ebe7 dfbd 3e2b afbc be91 08bd
000000c0: 05c7 9b3d 5558 bebd 5ff6 adbd 1101 5bbc
000000d0: 6316 8d3c b899 9abd 8a97 88bd f565 803d
000000e0: 567b d4bd 0ce9 9dbc 1cc7 82bc 1831 013d
000000f0: 7b89 15bc 0937 d23d bbde ebbc c37b a43d
00000100: ba45 ab3c 7548 d33d 957d 9c3d f60f af3d
00000110: 2cf2 d63d 5cda 343d a166 723d e6c8 24bd
00000120: 5723 a03c ab0d 183e 6197 313d d039 033e
00000130: 9b2a eb3d f5eb 10be 62dd e5bd 7784 b63c
00000140: 2ff8 b7bd bd05 9bbd 0bda 303d 9788 003d
00000150: 7171 df3d 05c6 a1bd 959a c6bc 8d8f b0bd
00000160: fc58 1bbe 2c86 7dbb 6b53 5fbd 33d5 f8bd
00000170: e4ed 80bd 37c6 ae3d a64a 87bd a28b b0bc
00000180: 059b 433d b2cf 0cbe 260c 35bd 7025 07bd
00000190: 2f04 aabd c74d 773d 3d25 6cbd e43d 783d
000001a0: 6534 5cbd 64cd 2cbd cc60 b6bd 5e7a 9a3d
000001b0: b11c 00be 8320 18bd ac09 003e 98c3 5d3d
000001c0: 7c0a fbbd 775c 153d 5de5 8c3d bd6a b7bd
000001d0: c0f5 b9bd 9847 66bd 4cf7 a1bd e751 6f3d
000001e0: 3495 b63d a92a c5bd 9362 fbbd b659 9e3d
000001f0: 9cd3 893d a356 9bbd 44cc 4a3d e7e1 8b3b
00000200: 2164 0c3d 505e 063e 0fd5 a83d e2cf c5bd
00000210: 45ab 84bd c822 bc3d b3dc 0bbe 180b 5bbd
00000220: b0bb a63d 31e5 dfba f53c e5bd 7f0d 54bd
00000230: 052a 543d f8c8 c83d dac7 e4bc d229 3e3d
00000240: 13ee 803d 70de fa3d 4c27 a4bd bdf0 ba3d
00000250: c0e4 9bbd fcef cabc 093e dc3d 55e6 e3bd
00000260: 3af7 66bd 3aa4 1abd 8d73 afbd d0e1 c4bd
00000270: 1501 963c b843 84bd 5865 e8bd 3556 8abd
00000280: bf47 81bd 1031 e63d 5bc4 1cbd ba26 f23d
00000290: 7a9c 993d 0cd5 723d 0769 423c 32e1 8cbd
000002a0: 2617 c1bd fbf4 e53d 2818 fa3d 8266 b43d
000002b0: 8a40 183d c114 0abe 3734 bf3d f690 4ebc
000002c0: 888a d53c a5a8 99bd d712 3c3d 7061 c6bc
000002d0: d7f4 8bbd 9958 e0bc d4ec 89bd 71da 993d
000002e0: 5424 1e3d 5398 bfbd 7542 bbbd 1279 c3bd
000002f0: a619 a83a 62ab 9e3d 4fe6 99bd 6379 3b3d
00000300: 88c4 ebbd 98f1 96bd c046 d83d 57cc e4bd
00000310: e0ae 19bd 4a8f 05be 6e4f ddbc 8c43 66bc
00000320: fad7 35bd 06ac 9a3d d91b 21bd 8afe eebd
00000330: 8f68 74bd 0993 5ebd faae 47bc aecd dc3c
00000340: 297a 933d a5f5 02bc 16be ccbb 3eb8 bc3c
00000350: d170 60bd ad71 e73c 7b35 4c3d 5405 653d
00000360: abb5 81bd f56f 983c 8f78 5ebd bfc5 133e
00000370: 9bc3 b4bd 585b 8c3d 03be e13b 678e 263d
00000380: 6be5 063e ac12 423d b573 2c3c 6b25 973b
00000390: 89d0 14bd 3432 b6bd 0cf0 0cbe 3969 083d
000003a0: cc12 5c3c 258d 1dbd e39b 6a3c 6731 ea3d
000003b0: 19aa a93d cf7c 863c f544 aa38 8fd2 de3d
000003c0: a8f1 793d 6015 a83d 36d4 f93d db05 4e3d
000003d0: acee 9f3d 32c5 dfbc 1b50 ea3d 0eef c9bd
000003e0: 9993 80bd be8d c13d a423 023e 3eb1 0dbe
000003f0: 02f4 0fbd afa7 7ebd 5f32 c83d 25a7 6c3d

convs.1.nn.0.bias f4 [32]
3.0304952e-07 5.4551386e-08 1.231687e-06 -4.2477848e-07 4.492353e-07 -1.1081244e-06 -3.5554373e-07 3.3505475e-07
9.74647e-07 8.51635e-07 9.974577e-07 2.5417467e-06 4.1832925e-07 9.552876e-07 3.4143613e-07 -4.189854e-07
1.0511086e-06 -8.698235e-07 -2.0805846e-06 -1.3064296e-06 -5.488987e-07 -1.4526074e-06 -1.5939692e-06 2.1240166e-07
1.1181422e-07 7.470038e-07 -8.708936e-07 4.211349e-07 -2.3421305e-06 -1.3691065e-06 6.756526e-07 3.686759e-08
00000000: cfb2 a234 e24b 6a33 7150 a535 1c0d e4b4
00000010: 6e2e f134 ddba 94b5 8fe1 beb4 93e1 b334
00000020: 9ed0 8235 e99b 6435 63e0 8535 e092 2a36
00000030: bc96 e034 6f37 8035 a04e b734 eaf0 e0b4
00000040: d113 8d35 d17d 69b5 2ca0 0bb6 9458 afb5
00000050: 0858 13b5 36f7 c2b5 5df0 d5b5 8610 6434
00000060: 841e f033 b685 4835 5ac7 69b5 5718 e234
00000070: 7f2d 1db6 24c2 b7b5 7e5e 3535 5858 1e33

convs.1.nn.1.weight f4 [32]
0.98450273 1.0676297 0.9846324 0.9388492 0.94417274 0.9429726 0.9570089 0.9413742
0.9213242 0.972683 0.9590194 0.9988848 0.971409 0.96207917 0.9900462 0.92659324
1.0704764 0.9920614 0.9857965 0.9918602 1.0401124 1.0052518 0.9654621 0.96247584
0.9685112 0.95392656 0.9656965 0.99533325 0.9620601 0.97881293 0.98681355 0.95600253
00000000: 5f08 7c3f 17a8 883f de10 7c3f 6c58 703f
00000010: 4eb5 713f a766 713f 89fe 743f e6fd 703f
00000020: e7db 6b3f c101 793f 4c82 753f eab6 7f3f
00000030: 43ae 783f d24a 763f ab73 7d3f 3735 6d3f
00000040: 5f05 893f bcf7 7d3f 295d 7c3f 8dea 7d3f
00000050: 6722 853f 17ac 803f 8628 773f d164 763f
00000060: 5af0 773f 8834 743f e337 773f 29ce 7e3f
00000070: 9249 763f 7c93 7a3f d09f 7c3f 95bc 743f

convs.1.nn.1.bias f4 [32]
0.00983817 0.01164961 0.004007532 -0.057992287 -0.03680086 -0.035563547 -0.028665237 -0.033493187
-0.026232945 0.004859105 -0.009387353 0.0152469035 0.014952188 -0.037823085 0.019534681 -0.02968671
0.036343757 -0.019691551 0.010380261 0.03844885 0.030571187 -0.00056209916 0.018065238 -0.036836274
0.01108195 -0.024893817 0.011770376 0.054306176 -0.036680464 0.054142468 0.012343058 0.0029514446
00000000: 4730 213c 01de 3e3c 9d51 833b 5289 6dbd
00000010: 80bc 16bd 15ab 11bd 5cd3 eabc 2730 09bd
00000020: 79e6 d6bc 2139 9f3b 6acd 19bc 26ce 793c
00000030: 06fa 743c 61ec 1abd 3207 a03c 8b31 f3bc
00000040: 31dd 143d 2d50 a1bc f811 2a3c 8b7c 1d3d
00000050: 6d70 fa3c d659 13ba 8dfd 933c a2e1 16bd
00000060: 1191 353c 1eee cbbc 89d8 403c 2770 5e3d
00000070: 413e 16bd 7ec4 5d3d 8a3a 4a3c 066d 413b

convs.1.nn.1.running_mean f4 [32]
0.21594593 0.008848889 -0.02595331 -0.092520684 -0.08582521 -0.24107751 0.09035944 -0.083891176
-0.040543094 0.18563007 0.04948475 0.052787863 0.052322477 -0.0768795 -0.1263082 0.08536184
0.039621986 -0.031940326 -0.07669807 -0.095946364 -0.1536582 -0.03364544 0.012961527 -0.055048008
-0.110401005 -0.11619182 -0.06516756 -0.031240419 0.1041262 0.0052075647 -0.118869126 -0.13728225
00000000: ee20 5d3e eefa 103c 099c d4bc 7c7b bdbd
00000010: 21c5 afbd 06dd 76be 5f0e b93d 23cf abbd
00000020: 8410 26bd cf15 3e3e 85b0 4a3d 1638 583d
00000030: 1850 563d 0073 9dbd f056 01be 30d2 ae3d
00000040: aa4a 223d dcd3 02bd e113 9dbd 877f c4bd
00000050: 9358 1dbe cdcf 09bd 965c 543c 057a 61bd
00000060: ec19 e2bd faf5 edbd 9276 85bd e8eb ffbc
00000070: 1e40 d53d 38a4 aa3b a871 f3bd b893 0cbe

convs.1.nn.1.running_var f4 [32]
0.19806015 0.66044265 0.1470797 0.12836023 0.062275328 0.06881097 0.13278167 0.06691647
0.056545425 0.03720519 0.03673009 0.12958124 0.21730728 0.11150979 0.17228359 0.069731586
0.42789385 0.26484856 0.09560598 0.12976973 0.39788792 0.17533763 0.19908918 0.10845779
0.12994802 0.0348292 0.21334131 0.26529214 0.09841536 0.17879884 0.117546596 0.06913304
00000000: 48d0 4a3e c512 293f 109c 163e dd70 033e
00000010: 6a14 7f3d c4ec 8c3d ebf7 073e 810b 893d
00000020: 2d9c 673d 7864 183d 4a72 163d f2b0 043e
00000030: cd85 5e3e 3f5f e43d 1c6b 303e 6fcf 8e3d
00000040: e714 db3e 3b9a 873e 11cd c33d 5be2 043e
00000050: f7b7 cb3e b58b 333e 09de 4b3e 1e1f de3d
00000060: 1811 053e 10a9 0e3d 2576 5a3e 5fd4 873e
00000070: fe8d c93d 0b17 373e 45bc f03d a095 8d3d

convs.1.nn.3.weight f4 [32, 32]
-0.0024147043 0.23992476 -0.18914106 -0.047141626 -0.010508362 -0.037662942 0.0077216667 -0.0368317
0.12117161 -0.13134734 0.0742887 -0.022999955 -0.027260402 -0.017605979 -0.13252498 0.056426004
0.09644459 0.016489455 -0.062064063 -0.1737478 0.12214607 0.069066 0.14143215 -0.17366368
-0.12488063 -0.09209514 -0.16753611 0.17318337 -0.07194009 0.07154304 0.042327326 0.03995449
0.06701562 0.20514664 -0.059962265 -0.013298062 0.12924993 0.14029378 0.11993557 -0.10149469
-0.03847033 -0.13090837 0.035867788 -0.018953748 -0.10643678 0.116311856 -0.092300326 0.022769447
0.09631804 -0.032167587 -0.16976528 0.060295086 0.14526886 0.019086547 -0.17609183 0.047092922
-0.020626942 -0.013545618 -0.010122532 0.06257115 0.080004625 -0.15562737 -0.033160318 -0.05772359
-0.026820775 -0.14613172 0.1241868 0.010690322 0.056599006 -0.02667093 -0.10188412 0.13371661
-0.10927516 -0.10570567 0.09283623 -0.07292958 0.043674957 -0.16854626 0.12007336 0.051862475
-0.15126882 -0.031661645 -0.09518614 0.18059638 0.025951505 -0.010784316 0.017827109 -0.07486072
-0.061250273 -0.09990794 0.10998937 0.017348692 -0.17162547 -0.12344362 0.08396893 -0.010542878
-0.06773242 -0.06610191 0.16580985 -0.16355954 0.0056166737 0.0047119725 0.03890142 -0.09855099
0.12950045 -0.07675867 -0.10544331 -0.024207396 0.0011657975 -0.029585645 -0.081720695 -0.16291733
0.092277735 0.10570671 0.09916786 0.12523913 0.029913193 -0.19335754 0.009030454 0.054290473
0.06721175 0.10864956 -0.18290035 0.14083327 0.07956747 0.064913355 -0.098769076 0.109929435
-0.16974714 -0.0119991815 0.10999674 0.021176161 0.13324049 0.13019586 0.04135237 0.07167323
-0.10961681 -0.1549525 0.04768025 -0.16035949 0.09942597 0.17703612 0.040915463 -0.07245669
-0.17632778 -0.06875946 -0.10442611 0.12812349 -0.13268118 -0.026889078 0.0062514166 0.06648324
0.1366257 -0.095095575 -0.12739296 0.18909407 -0.0027030315 -0.1099457 -0.090610795 -0.15340807
-0.042245053 0.14523263 -0.09136224 0.017636497 -0.012127729 0.002211984 -0.010577927 0.1304241
0.012667348 -0.12084066 0.058928348 0.1059949 0.09530071 0.1259769 -0.1496771 0.00038211234
0.02197225 0.10642841 -0.055777226 -0.04983619 -0.09755796 0.14312977 0.122537255 -0.0903343
-0.10265316 -0.11878323 0.037458126 -0.06464856 -0.08769706 -0.16342801 -0.093441755 0.028155074
0.16020355 0.014624375 -0.15635374 0.054437514 -0.16875249 0.02308416 -0.07489657 0.13963199
0.05795104 0.056344945 -0.11446747 -0.035787106 -0.14442286 -0.14388508 0.052252486 -0.040787645
-0.1722848 -0.13120337 0.13062884 -0.019848954 -0.014857169 -0.14337969 -0.15367366 -0.032269433
-0.105741896 0.06820826 0.12657377 0.1446347 0.0066846423 -0.03734406 0.00023304214 0.1396808
0.123664185 -0.10460234 0.023750288 -0.06288218 0.12684241 -0.1365 -0.021799818 0.11442733
0.06100472 -0.08463749 0.0048384974 0.16549349 0.016260179 -0.07540231 0.087433316 -0.095216766
0.017649418 0.17470063 -0.025149396 0.091226146 0.022765448 0.014709219 0.14893372 -0.105702735
0.08818788 0.088305645 -0.057731774 -0.09762164 -0.16607052 -0.09743444 0.008046937 -0.087595716
00000000: 0440 1ebb d6ae 753e 32ae 41be 9417 41bd
00000010: 442b 2cbc 7544 1abd 0906 fd3b d6dc 16bd
00000020: d228 f83d eb7f 06be ad24 983d 676a bcbc
00000030: 3551 dfbc 6a3a 90bc a1b4 07be f41e 673d
00000040: be84 c53d e514 873c e336 7ebd f1ea 31be
00000050: b827 fa3d 7a72 8d3d 97d3 103e e4d4 31be
00000060: 6ac1 ffbd 609c bcbd 968e 2bbe fb56 313e
00000070: 5355 93bd 2885 923d 6b5f 2d3d 52a7 233d
00000080: 7c3f 893d f611 523e fe9a 75bd 1de0 59bc
00000090: 185a 043e 2ca9 0f3e c8a0 f53d 73dc cfbd
000000a0: 1193 1dbd d80c 06be 1aea 123d e444 9bbc
000000b0: 87fb d9bd e934 ee3d f407 bdbd fe86 ba3c
000000c0: 6442 c53d 29c2 03bd f3d6 2dbe fbf7 763d
000000d0: 5cc1 143e 645b 9c3c 6b51 34be 82e4 403d
000000e0: d5f9 a8bc 71ee 5dbc fad8 25bc 4e25 803d
000000f0: 77d9 a33d c85c 1fbe 1dd3 07bd 926f 6cbd
00000100: 3eb7 dbbc 8ea3 15be a655 fe3d 7626 2f3c
00000110: 5cd4 673d ff7c dabc 9fa8 d0bd 02ed 083e
00000120: a8cb dfbd 377c d8bd ec20 be3d 1b5c 95bd
00000130: 83e4 323d 6497 2cbe 06e9 f53d bf6d 543d
00000140: 37e6 1abe a4af 01bd f3f0 c2bd 42ee 383e
00000150: 4098 d43c b3b0 30bc 280a 923c 9450 99bd
00000160: 91e1 7abd 899c ccbd 1b42 e13d d81e 8e3c
00000170: 96be 2fbe 02d0 fcbd e7f7 ab3d 09bc 2cbc
00000180: 4cb7 8abd 7060 87bd 0fca 293e 277c 27be
00000190: 130c b83b e466 9a3b 1857 1f3d 1ad5 c9bd
000001a0: c49b 043e a633 9dbd aaf2 d7bd 974e c6bc
000001b0: accd 983a 985d f2bc 2e5d a7bd cdd3 26be
000001c0: 1cfc bc3d c27c d83d 8518 cb3d b03e 003e
000001d0: 830c f53c 85ff 45be 78f4 133c b05f 5e3d
000001e0: 50a6 893d a983 de3d 3b4a 3bbe 9936 103e
000001f0: 45f4 a23d 4bf1 843d 7147 cabd af22 e13d
00000200: 32d2 2dbe 3798 44bc f945 e13d a179 ad3c
00000210: 3270 083e 1052 053e 1a61 293d 6ac9 923d
00000220: c77e e0bd deab 1ebe 5e4c 433d 4735 24be
00000230: d89f cb3d f548 353e f996 273d 2c64 94bd
00000240: 458f 34be c2d1 8cbd 5bdd d5bd ce32 033e
00000250: 93dd 07be 7c46 dcbc afd8 cc3b 5d28 883d
00000260: 9ce7 0b3e 78c1 c2bd 4d73 02be e0a1 413e
00000270: 5825 31bb 362b e1bd 2792 b9bd 0117 1dbe
00000280: 2609 2dbd ddb7 143e 201c bbbd 6a7a 903c
00000290: 62b3 46bc eff6 103b 0b4f 2dbc e58d 053e
000002a0: b58a 4f3c 4f7b f7bd da5e 713d db13 d93d
000002b0: 052d c33d 1700 013e f444 19be 4056 c839
000002c0: 26ff b33c 23f7 d93d a976 64bd 0821 4cbd
000002d0: 78cc c7bd 9c90 123e d0f4 fa3d 3101 b9bd
000002e0: d23b d2bd 9f44 f3bd b16d 193d 7766 84bd
000002f0: 849a b3bd ac59 27be 645e bfbd 78a5 e63c
00000300: 660c 243e 139b 6f3c 321b 20be dff9 5e3d
00000310: 74cd 2cbe fe1a bd3c 5f63 99bd b0fb 0e3e
00000320: 125e 6d3d f5c9 663d ec6d eabd 8095 12bd
00000330: 96e3 13be 9c56 13be b406 563d f210 27bd
00000340: 6d6b 30be 2d5a 06be 91c3 053e 469a a2bc
00000350: 7c6b 73bc 20d2 12be a15c 1dbe f42c 04bd
00000360: 358f d8bd c6b0 8b3d 8e9c 013e 1e1b 143e
00000370: d80a db3b 16f6 18bd c65c 7439 7c08 0f3e
00000380: a643 fd3d c039 d6bd f78f c23c 5fc8 80bd
00000390: fae2 013e a8c6 0bbe 8895 b2bc e058 ea3d
000003a0: 16e0 793d 6c56 adbd 428c 9e3b 2077 293e
000003b0: 1134 853c 876c 9abd 3d10 b33d 0201 c3bd
000003c0: 8395 903c b9e4 323e 1b06 cebc c6d4 ba3d
000003d0: 9b7e ba3c f0fe 703c 1582 183e ad7a d8bd
000003e0: d99b b43d 97d9 b43d 2778 6cbd dbed c7bd
000003f0: 640e 2abe b58b c7bd 4dd7 033c 6265 b3bd

convs.1.nn.3.bias f4 [32]
-0.12744562 0.0014233916 -0.027512195 0.05519003 0.09092696 0.082583256 -0.08920937 -0.048069503
0.09990047 0.12130907 0.035079855 -0.011312515 -0.13857111 -0.03884838 0.10031098 0.09024458
-0.11272401 -0.112366766 0.08825604 0.11544237 0.020150684 -0.062827855 -0.19176337 -0.16446656
0.043197334 -0.005540157 -0.09691424 -0.06474451 0.11016759 0.18256252 0.045424193 0.047861975
00000000: 1b81 02be 1991 ba3a 4161 e1bc f10e 623d
00000010: ea37 ba3d 6921 a93d 67b3 b6bd 87e4 44bd
00000020: 9e98 cc3d e470 f83d e5af 0f3d 2058 39bc
00000030: 96e5 0dbe 7b1f 1fbd d86f cd3d 26d2 b83d
00000040: d9db e6bd 8c20 e6bd 95bf b43d 0d6d ec3d
00000050: 0c13 a53c e4ab 80bd 9e5d 44be ec69 28be
00000060: b0ef 303d 358a b5bb f97a c6bd c598 84bd
00000070: 8c9f e13d abf1 3a3e b80e 3a3d eb0a 443d

convs.2.nn.0.weight f4 [32, 64]
0.11910344 -0.016073147 -0.09679339 -0.08615738 -0.06699421 0.113319665 -0.032314416 -0.10258873
-0.070202224 0.04650581 -0.052573085 0.011600054 0.09639347 -0.11752507 0.06379916 0.008488211
-0.06883763 -0.023166174 0.054048713 -0.15694016 -0.12114538 -0.11499117 0.0772413 -0.0709585
-0.03263232 0.046165578 -0.067362696 0.008784489 -0.03765486 -0.06058737 -0.05288049 0.07223806
-0.024488013 -0.00020733246 -0.080521554 0.06866412 -0.0065142447 -0.061157137 -0.033493012 -0.005323003
-0.034124702 -0.071241945 0.1195194 0.034486722 0.04339254 0.072804496 -0.03359762 0.09877568
0.055154268 -0.106238745 -0.08268833 -0.032737523 -0.09050003 -0.051263016 -0.061599344 -0.029413652
0.046121467 0.08686089 -0.06782425 -0.029818002 -0.022355653 0.021241067 0.09921762 -0.13717842
-0.0031040823 -0.0037239005 -0.025548631 0.03462941 -0.12463986 0.087537296 0.06923825 -0.02713697
0.061438616 -0.105044104 0.060369577 0.02374438 -0.037838187 -0.1177065 0.008971084 -0.04487504
-0.13925785 -0.024004124 -0.06718961 -0.030401586 0.05757844 -0.07931307 0.057438307 -0.11883017
-0.059684783 0.12979089 -0.048009787 -0.042197835 -0.03290046 -0.057076514 0.089333154 -0.016919727
-0.13244092 0.06020984 -0.035319597 0.00921883 0.07069958 -0.122188985 -0.007138808 -0.115943804
-0.042152837 -0.12638691 -0.045577463 -0.12984279 -0.06649792 0.11445001 -0.09058182 -0.12021215
0.07290003 0.075590275 -0.09008045 -0.07681815 0.0545132 -0.061859224 -0.13497405 -0.10506397
0.054457553 0.045989566 -0.046579592 0.02011441 -0.03344841 0.060825814 0.041323468 -0.109857105
0.18182036 -0.03368888 -0.11212603 -0.030710438 -0.019504337 -0.048868824 -0.07030008 0.005170967
0.09406144 0.021918342 -0.017037312 0.00049965875 -0.01837835 0.028489426 0.095582634 0.013582778
-0.12095145 -0.086281456 -0.117847994 -0.15505761 -0.120831706 -0.074651994 -0.026315028 0.08426527
-0.05509553 -0.012655728 0.030360019 0.071608014 0.078131355 -0.026056435 -0.030323673 -0.008784033
-0.058010012 -0.11268008 0.03441246 -0.001336342 0.11208854 -0.0051935394 0.10722437 0.04651312
0.06481426 0.049244434 0.11751584 -0.11863936 0.07759919 -0.013582276 0.04956921 0.091317624
-0.024966706 -0.037559755 -0.05178893 -0.0072190473 0.08023955 0.04367214 -0.044900037 0.097853504
0.01115118 -0.08964296 0.1107345 0.0642678 0.08770027 0.052291602 0.045973524 -0.037197214
0.15087703 -0.06358406 0.010137542 -0.08863637 -0.021896904 0.04893888 -0.114872344 -0.006223739
-0.04106121 0.08724724 -0.045647066 0.13959378 0.09527447 -0.12740816 -0.018034304 -0.06767456
0.006816722 -0.09936759 -0.021315368 0.058417056 -0.15570073 -0.0055519454 0.08932172 -0.08956061
-0.102094054 0.10597479 0.11809111 0.0010978475 0.036290366 -0.12763906 0.032315273 -0.028302932
-0.0012109177 -0.098309234 0.08010733 0.10694866 -0.018534828 -0.055190403 -0.09544063 0.018477717
0.1177017 0.05182751 0.0010775346 0.084858686 0.09828246 0.09300481 0.099138044 -0.041028038
-0.032584604 -0.0024435653 0.0947185 0.0954941 0.024451537 -0.028664744 0.08023103 0.09524872
0.11373131 -0.1255753 0.00820832 0.037017453 -0.067776985 -0.105054036 -0.005720225 -0.09731841
00000000: 81ec f33d d5ab 83bc 9d3b c6bd 4873 b0bd
00000010: 4334 89bd 2414 e83d 1f5c 04bd 0a1a d2bd
00000020: 2fc6 8fbd e07c 3e3d e056 57bd 270e 3e3c
00000030: f169 c53d fcb0 f0bd 22a9 823d 2312 0b3c
00000040: befa 8cbd fdc6 bdbc 2f62 5d3d ecb4 20be
00000050: 121b f8bd 7e80 ebbd b030 9e3d b152 91bd
00000060: 78a9 05bd 1e18 3d3d 74f5 89bd d1ec 0f3c
00000070: fc3b 1abd 762a 78bd 3699 58bd 8cf1 933d
00000080: 169b c8bc 6267 59b9 7ce8 a4bd c69f 8c3d
00000090: 7275 d5bb e87f 7abd f82f 09bd 966c aebb
000000a0: 58c6 0bbd 4ce7 91bd 96c6 f43d f341 0d3d
000000b0: 60bc 313d 861a 953d a89d 09bd e74a ca3d
000000c0: 71e9 613d b393 d9bd 8058 a9bd c817 06bd
000000d0: 1458 b9bd 2bf9 51bd 984f 7cbd e6f4 f0bc
000000e0: dde9 3c3d 1fe4 b13d 71e7 8abd e244 f4bc
000000f0: 3423 b7bc bf01 ae3c 9c32 cb3d 8078 0cbe
00000100: dc6d 4bbb af0c 74bb 5d4b d1bc 91d7 0d3d
00000110: 2f43 ffbd c146 b33d c9cc 8d3d 5a4e debc
00000120: 0fa7 7b3d 5d21 d7bd 1746 773d 9383 c23c
00000130: 37fc 1abd 1b10 f1bd 74fb 123c e4ce 37bd
00000140: 9c99 0ebe 4ca4 c4bc b59a 89bd bf0c f9bc
00000150: 5fd7 6b3d e46e a2bd 6e44 6b3d 3b5d f3bd
00000160: 0878 74bd e7e7 043e e9a5 44bd a3d7 2cbd
00000170: a2c2 06bd 10c9 69bd 4df4 b63d 3d9b 8abc
00000180: 989e 07be 989e 763d 48ab 10bd 930a 173c
00000190: f1ca 903d 383e fabd a9ec e9bb f273 edbd
000001a0: 74a8 2cbd 926b 01be 6faf 3abd 82f5 04be
000001b0: 1030 88bd c464 ea3d f682 b9bd ca31 f6bd
000001c0: 9c4c 953d 13cf 9a3d 197c b8bd d652 9dbd
000001d0: 3c49 5f3d 1960 7dbd a336 0abe c72b d7bd
000001e0: e20e 5f3d 8e5f 3c3d 3eca 3ebd fac6 a43c
000001f0: 3301 09bd 7d24 793d cc42 293d c3fc e0bd
00000200: 1e2f 3a3e 5afd 09bd 55a2 e5bd 7594 fbbc
00000210: 8fc7 9fbc ad2a 48bd 7df9 8fbd 3771 a93b
00000220: 49a3 c03d 188e b33c d591 8bbc 88fb 023a
00000230: 328e 96bc a862 e93c d4c0 c33d 4d8a 5e3c
00000240: 65b5 f7bd 55b4 b0bd 4a5a f1bd 6cc7 1ebe
00000250: 9d76 f7bd 25e3 98bd 9d92 d7bc 4593 ac3d
00000260: daab 61bd f859 4fbc 93b5 f83c 39a7 923d
00000270: 5503 a03d 4e74 d5bc 5a69 f8bc e8ea 0fbc
00000280: e89b 6dbd d0c4 e6bd 14f4 0c3d 3228 afba
00000290: ad8e e53d 912e aabb 7398 db3d 8b84 3e3d
000002a0: 57bd 843d 88b4 493d 25ac f03d 31f9 f2bd
000002b0: 53ec 9e3d 3288 5ebc 1509 4b3d bc04 bb3d
000002c0: fa86 ccbc 42d8 19bd a120 54bd c28d ecbb
000002d0: a254 a43d 8fe1 323d 1ae9 37bd 6b67 c83d
000002e0: 70b3 363c ba96 b7bd c5c8 e23d d69e 833d
000002f0: 339c b33d b82f 563d bc4e 3c3d 1b5c 18bd
00000300: 827f 1a3e 5c38 82bd ef17 263c fc86 b5bd
00000310: 2361 b3bc 2374 483d 3142 ebbd 82f0 cbbb
00000320: cd2f 28bd aeae b23d 6bf8 3abd acf1 0e3e
00000330: 431f c33d 4977 02be adbc 93bc f698 8abd
00000340: cf5e df3b 3c81 cbbd 919d aebc b946 6f3d
00000350: 0370 1fbe 18ed b5bb 4eee b63d 8e6b b7bd
00000360: b016 d1bd 5009 d93d c0d9 f13d a6e5 8f3a
00000370: 35a5 143d d0b3 02be 055d 043d 8ddb e7bc
00000380: a8b7 9eba 5a56 c9bd 500f a43d e607 db3d
00000390: 5ad6 97bc 550f 62bd 6176 c3bd 955e 973c
000003a0: 970d f13d 1549 543d 103c 8d3a 64ca ad3d
000003b0: 5048 c93d 4e79 be3d e308 cb3d 040d 28bd
000003c0: 6f77 05bd 3924 20bb c6fb c13d 6992 c33d
000003d0: 974e c83c 53d2 eabc 2b50 a43d c311 c33d
000003e0: f6eb e83d d096 00be 307c 063c 9d9f 173d
000003f0: a9ce 8abd 9226 d7bd ba70 bbbb e04e c7bd

convs.2.nn.0.bias f4 [32]
-1.4708942e-07 -1.8026589e-07 -3.5842373e-07 -5.0446157e-08 -7.6967706e-07 2.0466233e-07 1.8363542e-06 5.8522465e-07
9.4205085e-08 -1.3996305e-07 6.3770744e-07 -1.800967e-07 1.670252e-07 3.5674745e-07 -6.122091e-07 -1.6024144e-07
4.7677386e-07 -3.4447254e-07 1.1479264e-06 -1.8873618e-07 -4.39434e-07 5.337479e-08 2.910889e-08 -2.7616477e-07
2.754927e-07 2.3119797e-07 7.5188204e-08 -9.3727704e-07 1.0751298e-07 -4.352134e-07 6.219603e-08 4.8791508e-06
00000000: a2ef 1db4 1c8f 41b4 626d c0b4 23aa 58b3
00000010: ce9b 4eb5 27c1 5b34 a678 f635 5518 1d35
00000020: cb4d ca33 c048 16b4 ec2e 2b35 9b60 41b4
00000030: 8a57 3334 ff86 bf34 b056 24b5 d50e 2cb4
00000040: 4df7 ff34 f2ef b8b4 7312 9a35 68a7 4ab4
00000050: 59eb ebb4 343e 6533 200b fa32 cc43 94b4
00000060: 6ee7 9334 373f 7834 2777 a133 3099 7bb5
00000070: e3e1 e633 46a7 e9b4 a190 8533 96b7 a336

convs.2.nn.1.weight f4 [32]
1.0335326 0.99700975 1.0307355 1.0013648 1.022517 0.9640254 1.0236167 1.0122595
1.0686328 0.97716844 0.97712535 1.0356576 0.9864062 0.98825437 0.99686414 0.9571133
1.0010139 0.9953272 1.0485126 1.0309501 1.013322 1.0132697 0.97946465 0.99093026
1.0275382 0.9862302 1.0363898 1.008919 1.0473636 0.9848716 1.0341183 1.0042698
00000000: cc4a 843f 083c 7f3f 24ef 833f b92c 803f
00000010: d6e1 823f 5eca 763f df05 833f b891 813f
00000020: f6c8 883f b627 7a3f e324 7a3f 6e90 843f
00000030: 1e85 7c3f 3dfe 7c3f 7d32 7f3f 6105 753f
00000040: 3921 803f c3cd 7e3f a935 863f 2cf6 833f
00000050: 89b4 813f d2b2 813f 32be 7a3f 9bad 7d3f
00000060: 5f86 833f 9579 7c3f 6ca8 843f 4224 813f
00000070: 0310 863f 8c20 7c3f fd5d 843f ea8b 803f

convs.2.nn.1.bias f4 [32]
-0.018079659 -0.041765735 -0.013093627 -0.030932648 0.007994453 0.0108098155 0.030566001 -0.00633778
0.006711308 -0.047985073 0.0013132414 -0.00083840016 -0.024700234 -0.0073668575 -0.00621904 -0.022078624
0.013411473 0.0029293026 -0.011781016 -0.0259598 -0.019904295 0.0056944545 -0.00813112 0.034769088
0.02330449 -0.02003848 -0.017656846 -0.0030190216 -0.03147886 -0.011307672 0.0022839499 0.009577766
00000000: cb1b 94bc 8c12 2bbd a786 56bc 7766 fdbc
00000010: 2bfb 023c a71b 313c 8d65 fa3c 27ad cfbb
00000020: 88ea db3b ff8b 44bd 1221 ac3a 15c8 5bba
00000030: 2558 cabc ae65 f1bb 17c9 cbbb 3bde b4bc
00000040: cbbb 5b3c 8bf9 3f3b 2a05 41bc a6a9 d4bc
00000050: 550e a3bc 8c98 ba3b 6438 05bc 086a 0e3d
00000060: 0fe9 be3c bd27 a4bc 17a5 90bc c7da 45bb
00000070: faef 00bd d043 39bc 52ae 153b 10ec 1c3c

convs.2.nn.1.running_mean f4 [32]
-0.13782781 -0.059779894 -0.06551072 -0.00015557767 -0.112423174 0.1568614 -0.07790065 0.096200995
0.023299346 -0.027253402 -0.1372458 -0.102634944 0.06253292 0.10154536 -0.10845262 0.10009997
0.024452768 -0.002668342 -0.0029117176 0.1343841 0.039566483 0.21464266 -0.20522664 -0.095973894
0.013826733 0.02130224 0.08906827 0.08086576 0.040040348 -0.10102813 -0.13403934 -0.11100491
00000000: bc22 0dbe c3db 74bd 7c2a 86bd 9022 23b9
00000010: 1f3e e6bd 46a0 203e 608a 9fbd 0705 c53d
00000020: 45de be3c 8742 dfbc 2a8a 0cbe 4532 d2bd
00000030: 4211 803d 04f7 cf3d 681c debd 3701 cd3d
00000040: 2c51 c83c 5adf 2ebb 84d2 3ebb fc9b 093e
00000050: 7710 223d 49cb 5b3e ef26 52be f68d c4bd
00000060: 8689 623c 0982 ae3c 6d69 b63d f39c a53d
00000070: 5901 243d d6e7 cebd 9c41 09be 8b56 e3bd

convs.2.nn.1.running_var f4 [32]
0.54506946 0.5016068 0.7216066 0.29260927 0.51777655 0.52720755 0.2943373 0.6671
0.7683789 0.56937414 0.08210985 0.73824465 0.47092947 0.23179492 0.50953764 0.07684267
0.14470674 0.21298172 0.622705 0.5928888 0.6911089 0.41571775 0.24055834 0.19678026
0.7048692 0.37655964 0.54950166 0.46676397 0.6989672 0.1561408 0.79156834 0.20588537
00000000: ac89 0b3f 4e69 003f 36bb 383f e2d0 953e
00000010: 018d 043f 13f7 063f 61b3 963e 11c7 2a3f
00000020: 7bb4 443f 81c2 113f 3629 a83d 9afd 3c3f
00000030: ab1d f13e a65b 6d3e 0f71 023f b15f 9d3d
00000040: 012e 143e e117 5a3e 9869 1f3f 8fc7 173f
00000050: 83ec 303f f5d8 d43e ed54 763e c480 493e
00000060: 4f72 343f 6dcc c03e 24ac 0c3f b0fb ee3e
00000070: 84ef 323f 60e3 1f3e 39a4 4a3f 9dd3 523e
