Codes/interference-graph/models/best_model.pt (torch, 207034 bytes, 75 tensors)

convs.0.nn.0.weight f4 [32, 18]
0	0x3e1bee6a	0.15227666
1	0xbd5c8711	-0.053839747
2	0xbe460d35	-0.19340976
3	0xbde8e8f8	-0.1137256
4	0x9a881053	-5.6274655e-23
5	0x8fcebcd0	-2.0385896e-29
6	0xbe522ddd	-0.20525308
7	0x9c369798	-6.041468e-22
8	0x8d3be5a9	-5.7900267e-31
9	0x3da936aa	0.082623795
10	0x3e19bc50	0.15013242
11	0xbe1ccbeb	-0.15312164
12	0xbe24ef8e	-0.16107008
13	0x09dbb867	5.2895743e-33
14	0x115dba1c	1.7491175e-28
15	0x3d118aa9	0.035532627
16	0x10dc30bb	8.684978e-29
17	0x2f2c9bfc	1.5698726e-10
18	0x3ddb9a25	0.1072276
19	0xbcc0e6d3	-0.023547566
20	0xbc8c60a4	-0.017135926
21	0x3d53e26d	0.05172961
22	0x2d1ed826	9.029255e-12
23	0x0d9f8592	9.831287e-31
24	0x3e01ac0d	0.12663288
25	0xa0fbee63	-4.2678805e-19
26	0xa25a5235	-2.958803e-18
27	0x3d27510a	0.04084877
28	0x3d2ca5a9	0.042150173
29	0xbe1faa23	-0.15592246
30	0x3df7d294	0.121007115
31	0x923fa8de	-6.047712e-28
32	0x8adb8f1e	-2.1142768e-32
33	0xbe502b2a	-0.20328966
34	0x0b49d697	3.887263e-32
35	0x1dd233cb	5.564009e-21
36	0xbc64f41b	-0.013974215
37	0x3e4d0207	0.20020305
38	0x3e43c45b	0.19117872
39	0x3e6f2856	0.2335523
40	0x9abb4b6b	-7.746323e-23
41	0x108294d4	5.1505265e-29
42	0x3dd7ab4d	0.1053072
43	0x8c2bd830	-1.3238417e-31
44	0x0baaba18	6.576162e-32
45	0xbd0145c1	-0.031560663
46	0xbdd72846	-0.105057284
47	0x3de8d035	0.11367837
48	0xbe51993d	-0.20468612
49	0x21728a41	8.2175767e-19
50	0x9c24a942	-5.448181e-22
51	0xbc1ed6d5	-0.009694775
52	0xa16e1249	-8.0661737e-19
53	0x2261acbe	3.0584635e-18
54	0x3d921382	0.07132627
55	0x3d8197ad	0.06327758
56	0xbda2df06	-0.079526946
57	0xbe1cff82	-0.15331843
58	0x0c0b9dc7	1.075565e-31
59	0x2ceb6a03	6.6908714e-12
60	0xbd5362b9	-0.05160782
61	0xaa20be90	-1.427697e-13
62	0xaae482b0	-4.0591619e-13
63	0xbdb1a00a	-0.08673103
64	0xbe2716c1	-0.16317274
65	0x3da5e62d	0.08100543
66	0xbc0df970	-0.008665428
67	0x1158134d	1.7045343e-28
68	0x8c369940	-1.4066887e-31
69	0xbe07f0e7	-0.1327549
70	0x0c1c6803	1.2049103e-31
71	0x93044c11	-1.6698246e-27
72	0xbc39b6b1	-0.011335061
73	0x3d0c9197	0.034318533
74	0xbe2f4a1e	-0.17118117
75	0x3da8f9bb	0.08250757
76	0x8c033040	-1.0106393e-31
77	0xaaa2fab5	-2.8950944e-13
78	0x3e39880e	0.18118307
79	0xada152b9	-1.8340317e-11
80	0x8e0d4bd6	-1.7416105e-30
81	0x3d3fedc3	0.046857607
82	0xbe226a71	-0.15860917
83	0xbd048703	-0.03235532
84	0x3c882345	0.01661838
85	0x91a41fd0	-2.5894244e-28
86	0x8d049f30	-4.0867255e-31
87	0xbdb09c36	-0.08623545
88	0x0a546cb7	1.0227876e-32
89	0x188cc2bc	3.6385783e-24
90	0x3e012390	0.12611222
91	0x3d98c057	0.07458561
92	0x3ded4490	0.11585343
93	0x3e19a0e0	0.15002775
94	0x0ba7dd61	6.4659154e-32
95	0x1609c79d	1.1129759e-25
96	0xbda587b1	-0.08082522
97	0x8d54903a	-6.550115e-31
98	0x9a407b5e	-3.9804325e-23
99	0xbe13fe32	-0.14452437
100	0x3cca48b7	0.024692876
101	0xbe0ed655	-0.13948949
102	0x3e50f908	0.20407498
103	0xa3a0a338	-1.741636e-17
104	0x96139372	-1.1921091e-25
105	0xbdf72f8d	-0.120696165
106	0x11dbab6a	3.465775e-28
107	0x8b30b016	-3.402884e-32
108	0x3c9b5239	0.018960105
109	0xbe154e1c	-0.14580578
110	0x3d983559	0.0743205
111	0xbe05f25d	-0.13080736
112	0x22871647	3.661541e-18
113	0x1c3ab410	6.1774963e-22
114	0x3c16f630	0.009213969
115	0x9019bcc0	-3.0319337e-29
116	0x8c84461a	-2.038001e-31
117	0xbcf40308	-0.029786602
118	0xbd439092	-0.047745295
119	0xbe23d07c	-0.15997499
120	0x3e1d2fa4	0.15350205
121	0x8904e71a	-1.5997585e-33
122	0x8a6c378d	-1.13734346e-32
123	0x3d4dd447	0.05025127
124	0xa95b52f0	-4.8699705e-14
125	0x0a83f169	1.270565e-32
126	0x3e6b03ab	0.22950618
127	0xbdb7cc7d	-0.0897455
128	0x3e3ae2ac	0.18250531
129	0x3deb5501	0.114908226
130	0x218c0672	9.488475e-19
131	0x2d11e390	8.292825e-12
132	0xbe393ebb	-0.18090336
133	0x2942efcf	4.3284654e-14
134	0x9626ae48	-1.3464367e-25
135	0xbe16b1ff	-0.14716338
136	0x3d4daf86	0.05021622
137	0xbe40bbbf	-0.1882162
138	0xbd86ae09	-0.06576163
139	0xa22b2c09	-2.3198133e-18
140	0x0ccb683b	3.1339834e-31
141	0x3e3c64fc	0.18397897
142	0x0c3da7a2	1.4610476e-31
143	0x28911be5	1.6110331e-14
144	0xbdfd7589	-0.12375934
145	0xbc683d58	-0.014174782
146	0xbe6b9ebf	-0.23009776
147	0xbe481742	-0.19540122
148	0x8eeb3bb5	-5.798947e-30
149	0x96bcc5f5	-3.0497967e-25
150	0x3e07aa04	0.1324845
151	0x2aeda029	4.221079e-13
152	0x91bcf21b	-2.981038e-28
153	0x3e244540	0.16042042
154	0x3dbe68a9	0.09297306
155	0x3d599e96	0.053129755
156	0x3d9bb977	0.07603734
157	0x8c3a821f	-1.4368076e-31
158	0x8b91561c	-5.598153e-32
159	0xbe1ac08b	-0.15112512
160	0x8d15e621	-4.6191177e-31
161	0x16255fb4	1.3358792e-25
162	0x3e1e221a	0.15442696
163	0xbc38835b	-0.011261786
164	0xbe0b9a66	-0.13633117
165	0x3e8823f4	0.2658993
166	0xa9cc1781	-9.063497e-14
167	0x977fd91a	-8.2668965e-25
168	0xbe297bf5	-0.16551192
169	0x8ad02336	-2.0042916e-32
170	0x9368b7e8	-2.937319e-27
171	0x3d518827	0.051155236
172	0xbc0a5cc7	-0.008444971
173	0x3ded5d1f	0.11590027
174	0xbe32562a	-0.17415681
175	0x11b011cb	2.777887e-28
176	0x8abedfd6	-1.8380532e-32
177	0xbcff9e3a	-0.031203378
178	0x0b747af4	4.708519e-32
179	0xa4ee2353	-1.0327589e-16
180	0xbe0fcc19	-0.14042701
181	0x3e404883	0.18777661
182	0xbd7c6a17	-0.061624613
183	0x3d91af98	0.0711357
184	0x27010fd6	1.791093e-15
185	0x8c4f01de	-1.5947262e-31
186	0xbe2c581d	-0.16830488
187	0x956e9050	-4.817756e-26
188	0x200af0b1	1.1768693e-19
189	0xbd8375a0	-0.064189196
190	0x3e3d8f9c	0.18511814
191	0x3da71c1e	0.0815966
192	0xbc29099b	-0.0103172315
193	0x0c655708	1.7667708e-31
194	0xb03b2057	-6.807616e-10
195	0xbe6db290	-0.23212647
196	0x944eac5f	-1.0434336e-26
197	0xaff88107	-4.5202617e-10
198	0xbe0475c4	-0.12935549
199	0x3d28cf12	0.041213103
200	0xbe38171f	-0.1797757
201	0x3e18d113	0.14923505
202	0x9c3e9a58	-6.306521e-22
203	0x1dbe96bc	5.0448437e-21
204	0xbd58a283	-0.05288936
205	0x289e13c7	1.75501e-14
206	0x8daf8831	-1.0817995e-30
207	0xbdeb52df	-0.11490416
208	0x3e1c2e53	0.15252046
209	0x3e37e04e	0.17956659
210	0x3e640c1c	0.22270244
211	0xaa8cae7d	-2.499007e-13
212	0x0a93c6da	1.4230385e-32
213	0xbe14bd0a	-0.14525238
214	0x09f22508	5.8294205e-33
215	0xb008f791	-4.9828325e-10
216	0x3e16e955	0.14737447
217	0xbd98ed9e	-0.07467197
218	0xbe4a331e	-0.19746062
219	0xbe690724	-0.2275663
220	0xa497e624	-6.5875685e-17
221	0x2581a4e3	2.2489664e-16
222	0xbe3d9f09	-0.18517698
223	0x17b39c7a	1.1607104e-24
224	0x9139c2f8	-1.4654006e-28
225	0x3d42d717	0.047568407
226	0x3e13e6c8	0.14443505
227	0xbcd58aa0	-0.026067078
228	0x3d7e661f	0.06210911
229	0x0ac211c9	1.868821e-32
230	0x9d2499e7	-2.1784785e-21
231	0x3e53b5b4	0.20674783
232	0x8a160e00	-7.2248704e-33
233	0x29f31bba	1.07961776e-13
234	0xbdbd8107	-0.09253126
235	0xbe376b10	-0.17911935
236	0xbe02ca52	-0.12772492
237	0xbd6f20b9	-0.058380816
238	0x0b80954c	4.9528444e-32
239	0x944d8c5c	-1.0377536e-26
240	0xbe295f05	-0.16540153
241	0x081746b8	4.552304e-34
242	0x0d3b572e	5.7728763e-31
243	0xbd850fb6	-0.06497137
244	0x3e24171a	0.16024438
245	0xbd44722f	-0.047960456
246	0xbd24be47	-0.040220525
247	0x254a13ef	1.7527461e-16
248	0x13070f1f	1.704685e-27
249	0xbd060d2c	-0.032727405
250	0xab94045e	-1.0517245e-12
251	0x2a49699b	1.7889025e-13
252	0x3c1ac906	0.009447342
253	0x3d0ce9d7	0.034402695
254	0xbdf837f3	-0.121200465
255	0xbe3f5156	-0.18683371

convs.0.nn.0.bias f4 [32]
0	0xb59815db	-1.1331243e-06
1	0xb420aff8	-1.4965178e-07
2	0xb29367a0	-1.7160176e-08
3	0x35bd9ba4	1.4126895e-06
4	0x337a3c48	5.8262486e-08
5	0x34429843	1.812305e-07
6	0xb5aaf5cb	-1.2737522e-06
7	0xb3efb68a	-1.11625084e-07
8	0x34904c54	2.6877626e-07
9	0x35b4df2d	1.3475998e-06
10	0xb6a8f34b	-5.035113e-06
11	0xb5531edf	-7.864855e-07
12	0xb487c445	-2.5288514e-07
13	0x35773ba5	9.2101465e-07
14	0x35a4efe0	1.2288765e-06
15	0xb4d4f66d	-3.9667376e-07
16	0x35b4e3ee	1.3477381e-06
17	0xb621d88f	-2.4116923e-06
18	0x34d6ec8e	4.0032722e-07
19	0x31fca2f0	7.352689e-09
20	0xb65a9277	-3.2569785e-06
21	0x349272a5	2.7278034e-07
22	0x35807ae7	9.572512e-07
23	0x34421b69	1.807763e-07
24	0xb584183c	-9.84182e-07
25	0x34b18e69	3.3072436e-07
26	0x34d61338	3.987459e-07
27	0xb57df9f9	-9.46136e-07
28	0xb4817a4b	-2.4117102e-07
29	0x3569a4f8	8.7039325e-07
30	0xb64a7822	-3.0170272e-06
31	0x34aff5ef	3.277523e-07

convs.0.nn.1.weight f4 [32]
0	0x3f685e7f	0.9076919
1	0x3f7e8584	0.9942248
2	0x3f708ed3	0.9396793
3	0x3f7a5ed7	0.97800964
4	0x3f7a66d0	0.9781313
5	0x3f719851	0.9437304
6	0x3f75c66d	0.960059
7	0x3f7840a6	0.96973646
8	0x3f6d3277	0.9265513
9	0x3f6b18a4	0.91834474
10	0x3f759a3f	0.95938486
11	0x3f6d3e3e	0.926731
12	0x3f7632cb	0.96171254
13	0x3f72555a	0.94661486
14	0x3f7b7c54	0.98236585
15	0x3f7874cd	0.97053224
16	0x3f76d0ad	0.96412164
17	0x3f770c11	0.96502787
18	0x3f7d31ab	0.9890391
19	0x3f72717d	0.9470442
20	0x3f7d68b1	0.9898787
21	0x3f73ebc8	0.9528165
22	0x3f706c85	0.9391559
23	0x3f6a9c1c	0.91644454
24	0x3f7e41ce	0.9931916
25	0x3f7c51da	0.98562396
26	0x3f72c0fd	0.94825727
27	0x3f7a16f4	0.97691274
28	0x3f76c3c3	0.9639246
29	0x3f70cc62	0.94061863
30	0x3f7ceac7	0.9879574
31	0x3f6f5b71	0.93498904

convs.0.nn.1.bias f4 [32]
0	0x3a98ea55	0.0011666516
1	0x3baa3fea	0.0051956074
2	0x3cdfae29	0.027304726
3	0x3b2c1cfb	0.002626239
4	0xbd346558	-0.04404196
5	0xbc9f6119	-0.01945548
6	0xbca52da4	-0.020163365
7	0xbc8f0b20	-0.01746136
8	0xbd494390	-0.0491367
9	0xbd1086e6	-0.0352849
10	0xbc50dba5	-0.01274768
11	0xbcb03b0f	-0.021512536
12	0x3d44e27a	0.048067547
13	0x3a6dfee8	0.00090788165
14	0x3c558306	0.013031727
15	0xbccbc81f	-0.024875699
16	0x3c6747d1	0.014116243
17	0xbd814798	-0.063124835
18	0x3b4e4ba7	0.0031478198
19	0xbce3a119	-0.027786778
20	0xbd87282e	-0.065994605
21	0xbd0b92e4	-0.034075633
22	0xbd06db38	-0.032923907
23	0xbc946219	-0.018113183
24	0xbcba7df4	-0.022765137
25	0x3d2f0a67	0.04273453
26	0x3c08801c	0.008331325
27	0x3cc9ace1	0.024618568
28	0xbc715952	-0.014730768
29	0xbced2606	-0.028948795
30	0x3c8fe86f	0.017566888
31	0xbd01f970	-0.031732023

convs.0.nn.1.running_mean f4 [32]
0	0x3cbbf2d2	0.022942934
1	0x3c5b4d44	0.013385121
2	0xbc299cd0	-0.010352328
3	0x3c3ea3ad	0.011635703
4	0xbb70f12f	-0.003676485
5	0x3c41daba	0.011831934
6	0x3bffbce6	0.007804501
7	0x3cecd9ee	0.02891251
8	0xbc403598	-0.011731528
9	0x3c770620	0.015077144
10	0xbcbe6b63	-0.023244565
11	0xbca85526	-0.020548414
12	0x3cceeb67	0.025258733
13	0xbbeaeafb	-0.007169125
14	0x3b9b00f2	0.0047303373
15	0xbcc6ded0	-0.024276167
16	0x3c0a28d6	0.008432588
17	0xbc9ff804	-0.019527443
18	0x3c040ac8	0.008059211
19	0xbc859ee8	-0.016311124
20	0xbcceb858	-0.025234386
21	0x3aeec4c6	0.0018216602
22	0x3cbc5adc	0.022992544
23	0x3cd45196	0.02591781
24	0xbcb364c8	-0.021898642
25	0x3b64b646	0.0034898682
26	0xbcae9b1f	-0.021314202
27	0xbb807128	-0.0039197393
28	0x3b3ad624	0.0028508985
29	0x3a9fc5dd	0.0012189705
30	0x3cae5d5b	0.02128475
31	0x3ae49abe	0.0017441136

convs.0.nn.1.running_var f4 [32]
0	0x3e230af3	0.15922146
1	0x3e621594	0.22078544
2	0x3f8af2b3	1.0855316
3	0x3ddb34b7	0.10703414
4	0x3e66bbe4	0.22532612
5	0x3e907ea9	0.28221634
6	0x3d380e17	0.044935312
7	0x3e945eac	0.2897848
8	0x3f00ef1e	0.50364864
9	0x3d8f57f8	0.069992006
10	0x3d0bf9dd	0.034173835
11	0x3f047919	0.5174728
12	0x3faecc5b	1.3656114
13	0x3eb22a08	0.34797692
14	0x3e2397ce	0.15975878
15	0x3ed80762	0.42193133
16	0x3e904fc6	0.28185862
17	0x3e7ec72a	0.24880663
18	0x3f17fbcb	0.5936858
19	0x3f2251f3	0.63406295
20	0x3ddb784b	0.107163034
21	0x3ff4d7ab	1.9128317
22	0x3f0d65b9	0.5523334
23	0x3f912c9a	1.1341736
24	0x3e306512	0.17226055
25	0x3e1243a6	0.14283618
26	0x3dbf620a	0.09344871
27	0x3f20058c	0.62508464
28	0x3f437c3a	0.7636143
29	0x3e13fb38	0.14451301
30	0x3d21e638	0.039526194
31	0x3e00a6f2	0.12563685

convs.0.nn.3.weight f4 [32, 32]
0	0xbc9e52cb	-0.019326588
1	0x3d069eb5	0.0328662
2	0x3d00cd5e	0.031445853
3	0xbddb4409	-0.10706336
4	0x3d074d71	0.03303284
5	0x3d481e33	0.048856925
6	0xbe2dbcb0	-0.1696651
7	0xbcf31ed1	-0.02967778
8	0xbe26e9f7	-0.16300188
9	0xbcd6861b	-0.026186993
10	0x3ded4f92	0.115874425
11	0x3d511d41	0.05105329
12	0x3d634625	0.055486817
13	0xbdc39bc2	-0.09551193
14	0xbafefc41	-0.001945384
15	0xbd935be1	-0.07195259
16	0xbd45c55f	-0.04828393
17	0xbdd902f3	-0.10596266
18	0x3d0bc175	0.034120042
19	0xbd766bf3	-0.060161542
20	0xbe1a6e97	-0.15081249
21	0xbe368102	-0.1782265
22	0x3e1f531e	0.1555905
23	0x3e0f9d91	0.1402495
24	0xbe1e7ff6	-0.154785
25	0x3dd3edde	0.10348104
26	0x3dcb6590	0.09931481
27	0xbe291e6d	-0.16515513
28	0xbdd4ce80	-0.10390949
29	0xbe2531a6	-0.1613222
30	0x3debd7b1	0.11515749
31	0xbe0625b3	-0.13100319
32	0xbdf3cc52	-0.119042054
33	0xbe397973	-0.18112735
34	0xbdad4af4	-0.08461562
35	0x3d943e54	0.07238451
36	0xbdf17821	-0.11790491
37	0xbd276798	-0.04087028
38	0xbdb9d2af	-0.09073388
39	0xbdc40ec2	-0.09573127
40	0x3d52169b	0.05129109
41	0xbd4892d0	-0.048968136
42	0xbdd07152	-0.10177864
43	0x3ded8150	0.1159693
44	0xbcb6da2d	-0.022320831
45	0xbdb0d5ac	-0.08634505
46	0x3de8212f	0.11334454
47	0x3c6b1465	0.014348124
48	0x3da4b4f4	0.080423266
49	0xbcaf11fe	-0.021370884
50	0xbddca141	-0.10772944
51	0xbdd746a8	-0.105115235
52	0x3e1915ac	0.14949673
53	0xbe347d37	-0.1762589
54	0x3ce407c5	0.027835736
55	0x3c2d2844	0.010568682
56	0xbd802c3d	-0.06258438
57	0x3df8f0f1	0.12155331
58	0x3ceaac9e	0.028646763
59	0xbe0db2ee	-0.13837788
60	0xbd45be19	-0.048276994
61	0x3c98e663	0.018664544
62	0xbe363c76	-0.17796502
63	0xbd86372e	-0.065534934
64	0xbd646922	-0.055764325
65	0xbdc236fe	-0.09483145
66	0xbcfe7f04	-0.031066425
67	0x3e160040	0.14648533
68	0xbe07a9d1	-0.13248374
69	0xbe14eb03	-0.14542775
70	0x3e19b99e	0.15012214
71	0xbd95e48f	-0.07318985
72	0x3db5d234	0.08877984
73	0x3d6c23f2	0.057651468
74	0x3d692dd3	0.056928467
75	0xbe01848a	-0.12648216
76	0xbd9dde5e	-0.07708429
77	0x3d52adb8	0.051435202
78	0x3d313053	0.043258976
79	0x3df18766	0.11793403
80	0xbd79419e	-0.060853593
81	0x3d8960a9	0.067078896
82	0xbdf63605	-0.12022022
83	0x3d893f20	0.06701493
84	0xbe272ef9	-0.16326512
85	0x3e0cde33	0.13756637
86	0xbdd689cb	-0.10475501
87	0x3e0f5792	0.13998249
88	0xbcc7a98c	-0.024372838
89	0xbced1e5a	-0.028945137
90	0x3e0b9c5b	0.13633864
91	0x3cd6c23e	0.026215669
92	0xbdf2bb4d	-0.11852131
93	0x3cd99559	0.026560472
94	0xbe0cacfb	-0.13737862
95	0xbe118789	-0.14211859
96	0x3dbe95db	0.093059264
97	0xbe076b54	-0.13224536
98	0xbda670e6	-0.081270024
99	0xbcdbefc2	-0.026847724
100	0x3db1bf2d	0.08679042
101	0xbd912dc8	-0.0708881
102	0x3d5d083d	0.053962935
103	0xbdb9f8bb	-0.09080645
104	0xbe54e54b	-0.20790593
105	0x3cd9ab00	0.026570797
106	0xbd472a0e	-0.04862409
107	0xbcdd8e34	-0.027045347
108	0x3d7655ce	0.060140423
109	0x3d1226e2	0.035681613
110	0xbdeb1c34	-0.11479989
111	0xbdc4c6b5	-0.09608213
112	0xbe33cb1e	-0.17557952
113	0x3dafa009	0.08575446
114	0xbdcec09d	-0.10095332
115	0xbd6af316	-0.05736073
116	0xbe5ece0d	-0.2175829
117	0x3db83191	0.08993829
118	0xbe108a7c	-0.14115328
119	0x3df244e3	0.11829545
120	0x3d620976	0.055184804
121	0x3c5ea7b9	0.013589793
122	0xbd956cca	-0.072961405
123	0xbd1ca899	-0.038246725
124	0xbdf7becb	-0.12096938
125	0x3de5e43c	0.11225173
126	0xbd51c3a6	-0.051211976
127	0x3e22b528	0.15889418
128	0xbd09f254	-0.033678368
129	0x3ccf1b2e	0.025281515
130	0x3dab9fca	0.08380087
131	0xbde50802	-0.11183168
132	0x3dbd7245	0.09250311
133	0x3e0f764c	0.1400997
134	0xbd5e1c8b	-0.05422644
135	0xbc2c402b	-0.010513346
136	0xbda3d509	-0.079996176
137	0xbdcf1557	-0.10111492
138	0xbc1ba103	-0.009498837
139	0xbdc2cfb2	-0.09512271
140	0xbcbd688f	-0.023121146
141	0xbe1b618c	-0.1517393
142	0x3e01b7d6	0.12667784
143	0x3d0d4ba7	0.034495976
144	0xbc40b5b8	-0.011762075
145	0x3d7948dd	0.060860503
146	0xbd95f1d4	-0.07321516
147	0xbc8fa5d2	-0.017535124
148	0x3dbcd945	0.092211284
149	0xbd27ae4c	-0.040937707
150	0x3beb9f0a	0.00719059
151	0x3a9779c3	0.0011556674
152	0xbd017524	-0.031605855
153	0xbdafeae5	-0.085897245
154	0x3d82ca99	0.06386299
155	0xbddbceb9	-0.107327886
156	0x3e160079	0.14648618
157	0x3d64be12	0.055845328
158	0xbe2e23c0	-0.17005825
159	0x3de27730	0.110578895
160	0x3b9c4b0d	0.004769689
161	0x3e26054d	0.1621296
162	0x3e285724	0.16439492
163	0xbe6a7d0b	-0.22899263
164	0xbd9b33f7	-0.07578271
165	0x3db2c0f7	0.087282114
166	0xbe01542e	-0.12629768
167	0xbcadfb2d	-0.021237934
168	0x3dadb0a6	0.08480959
169	0xbd433dd8	-0.0476664
170	0x3e5251dc	0.2053904
171	0xbe2b505d	-0.16729875
172	0xbca81057	-0.020515604
173	0xbd3379de	-0.043817393
174	0x3d9c9683	0.07645895
175	0xbdedf91a	-0.11619778
176	0xbdcb3f13	-0.0992414
177	0xbe237b38	-0.15964973
178	0xbe33576e	-0.1751382
179	0x3d11211e	0.035431974
180	0xbda41f80	-0.08013821
181	0xbe17bf5d	-0.14819093
182	0x3d00ad5a	0.03141532
183	0xbdc2d505	-0.095132865
184	0xbde1c705	-0.11024288
185	0x3d44513d	0.047929037
186	0xbdfc2722	-0.123121515
187	0xbe101369	-0.14069904
188	0x3d8ed02e	0.06973301
189	0xbdf91ece	-0.12164079
190	0x3e1e6427	0.15467893
191	0xbdc17920	-0.09446931
192	0xbda266ab	-0.079297386
193	0xbe3613ec	-0.17781037
194	0xbd9a1071	-0.07522667
195	0xbe20a106	-0.15686426
196	0x3ddb8299	0.10718269
197	0xbd800c44	-0.062523395
198	0x3d70b185	0.058763046
199	0x3d9fa3fb	0.07794949
200	0x3c6f291c	0.014597204
201	0x3d0691d8	0.03285393
202	0xbdfb72cb	-0.122777544
203	0x3d273f37	0.04083177
204	0xbd8495db	-0.06473895
205	0x3d6ee3b3	0.05832262
206	0xbb48c20e	-0.0030633244
207	0x3d94d5f1	0.072673686
208	0xbdc7a50d	-0.09748278
209	0x3d36fad8	0.044672817
210	0x3c4f159d	0.01263943
211	0x3d8ccb2b	0.06874689
212	0x3e2842c1	0.16431715
213	0xbdcaa05a	-0.09893866
214	0xbc9b2aba	-0.018941272
215	0x3d8ad318	0.06778544
216	0x3e07fa06	0.1327897
217	0xbdcbf554	-0.09958902
218	0xbdaed181	-0.085360534
219	0xbdc34ac5	-0.095357455
220	0x3e0fbca5	0.14036806
221	0xbde7a606	-0.11310963
222	0xbe2b5c06	-0.16734323
223	0x3e0f8043	0.14013772
224	0x3cef1419	0.029184388
225	0xbd80267e	-0.06257342
226	0x3dcf5c74	0.10125056
227	0xbbf7448e	-0.007546014
228	0x3db9a305	0.09064297
229	0x3e018072	0.12646654
230	0x3cd335ba	0.025782455
231	0xbe47bba8	-0.19505179
232	0x3cc88632	0.024478052
233	0x3db68185	0.08911423
234	0x3e369cb5	0.17833216
235	0x3d3e92ce	0.046526723
236	0x3c52a752	0.012857275
237	0xbdc492de	-0.09598325
238	0x3dfa9a25	0.12236432
239	0x3e05b0e4	0.1305576
240	0x3df26e25	0.11837415
241	0x3d0cd059	0.034378383
242	0xbd0ea1d9	-0.03482232
243	0x3e04444b	0.12916677
244	0xbd595098	-0.053055376
245	0xbd8037e8	-0.06260663
246	0x3d6d2bb4	0.057903007
247	0x3e034684	0.12819868
248	0xbe1f5b0e	-0.15562078
249	0x3da9f7e5	0.08299235
250	0xbdee79c1	-0.116443165
251	0x3b675969	0.0035301095
252	0xbe16a994	-0.14713126
253	0xbc5e5377	-0.013569704
254	0x3cac8af1	0.021062346
255	0xbe5490ec	-0.20758408

convs.0.nn.3.bias f4 [32]
0	0x3d433ad8	0.04766354
1	0x3e164e2d	0.14678259
2	0xbc834eae	-0.016028728
3	0x3cfb01ee	0.030640569
4	0xbe2e9868	-0.17050326
5	0xbd7bd4a5	-0.06148209
6	0xbde2c795	-0.110732235
7	0x3d6b58b5	0.057457644
8	0x3d1173be	0.03551077
9	0x3da32c6f	0.079674594
10	0xbd97c51e	-0.07410644
11	0xbe30d87a	-0.1727008
12	0xbe0c9c7b	-0.13731568
13	0xbd8ef6b3	-0.06980648
14	0x3d39ea3c	0.0453894
15	0xbdf10879	-0.11769194
16	0xbbc9cd4c	-0.0061585065
17	0x3dab7e41	0.083736904
18	0x3d6bd1e2	0.057573207
19	0x3df9b1f0	0.12192142
20	0xbb1eb962	-0.0024219383
21	0x3ca292d0	0.019845396
22	0xbdcbfe19	-0.09960575
23	0xbdc2504f	-0.09487974
24	0xbcc5aa3b	-0.024129024
25	0xbd484e2b	-0.04890267
26	0xbc596cd8	-0.013270579
27	0x3de83faf	0.11340272
28	0x3c224b1d	0.009905604
29	0x3d9b7371	0.07590378
30	0xbd180b54	-0.03712018
31	0x3d7d0f94	0.061782435

convs.1.nn.0.weight f4 [32, 64]
0	0xbd06cca7	-0.032910015
1	0x3dae704d	0.085175134
2	0xbd721d26	-0.05910983
3	0x3c1da3b9	0.009621554
4	0xbd37d799	-0.044883344
5	0x3ddadc60	0.106865644
6	0xbcf097fa	-0.029369343
7	0x3d57ef44	0.052718416
8	0x3d3a55cb	0.045491975
9	0x3da9a33b	0.08283087
10	0xbd7e1947	-0.062035825
11	0xbd9104e4	-0.07081011
12	0xbdaa9173	-0.083285235
13	0x3db071a8	0.08615428
14	0xbda79b9e	-0.081839785
15	0xbca9b0a6	-0.020714115
16	0xbdb2d42b	-0.08731874
17	0x3d9b6266	0.075871274
18	0x3c587de2	0.013213607
19	0xbd76c40c	-0.06024556
20	0x3ce0e52e	0.027453031
21	0x3d9efb31	0.07762755
22	0x3d185c2c	0.037197277
23	0x3d69eb8a	0.057109393
24	0xbdf8b508	-0.12143904
25	0x3ddc63d5	0.10761229
26	0xbdc2b8d8	-0.095079124
27	0xbd70e433	-0.058811378
28	0x3d8e68d3	0.069535874
29	0x3cd1d882	0.025615934
30	0xbda4d19b	-0.080477916
31	0xbdb2bd36	-0.08727495
32	0x3da0d46b	0.078530155
33	0xbd933e3b	-0.07189604
34	0x3da6f251	0.08151687
35	0x3d84667e	0.06464861
36	0x3cc7f458	0.024408504
37	0x3d407bba	0.046992995
38	0xbdfe5213	-0.12417998
39	0x3cc1a4c7	0.023638142
40	0xbcd65fd0	-0.026168734
41	0xbcf57cde	-0.029966768
42	0x3e0acb2f	0.13554071
43	0xbd367afd	-0.044550885
44	0x3d168056	0.036743484
45	0xbde7ce8f	-0.11318695
46	0x3dbbc763	0.091688894
47	0xbddfdc1a	-0.10930653
48	0x3dd2a664	0.10285643
49	0x3dbb54ee	0.091470584
50	0xbbe3f17e	-0.0069562783
51	0x3cec208e	0.028824117
52	0xbdaaba26	-0.08336286
53	0x3d1d9434	0.038471416
54	0xbd732a98	-0.059366792
55	0xbcd7a387	-0.026323093
56	0xbdb0a0bc	-0.08624408
57	0xbd4ae2c3	-0.049532663
58	0xbd086417	-0.033298578
59	0x3dcac01f	0.098999254
60	0x3dbb6ac2	0.09151222
61	0xbd8f882a	-0.07008393
62	0xbd9e3868	-0.077256024
63	0xbc67e1a1	-0.014152915
64	0xbda78f73	-0.08181658
65	0xbdb7d42a	-0.08976014
66	0xbcd5414e	-0.026032116
67	0x3d298c3a	0.041393496
68	0xbd1d7c18	-0.038448423
69	0xbcbd7768	-0.023128226
70	0x3d05c05a	0.032654144
71	0x3d4da95f	0.050210353
72	0xbcc33db4	-0.023833133
73	0x3ce215ee	0.027598348
74	0xbd6d6ff9	-0.057968114
75	0x3dc6ceb5	0.09707395
76	0x3dce2be7	0.100669675
77	0x3cd404bd	0.025881166
78	0xbd630995	-0.05542906
79	0x3d3ad53d	0.045613516
80	0x3dbc6bdd	0.09200261
81	0x3df05533	0.117350005
82	0x3d9ae6a3	0.07563522
83	0xbd7e9ff1	-0.06216425
84	0xbb956cb6	-0.0045600785
85	0x3c7566f4	0.014978159
86	0x3c076fa2	0.008266361
87	0x3d19926d	0.037493158
88	0x3dea0d6d	0.11428342
89	0x3d91dba1	0.07121969
90	0xbcb94548	-0.022616044
91	0xbcb8ea6d	-0.02257272
92	0xbd9fab5c	-0.07796356
93	0x3e188436	0.14894184
94	0xbda2e022	-0.07952906
95	0xbda555f0	-0.08073032
96	0xbda7432a	-0.081671074
97	0x3d5e878d	0.05432849
98	0x3cb1cc1a	0.021703769
99	0x3c4ddcf0	0.012564883
100	0xbd9bdaea	-0.07610114
101	0xbdaab5f6	-0.083354875
102	0xbda50bea	-0.08058913
103	0xbac63012	-0.0015120527
104	0xbdf93ee9	-0.12170202
105	0x3df4725c	0.11935875
106	0xbdad9731	-0.08476103
107	0x3dd2c04c	0.10290584
108	0x3c895ff8	0.016769394
109	0x3dc2745f	0.09494852
110	0xbd360c01	-0.04444504
111	0x3d3b0818	0.045662016
112	0x3b392456	0.0028250418
113	0x3d40c089	0.047058616
114	0x3da62706	0.08112912
115	0x3bbd38f0	0.0057746097
116	0xbd5e7d08	-0.054318458
117	0xbd60f126	-0.054917477
118	0x3dbc24b5	0.09186689
119	0xbdb0d8b3	-0.08635082
120	0x3dc56e2e	0.09640156
121	0x3c8de8d9	0.017322944
122	0xbdb725fa	-0.0894279
123	0x3d4a4d64	0.04939021
124	0xbdcb5932	-0.09929122
125	0xbd4e1ee2	-0.05032242
126	0xbcf7119b	-0.030159762
127	0xbdfa19c2	-0.12211944
128	0xbdae6ff3	-0.08517446
129	0x3cc9ee87	0.024649872
130	0xbcd4b212	-0.025963817
131	0xbdb7a065	-0.0896614
132	0xbdd26f7d	-0.10275171
133	0xbd92d797	-0.07170027
134	0xbd9ced18	-0.076624095
135	0x3d46fa32	0.04857845
136	0xbd86ba57	-0.0657851
137	0xbd3d26f1	-0.046179716
138	0x3dad94e3	0.084756635
139	0xbdd262b4	-0.102727324
140	0x3c3de451	0.011590079
141	0xbcebbcf8	-0.02877663
142	0xbd87e831	-0.06636084
143	0xbd0851a4	-0.033280984
144	0x3dffcae0	0.12489867
145	0x3dcf0eb9	0.1011023
146	0xbd99d5ae	-0.07511459
147	0xbd654075	-0.055969674
148	0x3da910a5	0.08255128
149	0x3c2e5911	0.010641352
150	0xbe11d2a3	-0.14240508
151	0xbdc3db72	-0.0956334
152	0xbd68c736	-0.056830607
153	0x3d24ef72	0.040267415
154	0xbdc05eb6	-0.09393065
155	0x3cdca0b3	0.026932096
156	0x3d73e5aa	0.059545197
157	0xbd38b0ce	-0.04509049
158	0x3d096789	0.033546004
159	0xbcd667c2	-0.026172522
160	0xbc3581f7	-0.011078349
161	0x3dbdbd0b	0.09264573
162	0x3d18ca34	0.03730221
163	0x3c297995	0.010343929
164	0xbda78d8b	-0.08181294
165	0xba71db0a	-0.000922606
166	0xbb978289	-0.0046237153
167	0xbcc57f04	-0.024108417
168	0x3ca1e918	0.019764468
169	0x3d02f257	0.031969395
170	0xbde82aea	-0.1133631
171	0xbc8725a2	-0.016497437
172	0xbc155f56	-0.009116968
173	0xbdac32ae	-0.08408104
174	0x3d4fdba7	0.050746586
175	0x3da40d77	0.08010381
176	0xbe172a7b	-0.14762299
177	0x3d1027aa	0.035194077
178	0xbdc69584	-0.096964866
179	0xbd756ba7	-0.05991712
180	0xbd5a699c	-0.053323373
181	0xbd1e6627	-0.03867164
182	0x3dbc91e3	0.09207513
183	0xbda88dfb	-0.082302056
184	0xbe123984	-0.14279753
185	0x3ca58ccc	0.020208739
186	0xbd59e8db	-0.053200584
187	0xbcd56401	-0.026048662
188	0x3c5e6a69	0.013575175
189	0xbd8f4f5c	-0.069975585
190	0xbceb0c88	-0.028692499
191	0xbd1d1808	-0.038352996
192	0xbd4680e1	-0.048462752
193	0x3d8dc462	0.06922223
194	0xbb9a82b4	-0.004715288
195	0xbd069915	-0.032860834
196	0x3d65e847	0.05612972
197	0xbdbde786	-0.09272675
198	0xbc92a0ae	-0.017898884
199	0x3ddfed08	0.10933882
200	0xbdad35e4	-0.084575444
201	0x3da607b3	0.08106937
202	0x3d4e4138	0.050355166
203	0x3c2a5447	0.01039607
204	0xbd2f103e	-0.0427401
205	0x3b8ec0f5	0.0043564984
206	0x3dab5f37	0.0836777
207	0xbde20332	-0.11035766
208	0x3d90d919	0.07072658
209	0xbd454f2e	-0.048171215
210	0xbd70bb8d	-0.058772612
211	0x3d69eaa4	0.057108536
212	0x3d97337e	0.07382868
213	0xbdab715b	-0.0837123
214	0x3c8c6a6d	0.017140592
215	0xbdc86105	-0.0978413
216	0xbd00d5d5	-0.031453926
217	0x3d3116da	0.043234684
218	0xbc3272a0	-0.010891587
219	0x3c5f5d0f	0.013633027
220	0xbdb5ba96	-0.08873479
221	0xbb36f0cc	-0.0027914522
222	0x3db9d8b4	0.09074536
223	0x3b066641	0.0020507725
224	0x3c281512	0.01025893
225	0x3d1607d8	0.036628574
226	0x3dab8e7c	0.08376786
227	0x3d0362aa	0.032076515
228	0xbd69d386	-0.05708649
229	0x3dfbe2fc	0.12299153
230	0xbcf06013	-0.029342687
231	0xbd6dfb12	-0.058100767
232	0xbe02b3bf	-0.1276388
233	0x3dd03b99	0.10167617
234	0x3d987cc2	0.07445671
235	0xbd89c643	-0.067272685
236	0xbdb28ba1	-0.08718038
237	0xbdcbc19a	-0.09949036
238	0x3e01bd6c	0.12669915
239	0x3db1102e	0.08645664
240	0x3d1eb2b3	0.03874464
241	0xbcd4b8b0	-0.025966972
242	0xbdb08c60	-0.086205244
243	0x3dbda26a	0.09259494
244	0x3d0bfddf	0.034177657
245	0x3d96aa1b	0.07356664
246	0x3dac84e4	0.084237844
247	0xbd3cd831	-0.046104614
248	0xbcb147f4	-0.021640755
249	0xbc993d2d	-0.018705929
250	0xbdf0986b	-0.117478214
251	0xbdf30f51	-0.11868156
252	0x3db68205	0.08911518
253	0xbdeafad6	-0.114736244
254	0xbd09df70	-0.033660352
255	0xbde7f495	-0.11325947

convs.1.nn.0.bias f4 [32]
0	0x338949d8	6.392992e-08
1	0xb4c23547	-3.617408e-07
2	0xb4bb9371	-3.4938742e-07
3	0xb4be78d0	-3.547816e-07
4	0x35e7adf5	1.7261469e-06
5	0x33e7e083	1.0797614e-07
6	0xb4a7e820	-3.1275067e-07
7	0x355c494a	8.2063036e-07
8	0xb480bf61	-2.3981104e-07
9	0x339db5cc	7.343951e-08
10	0x33e38ee6	1.0596504e-07
11	0xb3f4028c	-1.1362599e-07
12	0x34b0e6d7	3.2950513e-07
13	0x3463117f	2.1147387e-07
14	0x35db41dc	1.6335939e-06
15	0xb61702fa	-2.2502486e-06
16	0xb43a1356	-1.7329634e-07
17	0x34499a42	1.8775702e-07
18	0xb40a8606	-1.2901009e-07
19	0xb4e382c5	-4.2377192e-07
20	0xb41779e4	-1.4107314e-07
21	0xb4df771a	-4.1623645e-07
22	0xb55fff78	-8.344573e-07
23	0xb5470fb9	-7.4156156e-07
24	0xb4469a2c	-1.8496274e-07
25	0xb524fd8e	-6.146373e-07
26	0x362b2e84	2.5508061e-06
27	0x359b91d3	1.159084e-06
28	0x3408bdbc	1.2735012e-07
29	0xb4b18922	-3.3068596e-07
30	0xb5acdf74	-1.2880032e-06
31	0xb4410ab2	-1.7978417e-07

convs.1.nn.1.weight f4 [32]
0	0x3f641e20	0.8910847
1	0x3f7655e4	0.9622481
2	0x3f73b4fd	0.9519804
3	0x3f6a5621	0.9153767
4	0x3f75f00a	0.96069396
5	0x3f71bc24	0.94427705
6	0x3f82aede	1.0209615
7	0x3f807d00	1.0038147
8	0x3f61ed09	0.8825231
9	0x3f6e156c	0.9300144
10	0x3f6f7909	0.9354406
11	0x3f681ab6	0.9066576
12	0x3f702752	0.9381
13	0x3f6fd9d0	0.9369173
14	0x3f6d66f4	0.9273522
15	0x3f6aaffd	0.91674787
16	0x3f69d4d8	0.913404
17	0x3f6ffddd	0.9374674
18	0x3f634351	0.8877459
19	0x3f6a9d0c	0.91645885
20	0x3f65e851	0.8980761
21	0x3f6dfb95	0.9296201
22	0x3f705780	0.93883514
23	0x3f67d5fe	0.905609
24	0x3f71ee65	0.94504386
25	0x3f78fba8	0.97258997
26	0x3f71d885	0.9447101
27	0x3f7b9f36	0.9828981
28	0x3f7b0d6b	0.9806735
29	0x3f7eaed9	0.99485546
30	0x3f6c036a	0.9219271
31	0x3f6bab48	0.9205823

convs.1.nn.1.bias f4 [32]
0	0xbc92c7ed	-0.017917598
1	0xbc465106	-0.012104278
2	0x3c228ce5	0.009921287
3	0xbaff72c3	-0.0019489158
4	0x3cd91fcf	0.026504425
5	0xbc5f7e73	-0.013640988
6	0xbc9a1ca1	-0.01881248
7	0xbc54450b	-0.012955914
8	0x3b3afb75	0.0028531228
9	0xbca0bda0	-0.01962167
10	0xbcdcae81	-0.026938679
11	0xbbf19918	-0.0073729865
12	0xbcf2a9d7	-0.029622002
13	0xbbd5e429	-0.006527443
14	0xbc314f67	-0.010822154
15	0x3c850c49	0.01624121
16	0x3c98a7e7	0.01863475
17	0xbc2bd9b4	-0.010488916
18	0xbc42b6dd	-0.011884418
19	0xbc32b998	-0.010908507
20	0xbd2d9a3c	-0.042383417
21	0xbd0d7ad1	-0.034540955
22	0xbcb51860	-0.02210635
23	0xbd0779bd	-0.033075083
24	0x3c47d739	0.012197309
25	0xbb67bbdc	-0.0035359776
26	0xbd0a2fb1	-0.03373689
27	0xbd862180	-0.06549358
28	0x3d03d55a	0.03218589
29	0x3c9ffb21	0.019528927
30	0x3c6d6fe7	0.014492012
31	0xbcdae3e8	-0.026720002

convs.1.nn.1.running_mean f4 [32]
0	0xbd273fe4	-0.040832415
1	0x3bd661a3	0.006542401
2	0x3cda14c0	0.026621222
3	0x3d643c8c	0.055721804
4	0x3d1babca	0.038005628
5	0xbd427e82	-0.04748393
6	0x3d83a8dd	0.064286925
7	0x3ddebdf4	0.108760744
8	0xbd126a16	-0.035745703
9	0x3d4ed332	0.05049438
10	0x3c669be5	0.014075254
11	0xbce24ab2	-0.027623508
12	0x3db15d21	0.08660341
13	0x3dabb87a	0.083847955
14	0xbbfc672c	-0.0077027287
15	0x3d113f76	0.03546091
16	0xbd2420da	-0.040070392
17	0xbbc8be13	-0.0061261742
18	0x3c86a134	0.01643429
19	0xbd218b34	-0.039439395
20	0x3dc72eb6	0.09725706
21	0xbe27f017	-0.16400181
22	0x3c8d8712	0.01727632
23	0x3acc110d	0.0015569046
24	0xbd6d0eae	-0.057875328
25	0xbca4e162	-0.020127002
26	0xbdb3c3a4	-0.0877755
27	0xbd3fb9d8	-0.046808094
28	0xbcbd83a0	-0.023134053
29	0xbcf181de	-0.02948087
30	0x3d75ebe5	0.06003942
31	0xbc7ced3f	-0.015437423

convs.1.nn.1.running_var f4 [32]
0	0x3e5ce9a5	0.21573503
1	0x3e5906fc	0.2119407
2	0x3edff3e4	0.4374076
3	0x3d933fb6	0.07189886
4	0x3d8a46e2	0.06751801
5	0x3e269beb	0.16270415
6	0x3e893020	0.2679453
7	0x3e8a413b	0.27002892
8	0x3e46d258	0.19416177
9	0x3dc23afd	0.09483907
10	0x3e300ad1	0.17191626
11	0x3dd32a82	0.10310842
12	0x3e8c61b6	0.27418298
13	0x3e691b85	0.22764404
14	0x3db5485f	0.08851694
15	0x3dd72058	0.10504216
16	0x3dde791d	0.10862944
17	0x3e92c2b6	0.28664178
18	0x3e3dfe7f	0.18554114
19	0x3e383a18	0.17990911
20	0x3e53dceb	0.20689742
21	0x3e07a0c5	0.13244922
22	0x3e662ab4	0.22477227
23	0x3e080de4	0.13286549
24	0x3dbc6a19	0.09199924
25	0x3e7a4483	0.24440198
26	0x3d91a8c1	0.071122654
27	0x3d7dedb0	0.061994255
28	0x3e440b37	0.19144903
29	0x3e68e08b	0.22741906
30	0x3e08bbb7	0.13352858
31	0x3e0195fe	0.12654874

convs.1.nn.3.weight f4 [32, 32]
0	0x3da884e8	0.08228475
1	0xbe186968	-0.1488396
2	0xbd539698	-0.05165729
3	0x3d1ec90e	0.03876596
4	0x3d1fc7d5	0.039008934
5	0xbd2d3625	-0.042287964
6	0x3c2e0ea8	0.0106236115
7	0x3ded435b	0.11585113
8	0x3dc9aa7c	0.098469704
9	0x3ccb9a06	0.024853718
10	0x3e14db38	0.1453675
11	0x3e0e35a7	0.13887654
12	0xbca0826a	-0.019593436
13	0x3d5b8c18	0.0536004
14	0x3d4eae18	0.050458997
15	0xbe127ad9	-0.14304675
16	0x3a534927	0.0008059912
17	0x3cc8a1f8	0.024491295
18	0xbe24c3d5	-0.16090329
19	0xbd2b7add	-0.04186522
20	0x3d638608	0.055547744
21	0x3d9e418b	0.07727345
22	0xbc623901	-0.013807536
23	0xbd36d853	-0.044639897
24	0xbdc49c89	-0.09600169
25	0x3d930087	0.07177835
26	0x3dced908	0.10099989
27	0xbd45791e	-0.04821121
28	0x3dc4b7a7	0.096053414
29	0x3dcb6a9c	0.099324435
30	0xbd174529	-0.03693119
31	0x3da0fcb8	0.07860702
32	0xbd74f99c	-0.05980836
33	0xbe1092f7	-0.14118563
34	0x3e05c826	0.13064632
35	0x3d8b9d4b	0.06817111
36	0xbe3655b0	-0.17806125
37	0x3da1fc5d	0.079094626
38	0xbc9e54dd	-0.019327575
39	0xbe12f490	-0.14351106
40	0xbd98d256	-0.074619934
41	0x3d85d51b	0.06534787
42	0xbe3268b4	-0.17422754
43	0xbcd230f3	-0.025658106
44	0x3d81e97a	0.0634336
45	0xbda771cf	-0.08176004
46	0xbe04fd37	-0.12987219
47	0xbd2f1cb8	-0.042751998
48	0x3b13e392	0.0022566062
49	0xbe2813bb	-0.16413777
50	0xbde76434	-0.11298409
51	0xbe25f545	-0.16206844
52	0x3ce20402	0.027589802
53	0x3de5aa9a	0.1121418
54	0xbe059fc4	-0.13049227
55	0x3d74271f	0.05960762
56	0x3dccd9b1	0.10002459
57	0x3de09a18	0.10966891
58	0x3d8223c0	0.06354475
59	0x3df4ca26	0.11952619
60	0xbcd79e4e	-0.026320603
61	0xbe172441	-0.14759924
62	0xbdc4d063	-0.09610059
63	0x3ca7cd99	0.020483779
64	0xbd794729	-0.06085888
65	0xbd271d51	-0.040799443
66	0x3b4833c3	0.003054843
67	0x3e062129	0.13098587
68	0xbe07c02f	-0.13256906
69	0x3de9e458	0.11420506
70	0xbc882b8a	-0.016622324
71	0x3e2ff9e1	0.17185165
72	0xbd959f6d	-0.07305799
73	0xbe0bdcbe	-0.13658425
74	0x3e06d4ce	0.13167116
75	0x3d0728e3	0.032997977
76	0x3af67b3e	0.001880504
77	0xbdece1af	-0.11566483
78	0xbdb81c9a	-0.0898983
79	0x3c1c32f5	0.0095336335
80	0x3dbca63f	0.092113964
81	0x3c2ef69e	0.010678915
82	0xbe2a9a37	-0.16660391
83	0xbd0032a2	-0.031298287
84	0x3de84ee8	0.11343175
85	0x3d6705de	0.05640208
86	0x3d9ad407	0.07559972
87	0x3d9582c8	0.07300335
88	0x3e4227ad	0.18960448
89	0x3bbe44c8	0.005806539
90	0xbe2bb169	-0.16766895
91	0xbcca3847	-0.024685038
92	0xbdd8050f	-0.1054784
93	0xbd913c7f	-0.07091617
94	0xbbeeeac8	-0.0072911717
95	0xbdea8f93	-0.11453166
96	0xbd9021e1	-0.07037712
97	0x3c5b86fe	0.013398884
98	0xbe0d2ea7	-0.13787328
99	0xbe2e913a	-0.17047587
100	0xbe0ff27d	-0.14057346
101	0x3dc5a2f5	0.09650222
102	0xbe15695b	-0.14590971
103	0xbcb4e8a6	-0.022083592
104	0x3e0407c2	0.12893584
105	0xbd457cae	-0.048214607
106	0xbe12e32f	-0.14344476
107	0xbc7600df	-0.015014856
108	0x3c40c150	0.011764839
109	0xbd998103	-0.0749531
110	0xbdb62e0b	-0.08895501
111	0xbe0e38bb	-0.13888828
112	0xbcffd89f	-0.031231223
113	0xbc4c80df	-0.012481897
114	0x3c9e255d	0.019304926
115	0x3b792d73	0.0038021475
116	0x3dc19d26	0.09453802
117	0x3d8136a8	0.06309253
118	0xbdeea7e0	-0.11653113
119	0xbca53172	-0.020165179
120	0x3d5927d8	0.053016514
121	0x3c0f3cd9	0.008742535
122	0xbd814434	-0.06311837
123	0x3e160efc	0.14654154
124	0xbe18af6a	-0.14910665
125	0xbe4ab2e3	-0.19794802
126	0xbcb247a1	-0.021762671
127	0x3e09e02c	0.13464421
128	0x3a80f130	0.0009837504
129	0xbd85fc68	-0.06542283
130	0xbd9ccf7e	-0.076567635
131	0x3d2928c2	0.041298635
132	0xbc153987	-0.009107954
133	0xbdb27a84	-0.08714774
134	0xbe0500b3	-0.12988548
135	0x3dd84910	0.105608106
136	0x3bb48ee2	0.005510197
137	0xbdc061ec	-0.09393677
138	0x3dfc13ea	0.12308486
139	0x3bdffaa8	0.0068353005
140	0x3ce21e2b	0.027602276
141	0xbe4052d6	-0.187816
142	0x3d47bcce	0.048764043
143	0xbe1fad70	-0.15593505
144	0x3cd43564	0.025904365
145	0xbc8e51c6	-0.017372977
146	0x3c754c6e	0.014971836
147	0x3e1afb27	0.1513487
148	0xbd8898e0	-0.066697836
149	0xbe3b0c09	-0.1826631
150	0x3e04a830	0.12954783
151	0xbd2cf3ad	-0.042224575
152	0xbdfa8a33	-0.12233391
153	0x3dc0617d	0.093935944
154	0x3db07c88	0.086175025
155	0x3d406cfd	0.04697894
156	0x3c3d91d5	0.011570414
157	0xbcb6307e	-0.02223992
158	0xbb092415	-0.0020926048
159	0x3d21d9b5	0.039514262
160	0xbd13a245	-0.036043424
161	0x3e15621e	0.1458821
162	0xbdf43354	-0.119238526
163	0xbd80d9f5	-0.06291572
164	0x3d16e9a3	0.036843907
165	0x3df36b24	0.1188567
166	0x3deed88f	0.11662399
167	0xbbe53734	-0.006995106
168	0xbe20473b	-0.15652172
169	0xbd4d863e	-0.05017685
170	0xbd31f6ff	-0.043448444
171	0xbd9b0194	-0.075686604
172	0xbe03aed3	-0.12859659
173	0x3e290242	0.16504768
174	0xbde2f697	-0.110821895
175	0x3d0d5e6d	0.03451388
176	0x3d8454ec	0.0646151
177	0x3e03e7eb	0.12881438
178	0x3e25b64a	0.16182819
179	0x3d206641	0.039160017
180	0xbb8353b1	-0.0040077795
181	0xbe0c5542	-0.13704398
182	0x3dcbda4f	0.099537484
183	0x3e1ced6d	0.15324946
184	0x3da7c4ee	0.08191858
185	0xbe3b2e1a	-0.18279305
186	0x3dac27cd	0.08406029
187	0xbcfdde34	-0.030989744
188	0x3d2846ae	0.04108303
189	0xbd54697a	-0.051858403
190	0x3e1b1200	0.15143585
191	0xbd481303	-0.048846256
192	0xbdae52a9	-0.0851186
193	0x3d4e7b40	0.05041051
194	0xbdcdc4c1	-0.100472935
195	0x3d8279db	0.06370898
196	0x3de6c1bf	0.11267423
197	0xba3f3254	-0.0007293571
198	0x3d9101e4	0.07080439
199	0x3e0205d3	0.12697534
200	0xbe2d4220	-0.16919756
201	0xbd5299ce	-0.05141621
202	0x3beec4d0	0.0072866455
203	0x3c4e870e	0.012605442
204	0x3dd31186	0.10306077
205	0x3e1cf2e2	0.15327027
206	0xbda18ae3	-0.07887819
207	0x3d3e6bbc	0.046489462
208	0x3db0451a	0.0860693
209	0xbe125324	-0.14289528
210	0x3c8f3237	0.017479999
211	0x3dd07fd4	0.10180631
212	0x3dceca56	0.10097186
213	0x3d8c14b0	0.06839883
214	0x3e0a8f7b	0.13531296
215	0xbd4775bd	-0.04869627
216	0x3cff0fba	0.031135429
217	0x3e00bb08	0.12571347
218	0xbd9722c5	-0.07379679
219	0xbd94c989	-0.07265002
220	0x3d33f545	0.04393508
221	0xbdf1eedd	-0.11813138
222	0x3db5d13a	0.088777974
223	0xbe0ff352	-0.14057663
224	0xbd502cc8	-0.050823957
225	0x3cf13d88	0.029448286
226	0x3d993fd4	0.074828774
227	0x3e130ecb	0.14361112
228	0xbe07303a	-0.1320199
229	0xbe3052cc	-0.17219085
230	0xbe03985e	-0.12851092
231	0xbde752d8	-0.11295098
232	0x3e0c9447	0.13728438
233	0x3d62156c	0.05519621
234	0xbe23589f	-0.15951775
235	0xbe29d372	-0.16584566
236	0x3d22aa05	0.039712925
237	0xbe21f43d	-0.15815826
238	0x3d0cc6ee	0.0343694
239	0x3c3f587d	0.011678812
240	0x3de93f5d	0.11389039
241	0xbe003d4d	-0.12523384
242	0xbbbdb78b	-0.0057897023
243	0x3da199f0	0.078906894
244	0xbd251074	-0.040298894
245	0xbded1fe0	-0.11578345
246	0x3d61af07	0.05509856
247	0xbe2d785d	-0.16940446
248	0xbd3dbd98	-0.04632339
249	0x3d3ef1c3	0.04661728
250	0x3d857ff0	0.06518543
251	0xbb93cd1f	-0.0045105363
252	0xbe015f35	-0.12633975
253	0xbdc07c51	-0.093987115
254	0xbbb79896	-0.0056029065
255	0xbdb564e3	-0.08857133

convs.1.nn.3.bias f4 [32]
0	0xbe0e6084	-0.13904005
1	0xbd907f49	-0.07055528
2	0x3d48afb7	0.0489957
3	0xbd68b130	-0.056809604
4	0xbd3f8e4f	-0.046766575
5	0xbd483e87	-0.048887756
6	0xbe305d40	-0.17223072
7	0xbd8f0cb0	-0.06984842
8	0x3d4afdcc	0.049558446
9	0xbe4364b8	-0.1908139
10	0xbe025055	-0.12725957
11	0xbd6fea1d	-0.058572877
12	0xbe440bb5	-0.19145091
13	0xbe198ce7	-0.14995156
14	0x3dce1c39	0.10063977
15	0xbda5fdd2	-0.08105053
16	0xbd0801d0	-0.033204854
17	0x3d860e2f	0.06545674
18	0xbd208109	-0.039185558
19	0xbd66153e	-0.056172602
20	0x3d43ca8e	0.047800593
21	0xbdb2e851	-0.08735717
22	0xbd04394e	-0.032281213
23	0xbd98403d	-0.074341275
24	0xbe0a5ada	-0.1351122
25	0xbe0a3b4e	-0.13499185
26	0xbd8b1063	-0.06790235
27	0xbda6ca2f	-0.08144032
28	0x3d7b6a95	0.06138094
29	0xbd038d8c	-0.03211741
30	0x3c9d2263	0.019181436
31	0xbe14aff6	-0.14520249

convs.2.nn.0.weight f4 [32, 64]
0	0x3de49722	0.11161639
1	0xbe12121b	-0.14264719
2	0x3d36d00b	0.044632
3	0xbe2146a5	-0.15749605
4	0x3cd1dccc	0.02561798
5	0xbd684f78	-0.056716412
6	0x3d83c75c	0.06434509
7	0xbdf2702c	-0.11837801
8	0x3e12d1ac	0.14337796
9	0x3c9d275c	0.019183807
10	0xbd85abb8	-0.065268934
11	0x3e151ad4	0.14561015
12	0x3c2b769e	0.010465292
13	0xbd562986	-0.052285694
14	0x3cac04bc	0.020998351
15	0xbdcee4cb	-0.101022325
16	0x3dbde86c	0.092728466
17	0xbd4330b0	-0.047653854
18	0xbd0ace03	-0.033887874
19	0xbdc6f2ad	-0.097142555
20	0xbc2b065b	-0.010438527
21	0x3d407879	0.04698989
22	0x3e022dd2	0.12712792
23	0x3cbec818	0.023288772
24	0xbd10dc8e	-0.035366587
25	0xbab1930b	-0.001354785
26	0x3d9abe2d	0.075558044
27	0x3d5218e9	0.051293287
28	0xbdb312ba	-0.08743806
29	0x3c254852	0.010088043
30	0xbd80dc8c	-0.06292066
31	0xbca17d1f	-0.019712983
32	0xbda1a3c0	-0.07892561
33	0xbcdc6b14	-0.026906528
34	0x3dbc693c	0.09199759
35	0xbdae2dde	-0.08504842
36	0x3d68d9b9	0.05684826
37	0x3d2186b3	0.0394351
38	0xbd07253f	-0.032994505
39	0x3e054069	0.13012852
40	0x3dd0b9d4	0.10191694
41	0x3d322fd1	0.043502633
42	0xbd935b9b	-0.07195207
43	0xbc3d728c	-0.011562955
44	0xbc016aa2	-0.007898958
45	0x3cc20a64	0.023686595
46	0xbd4c87b5	-0.049934108
47	0xbd949b71	-0.072562106
48	0x3dc38578	0.095469415
49	0x3b9f32b4	0.004858339
50	0xbd856639	-0.06513638
51	0x3dcee4d5	0.1010224
52	0xbd8a7c7c	-0.06762025
53	0xbda24f20	-0.07925248
54	0x3cff664b	0.031176707
55	0x3d847196	0.06466977
56	0x3d614d83	0.05500556
57	0xbdb0ee7b	-0.086392365
58	0xbc237e00	-0.009978771
59	0x3d7a2d8f	0.061078604
60	0x3d9b046b	0.07569202
61	0x3c8e7ed9	0.01739447
62	0xbdd0de6a	-0.10198672
63	0x3d94b273	0.07260599
64	0x3d7e0fc7	0.062026765
65	0xbb139e4d	-0.0022524775
66	0x3cd82319	0.026383923
67	0xbd887d15	-0.066644825
68	0xbd0b074a	-0.0339425
69	0x3dbf44ba	0.093392804
70	0xbd5030fd	-0.05082797
71	0xbd101e82	-0.035185345
72	0x3dd94ce0	0.10610366
73	0x3ddecc40	0.10878801
74	0xbb8ced05	-0.004300716
75	0x3d03d61b	0.03218661
76	0x3d5a2bbe	0.053264372
77	0x3dd94013	0.10607924
78	0xbe0bed29	-0.13664688
79	0x3da5f15f	0.081026785
80	0x3cac16fc	0.021007054
81	0x3d5bb89f	0.053642865
82	0x3d85da5c	0.06535789
83	0x3c8a73ca	0.016900916
84	0xbd9670b6	-0.07345717
85	0x3db2d979	0.08732886
86	0x3c5f2fd2	0.013622241
87	0x3cd8e3ac	0.02647575
88	0xbd931bb0	-0.07183015
89	0x3d51e052	0.05123932
90	0xbd45f0b1	-0.048325244
91	0x3b16416b	0.0022927176
92	0x3cca485c	0.024692707
93	0x3d4ac694	0.049505785
94	0x3dcd0f63	0.100127004
95	0xbda07de4	-0.07836512
96	0xbb972347	-0.0046123597
97	0x3cb5baa0	0.022183716
98	0x3c82f0ce	0.015983965
99	0xbce6fbf2	-0.028196309
100	0xbd84a60a	-0.06476982
101	0xbde4abb2	-0.11165561
102	0x3d307354	0.043078735
103	0x3d8c83b7	0.0686106
104	0xbd4f29e2	-0.050577052
105	0xbd966867	-0.07344132
106	0xbcc8d133	-0.024513816
107	0xbc843fea	-0.016143758
108	0x3d30c9bc	0.04316114
109	0xbcbbdaaa	-0.022931416
110	0xbdc5b702	-0.096540466
111	0xbd848146	-0.064699695
112	0xbd446745	-0.047950048
113	0xbc74488e	-0.0149098765
114	0x3d7cbefd	0.061705578
115	0x3d39f3e6	0.045398615
116	0xbdb1ef0f	-0.08688175
117	0xbdf3f021	-0.11911035
118	0xbc60959a	-0.013707543
119	0x398b2eeb	0.00026547103
120	0x3db4181a	0.087936595
121	0xbd6f8982	-0.058480747
122	0xbbbd6ca1	-0.005780772
123	0x3b51c864	0.0032010311
124	0x3dc386e3	0.09547212
125	0x3da76b3e	0.08174752
126	0xbdcd0955	-0.100115456
127	0xbc9f3876	-0.019436102
128	0x3e0a8aeb	0.13529555
129	0xbdc656b1	-0.09684504
130	0x3e03d08c	0.12872523
131	0xbd971c00	-0.073783875
132	0xbd7595b9	-0.05995724
133	0xbd3d36b3	-0.046194743
134	0x3d205df0	0.039152086
135	0xbdacd6d8	-0.08439416
136	0x3e00800f	0.1254885
137	0xbc923d9a	-0.01785164
138	0x3dc53162	0.0962856
139	0x3d06af0d	0.032881785
140	0xbd558fee	-0.052139215
141	0x3d7741dc	0.060365543
142	0xbb845c80	-0.004039347
143	0x3da4e6ce	0.08051835
144	0xbd6c71cc	-0.057725713
145	0xbd953d99	-0.072871394
146	0xbdd56f69	-0.104216404
147	0xbb3529c5	-0.0027643305
148	0x3cc09801	0.023509981
149	0x3dc86dcb	0.09786566
150	0x3cd28d06	0.02570201
151	0xbdb1b0a2	-0.08676268
152	0xbce4e27f	-0.027940033
153	0xbd8fd46d	-0.07022939
154	0xbcc1563b	-0.023600688
155	0xbc6a950b	-0.014317761
156	0xbd8dfd70	-0.06933105
157	0xbdd69b2a	-0.10478814
158	0xbd35337b	-0.04423855
159	0x3ce44ec9	0.027869599
160	0x3cfd48e8	0.030918553
161	0x3d89e91c	0.06733915
162	0xbd63abb9	-0.05558369
163	0xbccc9ab3	-0.02497611
164	0xbd937a0c	-0.07201013
165	0xbddb9836	-0.10722391
166	0x3d4fb80a	0.050712623
167	0x3c3bf092	0.011470931
168	0x3dbe57e8	0.092941105
169	0x3d0b3958	0.033990234
170	0xbd004aaa	-0.031321205
171	0x3c6c371d	0.014417437
172	0xbda943ff	-0.08264922
173	0xbd835573	-0.064127825
174	0xbda8e36c	-0.08246502
175	0xbd64b73f	-0.05583882
176	0x3c82827a	0.015931357
177	0xbd8197f7	-0.06327813
178	0xbd72cb8b	-0.059276145
179	0xbd83dfaf	-0.06439149
180	0x3de1588a	0.110032156
181	0x3d60071e	0.054694287
182	0x3d671b5c	0.056422576
183	0x3dc883ca	0.09790762
184	0x3dbbd75d	0.09171937
185	0xbdf2d1ed	-0.118564464
186	0xbdad3798	-0.08457869
187	0x3ddc6636	0.10761683
188	0xbd0bfb9d	-0.034175504
189	0x3e11f3bd	0.14253135
190	0xbe0c4669	-0.13698734
191	0xbcbacfd0	-0.02280417
192	0x3cb4165e	0.021983322
193	0x3db2f345	0.08737806
194	0x3e10d9ae	0.14145538
195	0x3ccdafc8	0.025108233
196	0xbdc3be92	-0.09557833
197	0xbcf3295c	-0.029682808
198	0xbbd7b2d5	-0.0065825977
199	0xbe05a3db	-0.13050787
200	0x3c5aab2e	0.0133464765
201	0x3d5bc5b5	0.053655345
202	0xbc8e3fc6	-0.017364394
203	0x3dc2cadc	0.095113486
204	0xbe04349e	-0.12910697
205	0x3d1942f3	0.037417363
206	0xbe2129a2	-0.15738538
207	0x3d044bc6	0.032298826
208	0xbc46de43	-0.012137952
209	0xbb00c709	-0.0019649884
210	0x3da31547	0.07963043
211	0x3c6aa827	0.014322317
212	0x3df7673e	0.12080239
213	0x3c9c2c8f	0.019064216
214	0xbd544be4	-0.051830187
215	0x3c7ccbdc	0.015429463
216	0xbcad3f6d	-0.021148408
217	0x3dafc274	0.08582011
218	0x3bc2e145	0.0059472644
219	0x3d63d110	0.0556193
220	0x3d1bff11	0.038085047
221	0xbe14a2e9	-0.1451527
222	0x3c933c7f	0.017973183
223	0xbe069042	-0.13140967
224	0xbdfd9707	-0.12382322
225	0x3ddfe29b	0.109318934
226	0x3d7f0161	0.062257174
227	0x3d0be202	0.034151085
228	0xbda0d03b	-0.07852217
229	0x3d2e9c7d	0.042629708
230	0xbdcbef4a	-0.0995775
231	0x3de7cc0a	0.11318214
232	0x3dae23d3	0.08502927
233	0x3d88133f	0.06644296
234	0xbdaa53ac	-0.083167404
235	0x3c644703	0.013932946
236	0x3d2b212b	0.04177968
237	0xbd92418f	-0.071414106
238	0x3a6e16fc	0.00090824044
239	0x3cb2bff5	0.021820048
240	0xbda414ab	-0.080117546
241	0xbc9fac94	-0.019491471
242	0x3d6a0543	0.057133924
243	0x3dd5983f	0.10429429
244	0xbd64f467	-0.055897143
245	0xbddf0f81	-0.10891629
246	0x3d861c35	0.06548349
247	0xbcd4984c	-0.025951527
248	0xbd526122	-0.051362164
249	0xbd4b981c	-0.04970561
250	0xbd929cf9	-0.071588464
251	0x3da58b43	0.08083203
252	0xbcf4e3c2	-0.02989376
253	0x3d2eec65	0.042705912
254	0x3ca83a46	0.0205356
255	0xbb9089b8	-0.0044109486

convs.2.nn.0.bias f4 [32]
0	0x33a08e67	7.4764834e-08
1	0x34b7b9fb	3.4221725e-07
2	0x34011566	1.2021846e-07
3	0x341928fa	1.4264143e-07
4	0x358895b0	1.0176354e-06
5	0x35afea3c	1.3106687e-06
6	0xb39ca440	-7.294193e-08
7	0xb52bc844	-6.399389e-07
8	0xb557743c	-8.0262885e-07
9	0xb49738f9	-2.8167395e-07
10	0xb482d4bc	-2.4369172e-07
11	0x35b63b02	1.357723e-06
12	0x34351d58	1.6867614e-07
13	0x33bb11d6	8.7111104e-08
14	0x33977267	7.052295e-08
15	0x326f2bac	1.3921561e-08
16	0xb484221e	-2.461174e-07
17	0xb2026985	-7.590988e-09
18	0xb427309f	-1.5570775e-07
19	0x33b668ec	8.4941206e-08
20	0x340b3139	1.2963291e-07
21	0x362f8c05	2.6158534e-06
22	0xb4d049ae	-3.8796628e-07
23	0x35654d11	8.5421294e-07
24	0xb3a63978	-7.740431e-08
25	0x3437d496	1.7120541e-07
26	0xb2b268ea	-2.0769637e-08
27	0xb577ef01	-9.2362467e-07
28	0x350d5cba	5.266153e-07
29	0x3434a58d	1.6824033e-07
30	0x329243d6	1.7027485e-08
31	0xb2e7ab5b	-2.6969863e-08

convs.2.nn.1.weight f4 [32]
0	0x3f6ef328	0.93339777
1	0x3f7f2f4a	0.9968153
2	0x3f66f4b1	0.9021712
3	0x3f65dcbf	0.89789957
4	0x3f6e0fd5	0.9299291
5	0x3f6a5ded	0.9154957
6	0x3f793d2b	0.9735896
7	0x3f5d008c	0.8632896
8	0x3f7b84e4	0.9824965
9	0x3f759250	0.9592638
10	0x3f6ccce6	0.9250015
11	0x3f6cff35	0.92576915
12	0x3f7861ad	0.9702404
13	0x3f7300a2	0.9492284
14	0x3f807b85	1.0037695
15	0x3f82b4ac	1.0211387
16	0x3f613de7	0.8798508
17	0x3f69e1ba	0.91360056
18	0x3f7b2f22	0.98118794
19	0x3f73649b	0.95075387
20	0x3f80fce1	1.0077173
21	0x3f7032c0	0.9382744
22	0x3f84e194	1.0381341
23	0x3f68b657	0.9090323
24	0x3f6df3b7	0.92950004
25	0x3f74b992	0.9559566
26	0x3f861f50	1.0478306
27	0x3f8609ff	1.04718
28	0x3f81f7ef	1.0153788
29	0x3f63b698	0.8895049
30	0x3f72e4c6	0.9488033
31	0x3f856900	1.0422668

convs.2.nn.1.bias f4 [32]
0	0xbd54aafc	-0.051920876
1	0xbd4ec851	-0.050484005
2	0x3ba41eb3	0.0050085424
3	0xbd3ab4ce	-0.045582585
4	0xbd065246	-0.032793306
5	0xbd699210	-0.05702406
6	0xbc09c720	-0.0084092915
7	0xbdb931cb	-0.090427004
8	0x3bd120ba	0.006382075
9	0xbd23c2b4	-0.039980605
10	0xbccc636b	-0.02494975
11	0x3c9dc82b	0.019260487
12	0x3aee9a25	0.0018203898
13	0xbd2df8e9	-0.042473707
14	0xbcc14390	-0.023591787
15	0xbc86d11c	-0.016457133
16	0xbd93d48a	-0.07218273
17	0xbd17a1fa	-0.037019707
18	0xbcc901b4	-0.024536945
19	0xbce48a7d	-0.027898068
20	0xbcc60e96	-0.024176877
21	0xbc2294ae	-0.009923143
22	0xbbcdd8d1	-0.00628195
23	0xbd124a26	-0.035715245
24	0xbbc9acf4	-0.006154651
25	0xbd00f993	-0.031488013
26	0x3c6917e9	0.014226892
27	0xbc2fd93a	-0.010732943
28	0x3c03b5c5	0.008038943
29	0xbd09ff1a	-0.03369055
30	0xbd834241	-0.06409121
31	0xbacbd380	-0.0015550703

convs.2.nn.1.running_mean f4 [32]
0	0x3e303bcf	0.17210315
1	0x3e48a601	0.19594575
2	0x3e2ca162	0.16858438
3	0x3de6331f	0.11240219
4	0xbdb51694	-0.08842197
5	0xbe3f3642	-0.18673041
6	0x3e4cb1e6	0.19989738
7	0xbe08be51	-0.1335385
8	0xbe12ac7a	-0.14323607
9	0xbdc91aaf	-0.098195426
10	0xbe29502d	-0.16534491
11	0x3df83f46	0.121214435
12	0x3d3accfa	0.045605637
13	0x3dcee85a	0.10102911
14	0x3e50e951	0.20401503
15	0x3c781cf2	0.01514362
16	0x3acd9f88	0.0015687803
17	0x3c53c5e8	0.0129256025
18	0x3e5589a6	0.2085329
19	0x3c318dec	0.0108370595
20	0x3e15782c	0.14596623
21	0xbc933b6b	-0.017972669
22	0x3e567731	0.20943905
23	0x3ced2bbd	0.02895152
24	0x3e050b8c	0.12992686
25	0x3e5e489d	0.21707387
26	0x3e4746b4	0.19460565
27	0x3e80a7a7	0.2512791
28	0x3e1119fc	0.14170069
29	0xbe2022b8	-0.15638244
30	0x3deb499f	0.114886515
31	0x3dc8c445	0.098030604

convs.2.nn.1.running_var f4 [32]
0	0x3ee4c182	0.44678885
1	0x3f69a29b	0.9126374
2	0x3eb4f582	0.35343558
3	0x3ecb1221	0.3966227
4	0x3e33e09e	0.17566153
5	0x3dc3ebaf	0.095664375
6	0x3f362e39	0.7116428
7	0x3dcc7688	0.099835455
8	0x3e8ac9eb	0.27107176
9	0x3e00f635	0.1259392
10	0x3f6d651d	0.9273241
11	0x3e45b43a	0.19307032
12	0x3ee111bd	0.43958846
13	0x3e40272f	0.18764947
14	0x3f53a555	0.8267415
15	0x3f6b3681	0.9188004
16	0x3ecf30c1	0.40466884
17	0x3e39123a	0.18073359
18	0x3ee8fe03	0.45506296
19	0x3e4b7b31	0.19871213
20	0x3ed478ab	0.41498312
21	0x3ebb9b60	0.3664198
22	0x3f1291d9	0.57253796
23	0x3dddd4b7	0.10831588
24	0x3e81e876	0.25372666
25	0x3ed8f20e	0.42372173
26	0x3f107ca0	0.5644016
27	0x3f35882c	0.70910907
28	0x3f1eb315	0.6199201
29	0x3e68cbd6	0.22734007
30	0x3f275107	0.6535801
31	0x3f12f902	0.57411206
